models/2024-12-13_18-52-49/ackley_model.pt (torch, 70842 bytes, 5 tensors)

model.0.weight f4 [128, 2]
0	0xbe0a03d1	-0.13478018
1	0x3e13030c	0.14356631
2	0x3dd2b584	0.102885276
3	0x3ce6bb34	0.028165437
4	0x3e00ed99	0.12590636
5	0x39a2dd91	0.00031064128
6	0x3f1558e2	0.5833875
7	0x3eeaca9c	0.45857704
8	0xbe96b6ed	-0.29436436
9	0x3cc7d28e	0.024392392
10	0xbf335e1f	-0.7006549
11	0x3c19815e	0.009369222
12	0x3e51def2	0.20495203
13	0xbdf18b0e	-0.11794101
14	0xbf3bbfc9	-0.73339516
15	0x36a6bb90	4.9690207e-06
16	0xbd831086	-0.06399636
17	0x3d8391f1	0.064243205
18	0x3c2f167a	0.010686511
19	0x3f5eeba6	0.8707832
20	0xbf1633c8	-0.5867276
21	0x3e9a4cf3	0.30136833
22	0x3ed99bc2	0.42501646
23	0xbecc51b0	-0.39906073
24	0x3f0205f6	0.50790346
25	0xbd4fa967	-0.050698664
26	0x3eb04763	0.34429464
27	0xbd2ae600	-0.04172325
28	0x3e113a41	0.14182378
29	0xbed7e971	-0.4217029
30	0xbdb2f22c	-0.08737597
31	0x3e8571d6	0.26063412
32	0xbe6ccdc6	-0.23125371
33	0xbe1f8837	-0.15579306
34	0xbc14c79b	-0.009080793
35	0x3f6f857e	0.9356307
36	0x3f0c055e	0.5469569
37	0x3dacc987	0.08436876
38	0x3f00494e	0.50111854
39	0x3a64df57	0.000873079
40	0x3e2e50e2	0.17023042
41	0x39de310b	0.0004237968
42	0x3f1e4223	0.61819667
43	0x3ebb39fc	0.36567676
44	0xbe0c4803	-0.13699345
45	0xbe0c1d9a	-0.13683167
46	0x3e8e4928	0.2779019
47	0xbe1f5269	-0.1555878
48	0xbd865c30	-0.06560552
49	0x3f4319f6	0.7621149
50	0xbf038bf9	-0.51385456
51	0x3e46bbae	0.19407532
52	0x3f14d775	0.5814126
53	0xbe0137ea	-0.12618986
54	0x3e357e39	0.17723931
55	0x3f0a5e03	0.540497
56	0xbf380651	-0.7188464
57	0xbc8b39cf	-0.016995339
58	0xbf0efd76	-0.558555
59	0x3cc79e13	0.024367368
60	0xbe0359aa	-0.12827173
61	0xbee763d1	-0.4519334
62	0xbebbc868	-0.36676335
63	0x3f13c11f	0.57716554
64	0xbe7983f8	-0.24366748
65	0xbf2ba84c	-0.67053676
66	0xbee98c61	-0.45614913
67	0x3f22dba1	0.6361638
68	0x3e02b6c4	0.12765032
69	0x3edca147	0.43091795
70	0x3e8720be	0.26392168
71	0xbf260eb1	-0.6486617
72	0x3a00dc5d	0.0004915649
73	0x3e133aa3	0.14377837
74	0xbf2323e6	-0.6372665
75	0x3b4dfb61	0.003143035
76	0x3ea0de0d	0.3141941
77	0x3e92c85f	0.28668496
78	0x3f83b910	1.0290852
79	0xbeaca909	-0.33722714
80	0x3e36b5fc	0.17842859
81	0x39ecc9ca	0.00045163772
82	0xbf3d5528	-0.73958063
83	0x3d818b30	0.06325376
84	0xbf0b7573	-0.5447609
85	0x3af995ec	0.0019041873
86	0xbe8913e2	-0.26772982
87	0xbe9cd1bc	-0.30628765
88	0xbebc4e23	-0.36778364
89	0x3ec0d664	0.37663567
90	0x3e179009	0.14801039
91	0x39cbe26b	0.00038887872
92	0x3c4a146e	0.012333972
93	0xbf39657c	-0.7242048
94	0xbd832da3	-0.06405189
95	0xbf1074c4	-0.5642817
96	0x3ef48771	0.47759584
97	0xbe456cba	-0.19279757
98	0x3f2d8032	0.67773736
99	0xbba1ab26	-0.0049337326
100	0x3e950e25	0.29112354
101	0x3f0af8f0	0.542861
102	0x3f0c1c4c	0.5473068
103	0x3ed661b2	0.4187141
104	0x3e94c5a8	0.2905705
105	0xbeb7b9bb	-0.3588389
106	0x3e10416d	0.14087458
107	0xbe6aed3a	-0.22942057
108	0xbebccce2	-0.36875063
109	0x3ec2c305	0.38039413
110	0x3f503da4	0.81344056
111	0x3c2fb1e2	0.010723563
112	0x3ed6a02b	0.41919073
113	0xbf1f0c85	-0.6212848
114	0xbf05851b	-0.5215623
115	0x3f2681b9	0.6504169
116	0xbf3782b0	-0.7168379
117	0x3dac05e1	0.08399559
118	0x3e1417e2	0.14462236
119	0xbf1daf5b	-0.61595696
120	0xbe5c529c	-0.21515888
121	0xbe1ba6af	-0.15200303
122	0x3da57f36	0.08080904
123	0xbf476b9c	-0.77898574
124	0x3f17b559	0.5926109
125	0x3f18331b	0.5945298
126	0x3e125218	0.14289129
127	0x3eb29b5b	0.34884152
128	0xbf29fd33	-0.66401976
129	0x3ddc6574	0.10761538
130	0x3d41250d	0.047154475
131	0x3b52887e	0.0032124813
132	0xbc3712dc	-0.01117393
133	0x3f65ce1b	0.89767617
134	0x3ec45853	0.38348636
135	0xbf06918d	-0.5256584
136	0xbf235649	-0.63803536
137	0xbf1944d1	-0.5987063
138	0x3f09744a	0.5369307
139	0x3f288e60	0.65842247
140	0x3e3f7149	0.18695559
141	0x3f0aaeab	0.5417277
142	0xba2b24aa	-0.00065285957
143	0x3f10153c	0.562824
144	0xbebc1895	-0.36737505
145	0x3e1e9c77	0.15489374
146	0xbe70ea6b	-0.23526923
147	0xbf326d16	-0.696977
148	0xbef705c6	-0.48246592
149	0x3ef2bee8	0.47411275
150	0x3c86475a	0.016391445
151	0x3f012886	0.5045246
152	0xbe86e897	-0.26349327
153	0xbe594f30	-0.21221614
154	0xbe4fcbeb	-0.20292632
155	0x3e4052e5	0.18781622
156	0x3e9cd340	0.3062992
157	0xbe6ac32e	-0.22926018
158	0x3f40ea6b	0.75357693
159	0x3f2b8f31	0.6701537
160	0xbe6125d7	-0.21987091
161	0xbe346887	-0.17617999
162	0x3e01a120	0.1265912
163	0xbf2eb95a	-0.68251574
164	0xbefe6645	-0.496874
165	0x3ef9ffd7	0.48828003
166	0xbf3058de	-0.688856
167	0xbcf11de8	-0.029433206
168	0x3ed52fc9	0.4163802
169	0xbe6c006d	-0.23047037
170	0xba690ea1	-0.00088904245
171	0xbe155064	-0.14581448
172	0x3f3d9bb2	0.740657
173	0x3ba529da	0.0050403895
174	0xbef6210d	-0.4807209
175	0xbea0fec2	-0.31444365
176	0x3c1632fe	0.009167431
177	0xbf09df45	-0.5385631
178	0xbe359e9f	-0.1773629
179	0xbf1c8ade	-0.61149395
180	0x3f2e71a0	0.6814213
181	0x3b9b89ba	0.004746643
182	0xbf3a1b62	-0.7269803
183	0xbc08b154	-0.00834306
184	0xbeb11040	-0.3458271
185	0x3eb41ba7	0.35177347
186	0xbe0e535a	-0.13898984
187	0xb95992b8	-0.0002074939
188	0xbe8da5df	-0.27665612
189	0x3e5526aa	0.2081553
190	0xbf117af5	-0.5682824
191	0xbea0f34a	-0.31435615
192	0x3e6ed6b9	0.23324098
193	0xbf044e2c	-0.5168178
194	0x3c2cf93d	0.01055747
195	0x3dad5905	0.08464245
196	0x3edf2cd3	0.43588886
197	0xbd8c2f20	-0.06844926
198	0x3c0f588c	0.008749139
199	0xbefd97c8	-0.49529862
200	0xbc3d65c8	-0.011559911
201	0x3f605645	0.87631637
202	0xbf283d1f	-0.65718263
203	0x3d760f94	0.06007345
204	0xbe1f468c	-0.15554255
205	0xbf0b7ded	-0.5448902
206	0x3f0a7485	0.54084045
207	0xbf210983	-0.6290514
208	0xbe7b16ec	-0.24520463
209	0x3f148fee	0.5803212
210	0xbeaa79bd	-0.33296004
211	0x3eac67cc	0.3367294
212	0xbf30f911	-0.69130045
213	0xbeb7676d	-0.35821095
214	0x3e948531	0.29007867
215	0xbe6f5104	-0.23370749
216	0xbe9c5e8a	-0.30540878
217	0xbe343392	-0.17597798
218	0x3f240e23	0.6408407
219	0xbd80f6aa	-0.062970474
220	0x3ed637eb	0.41839537
221	0xbe589e53	-0.21154146
222	0xbe9a2801	-0.30108646
223	0xbe9975eb	-0.29972777
224	0x3f109d32	0.5648986
225	0xbec2b0c3	-0.38025483
226	0xbc90bf37	-0.017669303
227	0xbf3f59dd	-0.74746495
228	0xbde56e7e	-0.11202715
229	0xbe82661f	-0.25468537
230	0xbee8b935	-0.45453802
231	0xbf130e97	-0.5744414
232	0xbc858dc9	-0.01630296
233	0xbf0b92d7	-0.54520935
234	0x3ee81b02	0.45333105
235	0x3ee8f3d6	0.45498532
236	0xbf123ddc	-0.5712564
237	0xbebeefb1	-0.37292245
238	0xbe5a9d67	-0.21349107
239	0xbeb38361	-0.35061172
240	0xbe0354f3	-0.12825374
241	0x3ca44cd9	0.020056175
242	0x3ef58357	0.47951767
243	0x3e5cef71	0.21575715
244	0x3f30b56d	0.69026834
245	0x3f1be9fc	0.60903907
246	0x3dc45364	0.09586218
247	0x3f171552	0.5901691
248	0x3f08c037	0.53418297
249	0x3edb6a67	0.42854616
250	0x3f1d7224	0.6150229
251	0x3f2f3538	0.6844058
252	0xbf3a935e	-0.72881114
253	0xba03a3d4	-0.0005021666
254	0xbed81995	-0.42207018
255	0xbc2cd56e	-0.0105489325

model.0.bias f4 [128]
0	0xbcd5eb1b	-0.026113084
1	0x3f2a7830	0.6658964
2	0x3f13295c	0.57484984
3	0xbebb205e	-0.36548132
4	0x3e1a7fa8	0.1508776
5	0xbeb1f0d1	-0.3475404
6	0x3d04b06b	0.032394808
7	0xbf8d9796	-1.1061885
8	0x3ef33367	0.47500154
9	0xbc893e46	-0.016753327
10	0xbe9681aa	-0.293958
11	0xbef147c7	-0.47125074
12	0x3f53aba6	0.8268379
13	0x3e31b15f	0.17352818
14	0x3e68d6ea	0.22738233
15	0xbbf6f15e	-0.0075360974
16	0x3e8c6457	0.27420303
17	0x3ebfc1b2	0.37452465
18	0xbd6d3ebd	-0.05792116
19	0xbfa10937	-1.2580937
20	0x3f46f761	0.7772122
21	0x3e15dbe6	0.14634666
22	0x3e4d5fd3	0.20056085
23	0x3d2c3e38	0.042051524
24	0xbfa05258	-1.2525129
25	0x3e392df0	0.1808393
26	0x3dca39ec	0.09874329
27	0xbf067b37	-0.5253176
28	0x3cd75c77	0.026289208
29	0xbf24c2b9	-0.64359623
30	0xbe99f50f	-0.30069777
31	0xbf054c3c	-0.5206945
32	0xbf1f4351	-0.6221209
33	0x3ef15035	0.47131506
34	0xbf7d5ea6	-0.9897255
35	0xbedc9f05	-0.43090072
36	0x3f274728	0.6534295
37	0x3f243279	0.64139515
38	0x3ed8e0b4	0.42358935
39	0xc008e00b	-2.1386745
40	0x3f5087c7	0.8145718
41	0xbf35c2a4	-0.71000123
42	0xbfae4f6c	-1.3617988
43	0x3edd8949	0.43268803
44	0xbf12e297	-0.57377
45	0x3f2cf650	0.67563343
46	0x3f356713	0.70860404
47	0xbf1bbbdb	-0.6083352
48	0xbd03cffb	-0.032180768
49	0x3cecbb8e	0.028898027
50	0x3e05e6a0	0.13076258
51	0xbe5bd1ae	-0.21466705
52	0x3e3d2884	0.18472487
53	0xbd40bc20	-0.04705441
54	0x3f695cc0	0.9115715
55	0xbedf595c	-0.43622863
56	0x3e3c6f2c	0.18401784
57	0xbed85e45	-0.42259422
58	0x3e167e17	0.14696537
59	0x3e89566a	0.2682374
60	0xbd154684	-0.036444202
61	0x3f644056	0.8916067
62	0x3c21da82	0.0098787565
63	0x3d830673	0.063977145
64	0x3f1d63e4	0.61480546
65	0xbebdf5b5	-0.37101522
66	0x3c82c652	0.015963707
67	0xbf27707d	-0.6540602
68	0xbed4edf0	-0.41587782
69	0xbecd1838	-0.4005754
70	0xbf79a05d	-0.9751032
71	0xbfb67ea4	-1.4257398
72	0xbebe894e	-0.3721413
73	0xbe912f5c	-0.28356445
74	0xbc8cd698	-0.01719217
75	0x3ef37445	0.47549644
76	0xbe1c660c	-0.15273303
77	0x3c303d3d	0.010756788
78	0x3c94e912	0.018177543
79	0xbf3f890d	-0.748185
80	0xbdf73cbf	-0.12072133
81	0xbeddcbf5	-0.4331967
82	0xbcaad923	-0.020855492
83	0x3d8ecdd4	0.06972852
84	0x3edca7db	0.43096814
85	0x3f28f297	0.6599516
86	0xbd3bb8dc	-0.045830593
87	0x3e16417d	0.1467342
88	0xbebfac28	-0.37436032
89	0x3e8f68e7	0.28009722
90	0xbf826b0d	-1.0188919
91	0xbc3d3715	-0.011548777
92	0xbc914217	-0.01773171
93	0x3f21e8a7	0.63245624
94	0xbe2ba0b5	-0.16760524
95	0xbd42e423	-0.04758085
96	0x3deba057	0.11505192
97	0x3ef3b50e	0.4759907
98	0x3eb5f8e8	0.35541463
99	0xbf34ce48	-0.7062726
100	0xbeda3620	-0.4261942
101	0xbedf890d	-0.4365925
102	0x3d8efdd4	0.069820076
103	0x3ecc5bf2	0.399139
104	0x3d0fc0b1	0.035095874
105	0xbe13b363	-0.144239
106	0xbf53e974	-0.82778096
107	0x3ef829a3	0.48469266
108	0xbce6a307	-0.02815391
109	0x3ec1c9ad	0.3784918
110	0xbeac402a	-0.33642703
111	0x3f181e23	0.59420985
112	0x3e06655d	0.13124605
113	0x3f42afa2	0.76049244
114	0xbe104a5d	-0.14090867
115	0xbf3c2549	-0.7349439
116	0x3f471309	0.7776342
117	0x3edd44e3	0.4321662
118	0x3e8fbca4	0.2807361
119	0xbe7f7fa4	-0.24951035
120	0x3f01cf66	0.5070709
121	0xbf3b1d1e	-0.73091304
122	0xbe8506eb	-0.2598184
123	0x3cc9f3c1	0.024652364
124	0x3e77e3ab	0.24207942
125	0x3ecb2557	0.39676926
126	0x3f36cffb	0.71411103
127	0x3d12ab24	0.035807744

model.2.weight f4 [128, 128]
0	0x3db99764	0.090620786
1	0x3cbf7358	0.02337043
2	0xbd203cc6	-0.039120458
3	0xbbe20d42	-0.006898553
4	0xbd3f4411	-0.046695773
5	0xbfa310dc	-1.273952
6	0x3e007237	0.1254357
7	0xbe84deea	-0.2595132
8	0xbe600ea2	-0.21880582
9	0x3e3cad5f	0.18425511
10	0xba86c785	-0.001028285
11	0x3dcc217a	0.09967323
12	0x3bfb08ad	0.0076609463
13	0xbdb7d0c7	-0.08975368
14	0xbcb6c4d5	-0.022310654
15	0xbba5a91e	-0.0050555607
16	0xbe8f5eb1	-0.2800193
17	0xbdc043de	-0.09387945
18	0xbd6224dc	-0.055210933
19	0xbd097d7d	-0.03356694
20	0x3c0cd1f1	0.008594976
21	0xbd253f56	-0.040343605
22	0xbe44d508	-0.1922189
23	0x3dd85bde	0.10564397
24	0x3f1979a1	0.59951216
25	0xbe72cafe	-0.23710248
26	0x3d83a080	0.06427097
27	0x3dc0bb4b	0.09410723
28	0x3e56f04b	0.20990102
29	0x3ea934b4	0.33048022
30	0x3db93d50	0.090448976
31	0x3de6cad6	0.11269157
32	0xbe826b04	-0.2547227
33	0xbcf79854	-0.030224003
34	0x3df1cd88	0.1180678
35	0x3dcda591	0.10041345
36	0xbe5ae974	-0.21378118
37	0x3f63ec63	0.8903257
38	0x3cb4e9f6	0.022084218
39	0x3e5beabc	0.21476263
40	0xbd1d9cdb	-0.038479667
41	0x3e3cfe59	0.18456401
42	0xbea7ee5b	-0.32799038
43	0x3e493015	0.19647248
44	0xbe522e47	-0.20525466
45	0x3dc30235	0.09521905
46	0x3e5f8eff	0.21831892
47	0x3de2b24c	0.11069164
48	0x3d65777c	0.056022152
49	0x3cfb7d26	0.030699324
50	0x3dbcc35e	0.09216951
51	0xbbba9c2a	-0.0056948857
52	0x3d1452c8	0.03621176
53	0x3e1cc59f	0.15309761
54	0xbe5694c6	-0.2095519
55	0xbea20944	-0.31647694
56	0x3db09813	0.08622756
57	0xbd0190d1	-0.03163225
58	0xbee7903a	-0.45227224
59	0xbcaa5d2c	-0.020796381
60	0xbde9c052	-0.11413635
61	0xbd031de6	-0.032010935
62	0x3de6f5bb	0.11277338
63	0x3bf09f74	0.007343227
64	0xbf07d693	-0.5306179
65	0xbb91e490	-0.0044522956
66	0x3e5cf910	0.21579385
67	0xbd3e07e3	-0.04639424
68	0x3eb6d488	0.35709023
69	0xbcf70ac0	-0.030156493
70	0xbc506cb8	-0.012721233
71	0xbcfea8c9	-0.031086342
72	0x3cdbed37	0.026846511
73	0x3d4f19e9	0.05056182
74	0x3e4091ca	0.18805614
75	0x3daff3dd	0.08591435
76	0xbd3b160e	-0.04567533
77	0x3ccd33e4	0.025049157
78	0x3d5063db	0.05087648
79	0xbd62099e	-0.055184953
80	0xbe1acae2	-0.15116456
81	0x3d077f26	0.033080243
82	0x3d285159	0.041093204
83	0x3e0ea6ab	0.13930766
84	0x3d979a76	0.07402508
85	0xbf01466d	-0.50498086
86	0x3d59819d	0.053102124
87	0xbbeef12e	-0.0072919345
88	0x3e2c6a5f	0.16837452
89	0x3c7c794b	0.015409778
90	0xbd95c8e8	-0.073137105
91	0x3e1c2a48	0.15250504
92	0x3d8b7aca	0.068105295
93	0xbf2ff05a	-0.6872612
94	0xbae42814	-0.0017406964
95	0xbe46e19a	-0.19421998
96	0x3d94eeb1	0.07272089
97	0x3d912bd8	0.07088441
98	0x3d1d42a1	0.03839362
99	0x3d551b12	0.05202777
100	0xb9aba85f	-0.00032741108
101	0xbebb9ccd	-0.36643067
102	0x3dcb65cf	0.09931528
103	0xbc09e9c6	-0.008417552
104	0x3e060462	0.1308761
105	0xbcd4f91e	-0.025997695
106	0xbfc4cf07	-1.537568
107	0x3d8f077f	0.06983852
108	0xbe8cb1d7	-0.2747943
109	0x3b401c38	0.0029313695
110	0x3c2acc1e	0.010424642
111	0x3e90a199	0.2824829
112	0x3dcc381e	0.09971641
113	0x3e931860	0.28729534
114	0xbd8880d3	-0.06665196
115	0xbf69f8fa	-0.91395533
116	0x3d6c5856	0.05770143
117	0x3c94bfad	0.018157804
118	0xbe31ff2a	-0.17382494
119	0xbd3901df	-0.0451678
120	0xbe58b46f	-0.2116258
121	0xbdf4cccd	-0.11953125
122	0xbc9e16d6	-0.019297998
123	0x3de5b698	0.112164676
124	0xbbefa64f	-0.0073135267
125	0xbdc26a1b	-0.09492894
126	0x3f42cd6b	0.7609469
127	0x3dddd5f4	0.10831824
128	0xbc24aa3e	-0.0100503545
129	0x3c1ea1fd	0.009682176
130	0x3ce11491	0.027475627
131	0xbc0dd8e3	-0.008657667
132	0xbd1269a1	-0.035745267
133	0xbd7d3e1c	-0.06182681
134	0x3d049ee8	0.032378107
135	0x3d5de676	0.054174863
136	0xbd6f53a4	-0.058429375
137	0xbd8acba7	-0.06777125
138	0xbd3a723f	-0.04551911
139	0x3d7189ed	0.058969427
140	0xbdc2eece	-0.09518205
141	0x3d47cd29	0.04877964
142	0xbdb72dce	-0.089442834
143	0xbd7e95b7	-0.062154498
144	0xbd9f168a	-0.07767971
145	0x3d2d43b3	0.04230089
146	0x3d78b1a0	0.06071627
147	0xbd7ad8c6	-0.061241888
148	0xbda239bb	-0.079211675
149	0xbd3654c8	-0.044514447
150	0xbcb54349	-0.02212681
151	0xbdaf9944	-0.08574155
152	0xbddcf4da	-0.10788889
153	0xbdccbb63	-0.09996679
154	0xbda633cb	-0.081153475
155	0xbdc92e3b	-0.09823271
156	0xbd50180e	-0.05080419
157	0xbd78a73c	-0.060706362
158	0xbd17ea15	-0.037088472
159	0xbcbd2ccc	-0.02309265
160	0xbda44efb	-0.08022877
161	0xbdb16f8a	-0.086638525
162	0xbd1dfa4d	-0.038568784
163	0x3a0c2871	0.00053466024
164	0x3c9efb5c	0.019406967
165	0xbd899ce9	-0.06719381
166	0xbde065c7	-0.109569125
167	0x3c3af4c2	0.011410894
168	0xbcaabd45	-0.020842204
169	0x3ca89fb4	0.020583965
170	0xbc610510	-0.013734117
171	0xbdc84f82	-0.0978079
172	0xbbbc21f1	-0.005741351
173	0x3d01621c	0.031587705
174	0xbdab6284	-0.083684
175	0x3cd7bd70	0.026335448
176	0xbdaabb88	-0.0833655
177	0x3d814938	0.063127935
178	0x3d747514	0.059681967
179	0xbd12820c	-0.035768554
180	0xbcb1d9b6	-0.021710258
181	0x3d87c7b7	0.066298895
182	0x3d6f048e	0.058353953
183	0x3b66995e	0.0035186629
184	0xbd1603a6	-0.036624573
185	0xbd1cbadc	-0.03826414
186	0xbd362fe7	-0.044479277
187	0xbdc8ea14	-0.09810272
188	0x3ca1e062	0.019760314
189	0x3c407c5d	0.0117484005
190	0xbda1d7c9	-0.07902486
191	0xbdb2e714	-0.08735481
192	0xba56589a	-0.0008176655
193	0x3d35f586	0.044423603
194	0xbda653d6	-0.08121459
195	0xbceab44a	-0.028650422
196	0x3d2a8b62	0.041636832
197	0xbc70ac83	-0.0146895675
198	0x3c0830bd	0.008312401
199	0xbd68da17	-0.05684861
200	0xbd5d495d	-0.054025043
201	0x3d27b557	0.040944424
202	0xbd82a3a0	-0.06378865
203	0xbcc513e3	-0.024057334
204	0x3d718c9c	0.058971986
205	0x3b42d780	0.0029730499
206	0xbddc08e2	-0.10743882
207	0x3d663426	0.056202076
208	0xbdd1bdee	-0.10241304
209	0x3d64f3c5	0.05589654
210	0xbd8059d1	-0.06267131
211	0x3d4ff1aa	0.05076758
212	0xbd82bcc0	-0.063836575
213	0xbdb37138	-0.08761829
214	0xbd66d812	-0.056358404
215	0xbd8378df	-0.06419539
216	0x3b15080a	0.0022740387
217	0xbd73dadc	-0.059534892
218	0xbdb6b7e3	-0.08921792
219	0xbce1b262	-0.02755088
220	0xbd7a8478	-0.06116149
221	0xbccce2f2	-0.02501056
222	0xbdad1632	-0.08451499
223	0xbb0c9100	-0.0021448731
224	0xbbe1933a	-0.006884006
225	0xbd4236f0	-0.047415674
226	0x3d4fadd4	0.050702885
227	0xbcff2781	-0.031146767
228	0x3cbb89b6	0.022892814
229	0xbd620fda	-0.0551909
230	0xbc7def1e	-0.0154989045
231	0x3c7d90e2	0.015476437
232	0xbcb1b084	-0.021690615
233	0x3d81cb2b	0.06337579
234	0x3d11c792	0.035590716
235	0x3d52a626	0.051427983
236	0xbd18c868	-0.037300497
237	0x3b96a172	0.0045968825
238	0xbcd16021	-0.025558533
239	0x3d5f40ea	0.054505266
240	0x3c23a269	0.009987452
241	0xbc02c3a6	-0.007981217
242	0xbd2cc14b	-0.042176526
243	0x3d307ce7	0.043087866
244	0x3d89b948	0.06724793
245	0xbd53d9c7	-0.05172136
246	0xbd8ed6d8	-0.06974572
247	0x3cfca60e	0.0308409
248	0xbd85ceee	-0.06533609
249	0x3d4da870	0.050209463
250	0x3d4513cf	0.048114594
251	0x3d7358bb	0.05941079
252	0xbd1e0379	-0.03857753
253	0xbcbad8b6	-0.022808414
254	0x3d4cb6f9	0.049979184
255	0xbd9e6b3f	-0.07735299

model.2.bias f4 [128]
0	0x3d57c78d	0.05268054
1	0xbde24005	-0.11047367
2	0xbd8f8ee3	-0.07009675
3	0xbdaa68a5	-0.083207406
4	0x3dc9fe6b	0.098629795
5	0x3d106298	0.035250276
6	0x3cdaae61	0.026694478
7	0x3d22eaae	0.03977459
8	0xbc7cb894	-0.015424866
9	0xbdd36d40	-0.10323572
10	0x3d794fdd	0.06086718
11	0xbce0acb1	-0.027426096
12	0xbd2c589f	-0.042076703
13	0xbd0297a2	-0.03188289
14	0x3c9e9d69	0.019362168
15	0xbd3bbc07	-0.045833614
16	0x3d27242d	0.040805984
17	0xbd21423d	-0.03936981
18	0x3c877c29	0.016538696
19	0xbdb04e5f	-0.08608698
20	0x3e14f400	0.14546204
21	0x3d4abf98	0.049499124
22	0x3e10f05f	0.14154194
23	0x3d72ee28	0.059309155
24	0xbe31452e	-0.17311546
25	0x3b00a7f1	0.001963135
26	0x3b56b9a3	0.0032764457
27	0x3c1db66b	0.009626011
28	0xbc8dd51c	-0.017313533
29	0xbc3a9368	-0.011387683
30	0x3c8f2fed	0.017478907
31	0x3d705676	0.058676206
32	0xbdca5850	-0.098801255
33	0x3dd0fd7b	0.102045976
34	0xbcb049ba	-0.02151953
35	0xbd1844a1	-0.037174825
36	0x3b077c7c	0.0020673564
37	0x3dc08b68	0.0940159
38	0x3cda8cdc	0.026678495
39	0x3dcf33bf	0.10117292
40	0x3c415040	0.011798918
41	0x3c81bca0	0.015837014
42	0xbd68e180	-0.05685568
43	0xbd81c4dc	-0.06336376
44	0xbdc76209	-0.097354956
45	0x3d3a11a7	0.04542699
46	0xbcca59e4	-0.024701066
47	0x3d7dd3b4	0.061969474
48	0x3d84e0f3	0.06488218
49	0xbaba8597	-0.0014230487
50	0x3dd03a21	0.10167337
51	0xbd6436f9	-0.05571649
52	0xbd9803c5	-0.07422594
53	0x3d2f16bb	0.042746287
54	0x3d18f53d	0.037343252
55	0xbd5c5d28	-0.05379978
56	0x3dccf370	0.100073695
57	0xbde135bb	-0.109965764
58	0x3d235429	0.039875183
59	0xbdccfd69	-0.10009272
60	0x3d80fb59	0.06297941
61	0xbdeaff8b	-0.11474522
62	0x3d8822ce	0.066472635
63	0xbc892d29	-0.016745167
64	0xbdb61f33	-0.088926695
65	0xbbed20d0	-0.0072365776
66	0x3b4456a9	0.002995888
67	0x3cf3f609	0.029780405
68	0x3d27d064	0.04097022
69	0x3e15085b	0.14553969
70	0xbd990ede	-0.07473539
71	0xbd714f42	-0.058913477
72	0x3ce0abff	0.027425764
73	0xbd0527fc	-0.032508835
74	0x3b25da12	0.0025306982
75	0x3cc4dd5f	0.02403134
76	0xbdd7a604	-0.10529712
77	0x3cedb03a	0.029014695
78	0xbda814ef	-0.08207118
79	0x3b8fca31	0.0043881168
80	0x3d5d1ef5	0.0539846
81	0x3d19ddbe	0.037564985
82	0x3d020e4d	0.03175192
83	0xbdbe63b9	-0.09296364
84	0xbc888a4f	-0.016667513
85	0xbb9c2366	-0.004764962
86	0xbcff6ef8	-0.031180844
87	0xbd671216	-0.056413732
88	0xbd8224f6	-0.06354706
89	0x3d18b885	0.037285347
90	0x3ace9702	0.0015761557
91	0x3cf1d2dd	0.029519493
92	0xbc7176a1	-0.014737756
93	0x3d2fab9e	0.042888276
94	0xbde966ee	-0.113965854
95	0xbc08ec93	-0.008357185
96	0x3d5c96ef	0.05385488
97	0x3d270d01	0.040783886
98	0x3d9f41e0	0.077762365
99	0xbd14e8b0	-0.03635472
100	0x3c9e1f02	0.019301895
101	0x3d936702	0.071973816
102	0x3d8cb8d3	0.0687119
103	0xbd13d4a4	-0.03609146
104	0x3e480743	0.1953402
105	0xbd0edeae	-0.034880333
106	0xbe2a7310	-0.16645455
107	0xbdc24126	-0.09485082
108	0x3c4df542	0.012570681
109	0xbd4d914e	-0.0501874
110	0xbd9170f4	-0.07101622
111	0x3db8c3b8	0.090217054
112	0xbd3958c1	-0.045250658
113	0xbd38fe74	-0.04516454
114	0xbc464458	-0.012101255
115	0xbdef2fe2	-0.11679055
116	0xbc522961	-0.012827248
117	0xbd857323	-0.06516101
118	0x3d05117e	0.032487385
119	0xbcc3cf89	-0.023902671
120	0x3d90e963	0.07075765
121	0x3e04d438	0.1297158
122	0x3e2ff264	0.17182308
123	0x3d6d0655	0.057867367
124	0x3bbdde10	0.005794294
125	0x3d65f9d5	0.05614646
126	0x3e1c2015	0.15246613
127	0x3c97f413	0.018549

model.4.weight f4 [1, 128]
0	0x3efd9e5f	0.4953489
1	0xbd59e833	-0.053199958
2	0xbc79d64c	-0.015248846
3	0x3bb10c98	0.0054031126
4	0x3eab6361	0.33474258
5	0x3e856e4c	0.26060712
6	0x3c155aba	0.009115869
7	0xbd547711	-0.051871363
8	0x3e1c5c90	0.15269685
9	0xbca51e3c	-0.020156018
10	0x3f02a2ec	0.5102985
11	0xbc48fe83	-0.012267712
12	0x3f620551	0.8828936
13	0x3c383788	0.011243708
14	0xbbd604de	-0.006531342
15	0x3c8a973a	0.016917814
16	0xbcd95658	-0.02653043
17	0xbd19a62c	-0.03751199
18	0xbcf013bc	-0.029306285
19	0xbd432fd4	-0.047653034
20	0x3c68b29f	0.014202743
21	0x3c20047f	0.009766697
22	0x3db57522	0.08860232
23	0xbc4dcb96	-0.012560746
24	0xc034a5b2	-2.8226132
25	0xbd66c14e	-0.056336693
26	0x3f2477d4	0.64245343
27	0x3c562d5a	0.013072336
28	0x3f0e63f0	0.5562124
29	0x3edfb92e	0.43695968
30	0x3c681a74	0.014166463
31	0xbc9c3f44	-0.019073136
32	0xbc96bf32	-0.018401716
33	0x3d0246a9	0.031805668
34	0x3dab2b49	0.08357865
35	0x3d9381df	0.07202505
36	0x3ee35300	0.4439926
37	0x3f0794a7	0.529612
38	0x3c973fe0	0.018463075
39	0x3e051461	0.12996055
40	0x3cebdd99	0.02879219
41	0xbd30bd4f	-0.04314929
42	0xbd1092da	-0.0352963
43	0xbc1f20b4	-0.009712387
44	0xbd2eb01b	-0.042648416
45	0x3e7a1352	0.24421433
46	0xba9c212f	-0.0011911745
47	0x3f527c8a	0.8222128
48	0x3bbf780a	0.005843167
49	0xbd3f9a02	-0.046777733
50	0x3e05d1be	0.13068292
51	0xbcfbe5c7	-0.030749215
52	0xbd3609fe	-0.044443123
53	0x3c09331b	0.008374001
54	0xbb91932d	-0.0044425935
55	0x3d2a46f1	0.04157156
56	0x3d4e5877	0.050377335
57	0x3c389916	0.011266967
58	0x3eafaca3	0.343114
59	0xbd07946b	-0.033100527
60	0xbd55ed91	-0.052228514
61	0xbd707157	-0.05870184
62	0x3f0a4804	0.5401614
63	0xbc6046db	-0.013688768
64	0x3bd74ef2	0.0065706903
65	0xbd2d6d79	-0.04234073
66	0x3e7f0095	0.24902566
67	0x3e713e70	0.23558974
68	0x3eabeebd	0.3358058
69	0x3d00a13b	0.03140376
70	0x3e1c57bf	0.15267847
71	0xbd160e2f	-0.03663462
72	0xbcf67069	-0.030082898
73	0x3e378765	0.17922743
74	0x3efb1213	0.49037227
75	0xbc51e3bb	-0.012810643
76	0xbd7acc13	-0.061229777
77	0x3e90c820	0.28277683
78	0x3d1be7d4	0.038062885
79	0x3f3c3091	0.73511606
80	0x3ec8c5ae	0.39213318
81	0x3f17a0b7	0.59229606
82	0x3f1bb68c	0.6082542
83	0x3b94935a	0.0045341672
84	0xbbc48dd5	-0.005998353
85	0x3c9f4b97	0.019445224
86	0x3ed798d0	0.42108774
87	0xbc4e390f	-0.012586846
88	0xbd849dd6	-0.06475417
89	0xbd4796e2	-0.048727877
90	0xbd127d3a	-0.035763957
91	0xbd2f786c	-0.042839453
92	0x3c942330	0.018083185
93	0x3f2729ff	0.65298456
94	0xbcc20fcf	-0.023689179
95	0xbcf1e322	-0.02952725
96	0x3f86fe70	1.0546398
97	0xbce4f2d7	-0.027947826
98	0x3dc1c955	0.09462229
99	0x3f0fcb67	0.5616974
100	0x3aa7792b	0.00127772
101	0x3f2e3b57	0.68059295
102	0x3e984273	0.29738197
103	0x3f83e5e8	1.0304537
104	0x3eaafcd6	0.33396024
105	0x3c153109	0.009105929
106	0x3f8bad72	1.0912306
107	0xbd2024f8	-0.039097756
108	0xbd272e1e	-0.040815465
109	0xbb6a2b0d	-0.0035731227
110	0x3c3bbf6c	0.011459213
111	0x3e90f0ea	0.28308803
112	0xbd600e98	-0.054701418
113	0xbc9ee2ec	-0.019395314
114	0xbc831e78	-0.01600574
115	0xbd3cd100	-0.046097755
116	0x3eceba98	0.40376735
117	0xbd0011c0	-0.031266928
118	0x3ee2ec89	0.44321087
119	0xbbd0a74b	-0.006367599
120	0x3d8532ff	0.06503867
121	0x3f13f591	0.5779658
122	0x3f5264ee	0.82185256
123	0xbbba2684	-0.005680861
124	0x401435ed	2.3157914
125	0x3eb3f4e4	0.35147774
126	0x3e90a1cb	0.28248438
127	0x3e34aabf	0.1764326
