models/2024-12-13_18-52-49/bad_rastrigin_model.pt (torch, 70872 bytes, 5 tensors)

model.0.weight f4 [128, 2]
00000000: 03d5 303b e937 423f 9d0a d23e 2ded 793c
00000010: a732 953f a0a6 46bc ebbc c3bd bcd9 d2bc
00000020: b7e6 ed39 e336 cb3e 65ee a43e c34a ca3e
00000030: caf6 ac3f 12fc 9cba db3c f3be 4f44 afba
00000040: b670 5dbf e2af c2b9 461d b8bf 7e00 51bc
00000050: 7515 52be 428f 8e3e c263 243f 34fa d73a
00000060: 0f69 8cbe 1caf 393f 75d7 153e 4c6e e8be
00000070: 7ba4 a8bb 01f5 c2be 42a0 b83f d6ca 66bb
00000080: 4b23 a1bd b9cc 0dba 4792 d4be 6f37 2abe
00000090: d31b b73e 87c3 e23a 602e 77bf 11dd cbbb
000000a0: a197 773e e595 dfbd cd7b a8be 637b 8cbd
000000b0: 9702 70be e048 9d3e 36a3 80bc 40f6 883f
000000c0: 6a4b a2bb a3a5 79bf cf61 ba3b 27d6 febe
000000d0: 55d6 de3e 9018 4dbe 39a4 933e 47e6 cdbe
000000e0: abd7 97be e225 e53e 46c4 abbb 8f20 0a3f
000000f0: 5258 0cbd 93e1 67bf 8d22 c2be 8181 7639
00000100: ea39 463d 1c63 8a3f 92f9 12bf 6536 b33e
00000110: d6a9 683f 37da 33bd b336 1cbd cc61 993f
00000120: 5e46 003f 0355 03bf 84b2 f8bb 881e d13e
00000130: 6434 03bf 2bdd 433e bd65 34bd 8a61 bdbe
00000140: 3429 713f b83c b73b 78b3 37be be3b f6be
00000150: c86a 103f 2a04 ae3e c756 35bd 4ebb 9e3c
00000160: 5616 ccbe 7dc1 2c3f 268f 8abe 56bf 02bb
00000170: 8d81 eb3d 22eb e6be a242 3fbe 7385 f23e
00000180: 1430 40ba 9f11 78bf 810f 7f3b fb6a aabf
00000190: 588c 14bf e8dc 503b f4c6 30bc c458 8d3f
000001a0: e2b5 98bf ae4d afba a5c1 02bf 4183 e03e
000001b0: db08 f7be 9864 143e 1a85 a53b da43 81bf
000001c0: ea0c 4bb8 b36b c8be 0da4 193f a88f 093f
000001d0: bec1 c53a 9560 94be 826f 1e3d 9889 953e
000001e0: 0fb5 25bf ac0b 943e 7def 973e 8fec 623f
000001f0: 696c f53e 810a 12bf af73 b2be 27c6 b83d
00000200: 4084 9bbe 85fb 313f c2b7 7a3e 4ea4 c5be
00000210: 4fff dbbd 6b95 ba3e f7c1 53bf f362 acba
00000220: 8725 bfba 5518 d7be 3fce 24bf 5677 f3bb
00000230: af2f 04be cb05 9bbe 95cf 32bf bb03 c53c
00000240: 392f 9abe ae9c 0dbf de89 903e 54b3 8cbe
00000250: bd33 2dbd 61be a6bf e54f 1d3f 60cd 953e
00000260: 621d d83e 52c8 babe dff6 78bb 98bd 10bf
00000270: d3a3 b2ba 74f7 69bf 39b5 503a b2c2 1fbf
00000280: f9ce d43e 1197 42be 64f5 013f 49dd 9bbe
00000290: c13b 14be 248e bebe eef8 313b caed 333f
000002a0: fbda eabe 352f c1be 5904 493e 65fe 003f
000002b0: cf9d 6abb 9c9c 883f bf47 9d3e 1a55 c8bc
000002c0: e985 bc3e 77c5 4d3d e4e9 27bf ccf4 323c
000002d0: e014 b538 dd29 46bf 4a13 763f 5c3e 363b
000002e0: e4ac c33b 6054 603f c751 d5be b00c 283f
000002f0: d30e 0c3f 15f8 98ba 2e1b 1f3d 9c69 63be
00000300: 1f83 f5be 5df5 de3e 5707 583e c7c3 ffbe
00000310: caae e33c 3d11 663f 778e 0b3f 8dff 8dbe
00000320: 1064 f1b9 5473 d3be bf9a 543e dce2 bebd
00000330: 7edf dabe 62b2 97be 81a7 edbe a4e3 53be
00000340: 34f0 e5ba 4b2a 0abf 860a 23bc 1153 afbf
00000350: 9aef 933e 39d8 9c3a ef69 0a3f 0f02 d63d
00000360: cbf7 243e 0804 5fb9 db52 adbe 730b bc3e
00000370: e92a 88be 9292 f63d 3ea2 8b3f a274 8fb8
00000380: 25b6 14bf c9c4 02bf 0c58 ccbe 450f 243f
00000390: 4d7d 4dbf 20c2 8e3a df21 db3d 25f4 0b3f
000003a0: ba64 34bf 09a4 153c 7091 b93d 2e3b d73e
000003b0: b9a2 0b3f 3fc2 803e 10de 6e3e aa19 253f
000003c0: 68e8 18bf af5b 72be 2e73 bc3a e407 393e
000003d0: 7ce8 353a 074e 3fbf 2520 f83e 9088 96bb
000003e0: 65c8 183d 80a8 ebbe 723c 003a 1eaa 773e
000003f0: 2e89 13be b273 19bf a1d7 b1ba b08f 823f
0.0026982434 0.7586656 0.41023722 0.015254301 1.1656083 -0.012124687 -0.095575176 -0.02573859
0.0004537606 0.39690313 0.3221313 0.39510164 1.3512814 -0.0011976978 -0.47507367 -0.0013371798
-0.8650011 -0.00037133606 -1.4383934 -0.012756465 -0.20515998 0.27843672 0.6421472 0.0016477765
-0.27423903 0.7253282 0.14632972 -0.4539665 -0.0051465607 -0.38077548 1.4423907 -0.0035216114
-0.0786806 -0.0005409229 -0.4151785 -0.16622709 0.35763416 0.0017300703 -0.9655514 -0.0062214215
0.24178936 -0.10917262 -0.32906953 -0.06859472 -0.23438488 0.30719662 -0.015702825 1.070015
-0.0049528377 -0.97518367 0.005687929 -0.4977276 0.43522897 -0.20028901 0.2883623 -0.4021475
-0.2965673 0.44755465 -0.0052419035 0.5395593 -0.034263916 -0.90578574 -0.37916985 0.00023508632
0.048395075 1.0811496 -0.57412064 0.35002437 0.9088415 -0.043909278 -0.038138103 1.198297
0.5010737 -0.5130159 -0.00758964 0.40843606 -0.51251817 0.19127338 -0.044042338 -0.3698848
0.94203496 0.005591955 -0.17939556 -0.48092455 0.56412935 0.33987552 -0.04427221 0.019376423
-0.3986079 0.6748274 -0.2706234 -0.001995047 0.11499319 -0.45101267 -0.18677762 0.4736744
-0.0007331383 -0.9690189 0.0038919153 -1.3313898 -0.5802665 0.0031869952 -0.010789622 1.1042714
-1.1930506 -0.0013374591 -0.5107673 0.4385014 -0.48248944 0.14491498 0.0050512673 -1.0098832
-4.8411e-05 -0.39144668 0.60015947 0.5373483 0.0015087647 -0.28979936 0.03868056 0.29206538
-0.647294 0.28915155 0.29674903 0.8864221 0.47934273 -0.5704728 -0.34853885 0.090221696
-0.30374336 0.69524413 0.2448416 -0.38601917 -0.107420556 0.36442122 -0.8271784 -0.0013152048
-0.0014583328 -0.4201075 -0.64377207 -0.0074299974 -0.12908815 -0.30277857 -0.69847995 0.02404963
-0.30114153 -0.553172 0.28230184 -0.27480567 -0.04228567 -1.3026849 0.61450034 0.2925825
0.42209917 -0.36480957 -0.0037988944 -0.565393 -0.0013629146 -0.9139321 0.00079615746 -0.62406456
0.41564158 -0.1900294 0.5076506 -0.30442265 -0.1447592 -0.3721782 0.002715643 0.7028471
-0.45870194 -0.3773133 0.19630565 0.50388175 -0.0035799628 1.0672793 0.307188 -0.024454642
0.36820915 0.050237145 -0.65591264 0.010922622 8.634641e-05 -0.7740763 0.9612318 0.0027808165
0.005971538 0.87628746 -0.41663954 0.6564436 0.5471012 -0.0011670614 0.03884428 -0.22208256
-0.479516 0.43546572 0.2109655 -0.49954054 0.027793307 0.89870054 0.5451426 -0.27734032
-0.00046041654 -0.41298926 0.20762156 -0.09320614 -0.42748636 -0.29628283 -0.46416858 -0.20692307
-0.00175429 -0.53970784 -0.009951239 -1.3697225 0.2889374 0.0011966295 0.5406789 0.104496114
0.1611015 -0.00021268439 -0.33852276 0.36727485 -0.26595238 0.12039675 1.0908887 -6.840496e-05
-0.5809043 -0.5108152 -0.39910924 0.640858 -0.8026932 0.0010891594 0.1069982 0.5466941
-0.70466197 0.009133347 0.09060943 0.42037338 0.5454517 0.25148198 0.23326898 0.64492285
-0.59729624 -0.23667787 0.0014377588 0.18069416 0.0006939245 -0.74728435 0.48462024 -0.0045939162
0.037300486 -0.46026993 0.00048918196 0.24185988 -0.14407799 -0.5994216 -0.0013568291 1.02001

model.0.bias f4 [128]
00000000: 0e49 89bf 3f78 7f3f f06f 8ebe 064e d23e
00000010: 1d52 783f 9afd 62bf 3fa7 33bf 104b b6bf
00000020: 39c6 dbbf f7c5 173e 7119 b6be c8d8 cbbf
00000030: 6778 aabe 64c2 09bf c28c 623f 1dc1 b83f
00000040: 83b3 b53e 97ec 14be 2bba 423f afca b53f
00000050: fe61 1f3f 952f 5abc 86e2 0ebe ccf4 733f
00000060: 07f2 d73e 8c2b 8d3f a22c c8be 9560 bebc
00000070: 765c d13e cd4b aa3f 9206 843f 73a5 a8bf
00000080: f898 9fbd 5ddd 1bbf d094 77bd b9db 483d
00000090: 4c0f 45bf d8fe 463f 69cf 15bf baba c4bf
000000a0: 2fdf a53d 54f4 8f3d 5745 b5be 7511 c33c
000000b0: 2aee d9be 5bae 0a3f 0083 83bf 1122 403f
000000c0: 509a b7bf 42e7 5d3c 9242 babf 7cd9 9c3f
000000d0: f867 28bf 9b4f 9dbe ceb7 013f 31a3 6b3f
000000e0: 1d3e 97bf d174 243e 7760 a7bf a15c 573f
000000f0: 35da 2fbf c2f0 2dbe dd50 6bbf b72e 5d3f
00000100: f077 993e 594e 123e 4a09 9ebf 09b8 98bf
00000110: 6d4f 88bf 2604 a53f 6477 5c3f 2a6d 7e3c
00000120: 02fd 4cbf 84f2 50bf 85f9 223d d87a 59bf
00000130: 3097 89bf b8b9 fcbf 0111 65bf 96d5 783f
00000140: 5864 85be 0ac4 a0be ff14 d03e bfb6 e3bf
00000150: cc8a 533f aea7 64bf 2719 90bf b53b a9bf
00000160: dfd7 bdbf 3334 aa3f c2b0 c5bf e3c1 bc3e
00000170: dcab fdbe 0d9e 9dbd 3648 d2bf 9c45 693f
00000180: 66ec 2cbf d7b4 4b3f e6bf 86bf d9ef 173f
00000190: c8bc 983f 16db 813e 9aa5 8b3e 7665 65bf
000001a0: 16e2 a23f 0a10 36bf 028c 1d3f 93ec 72be
000001b0: 13f5 1f3f 8806 c7be bc6e 8b3f d0b0 8bbf
000001c0: 077c 09be cbdd d43b 2dbd a2bf ef5a 693f
000001d0: bbfd 8a3f d0fa 793f 89c3 833e 49b5 1ebf
000001e0: 1d2c de3e a37a 363f 542d 953f f6d4 d6bf
000001f0: f11c 583f 12ad 3a3f bb05 01bf 1221 02c0
-1.072542 0.99792856 -0.27819777 0.41075152 0.97000295 -0.88668215 -0.7017707 -1.4241657
-1.7169868 0.14821611 -0.35566285 -1.5925531 -0.33294985 -0.5381224 0.8849603 1.4433933
0.3548852 -0.14543377 0.7606532 1.4202479 0.622589 -0.0133170085 -0.139536 0.95295405
0.4217684 1.1028914 -0.39096552 -0.023239413 0.40890855 1.3304383 1.0314505 -1.3175491
-0.07792848 -0.6088465 -0.060444653 0.04903767 -0.76976466 0.7773261 -0.5851961 -1.5369484
0.080992095 0.07029024 -0.35404465 0.023812035 -0.42564517 0.54172295 -1.0274353 0.7505198
-1.4343967 0.013543906 -1.4551566 1.2253871 -0.65783644 -0.30724797 0.5067109 0.92045885
-1.181583 0.16060187 -1.3076314 0.84125715 -0.6869233 -0.16986373 -0.9192026 0.86399406
0.29974318 0.142877 -1.2346585 -1.1931163 -1.0649239 1.2891891 0.86119676 0.015528956
-0.8007356 -0.8162005 0.03978874 -0.8495307 -1.0749264 -1.9744177 -0.8947907 0.97200906
-0.2605312 -0.31399566 0.4064102 -1.7790145 0.8263366 -0.8931836 -1.1257676 -1.3221346
-1.4831504 1.329718 -1.5444567 0.36866674 -0.4954518 -0.076961614 -1.6428287 0.9112184
-0.67548215 0.79572815 -1.0527313 0.59350353 1.1932611 0.25362462 0.2727478 -0.8960794
1.2725246 -0.71118224 0.6154176 -0.23723058 0.6248333 -0.3887217 1.0893168 -1.0913334
-0.13426219 0.0064961663 -1.2713982 0.9115438 1.0858682 0.97648335 0.2573512 -0.6199537
0.4339303 0.7128088 1.1654458 -1.678374 0.8441916 0.72920334 -0.5039937 -2.0332685

model.2.weight f4 [128, 128]
00000000: 93f5 70be 852b 50be 4321 51be f8e7 47bd
00000010: 7902 b3be 8240 7d3d 84e7 91be b580 a23f
00000020: b8bf 1f3f b28d b23e 7c9c 143d 1254 96bf
00000030: f694 98bd cd3d 4dbd c655 6cbe 381a fa3e
00000040: eb3f 05bd eca1 203e db9f 5a3d a1eb cbbe
00000050: bf33 1cbd 6601 f9bc d0e3 2dbd b248 173d
00000060: 3a41 9cbe 57f5 ac3d d789 1e3d 9058 4a3d
00000070: e04b d63d 4004 9abe b99f 3e3e e6d7 9fbf
00000080: 6b97 08be 0119 dbbb 190e 573e 28c8 c13d
00000090: 56eb 453d 9ce3 453e 4761 84bd 174b 93be
000000a0: b95e 563e 7d3e 00bc 2d65 ecbb 29f2 1e3d
000000b0: 07ea 5c3c dac0 803e 2232 e43c c746 233b
000000c0: cc3f 1cbf e80c 953e 1a2d 37bf 30e5 5d3e
000000d0: 16ef 9bbe b30a cebd d528 7f3d 8581 1c3e
000000e0: cc1a b33f 69c5 0fbe e974 e7be 5329 1fbe
000000f0: c8db 263d 98f0 85bd 5cd8 96bb e731 10bd
00000100: d92d 3e3c 126b 47bd 9084 fd3d 0052 f4be
00000110: 38be 07bf 0b50 cd3e 961c fd3a 3ed0 0e3d
00000120: c52a c0bd a7e6 8c3c b785 313e 89da d93d
00000130: aa53 8a3d cd59 34bf e817 e23e 7c43 78be
00000140: 502d 523d 332a 7fbd f49e fc3d 0744 09be
00000150: a335 f13b 041e dbbd 28a6 993e 236e 99c0
00000160: a5f2 12bf 2664 d63e 66ee 3c3f 1361 40be
00000170: 06d2 a2be 8cac 13bd c564 073f d148 54be
00000180: 33f9 92bc de69 3fbd a834 36be 9642 193b
00000190: ac8e 813e ffa6 e8bc ef4f 743d 3a24 eabc
000001a0: 3afb 1dbe cf39 b9be 6f02 aa3d bd50 223e
000001b0: 51a5 48bd d500 ad3d 3de9 3cbe a3a1 303f
000001c0: 60cb d6bc 9d22 ecbc 394f adbe c6c3 bfbd
000001d0: b7cf 89be cb6f b0bd 62d6 463d a8a2 37bd
000001e0: bebf 3b3e 99c4 053e dcdb 99be 4b75 25c1
000001f0: dff4 45bd a806 9c3e d509 43bd 5faa 263f
00000200: b98b a4bd c3be 42bc fd6d 053c 7f75 7bbc
00000210: 3c72 153d a3ab 5fbd 0543 f1bb 20bf c33c
00000220: 7df4 8a3c 5b59 0cbd 5567 5ebd 624b cebc
00000230: 10b1 8abc f31a 6f3d ff00 b53c 1c77 e9bd
00000240: 6022 323b 9400 7abc ec06 853c d93d 343d
00000250: 7fc8 cd3c 8042 88bd 9751 0a3d 968c a6bc
00000260: 6777 22bc 3310 513d c1a6 62bd 21c4 4fbd
00000270: c495 bfbd 9c65 19bd 1622 b6bd 6b98 ccbd
00000280: 7c60 233d 7ae0 8c3c c05c 093d cb02 a03c
00000290: aaa8 1d3d ad3c a43c b502 183d db10 463d
000002a0: 77c6 293c 4fb9 51bd c1fa 113d 7fe5 77bd
000002b0: 6aa2 d13c ec98 93bc 612c 9dbb 083b 2cbd
000002c0: 8899 103d 0144 d6bd 74ad c5bd 78f7 943c
000002d0: 9b1f 063d 2ad9 5b3c cd48 383d 9d51 7fbd
000002e0: 1b38 683d 3b68 c0bd cabd 92bd db0b 0d3d
000002f0: 5168 c1bd ba79 4f3d 7240 a1bd 0efd 323d
00000300: 2f1b b9bc 1ce6 593d c2ab 9cbd f483 ebbc
00000310: eba5 ae3c d18a 573d 80fe 6e3d 41a0 abbd
00000320: 9435 113d 0a02 a6bc cf05 1fbd 4d6a e8bd
00000330: 28eb babc 66bf 6fbd 3d58 8ebd f873 b7bd
00000340: 1740 b6bd 9115 dc3c 232d 413d 9d1d d13c
00000350: 381d dbbd bc34 e7bd 1121 92bd 73b8 78bd
00000360: a4e3 75bb a5af a4bd 027c 60bd 1ed3 2bbd
00000370: 2f6d 583d 8a3d c5bd 0d7e 54bc 6151 9e3c
00000380: 5a3d f4bc adfe 84bd 7ed9 ebbd 6447 1d3d
00000390: 9250 51bd 8c91 04bc 44fb 163d 4ee4 3dbd
000003a0: 11c9 62bd 85d2 ebbd 55be 18bd a758 f7bb
000003b0: 2879 9dbd 6e42 0bbd 6100 dc3c 15ea 90bd
000003c0: f993 e5bd bab4 efbd 5ef7 ed3c 589d 8ebd
000003d0: 8655 8ebd ce26 dabd 70df 523d cc6e 3bbd
000003e0: 8094 8fbd b0d0 293c 3a27 503d 01a0 093d
000003f0: 2b20 c5bd 0f5b cdbc bac2 3cbc 3aa0 bdbc
-0.23531179 -0.20329101 -0.20422845 -0.048805207 -0.34962824 0.061829098 -0.28496945 1.2695528
0.62401915 0.3487373 0.036282048 -1.1744406 -0.07450287 -0.050107766 -0.23079595 0.48848128
-0.03253166 0.15686768 0.053375106 -0.39828208 -0.038135286 -0.030396175 -0.042453587 0.036934562
-0.30518514 0.08445232 0.038705673 0.049400866 0.10463691 -0.30081367 0.18615617 -1.2487762
-0.13339011 -0.0066863303 0.21001472 0.09462005 0.048320137 0.19325107 -0.06463867 -0.28768227
0.20934571 -0.007827398 -0.0072142095 0.03880516 0.013483531 0.25147134 0.027855936 0.0024914013
-0.61034846 0.2911141 -0.71553195 0.2166946 -0.30455846 -0.100606345 0.0622948 0.15283783
1.3992553 -0.1404015 -0.45206383 -0.15543108 0.040736943 -0.0654003 -0.0046034288 -0.03520384
0.011607611 -0.048686095 0.123788 -0.4771881 -0.53024626 0.4010013 0.0019310887 0.034866564
-0.09383158 0.017199827 0.17336164 0.106373854 0.06754239 -0.70449525 0.44158864 -0.24244493
0.051312745 -0.062296104 0.123350054 -0.13404857 0.0073611303 -0.106990844 0.3000958 -4.7946944
-0.57401496 0.41873282 0.7380127 -0.18787031 -0.3180086 -0.036053225 0.5288814 -0.20730902
-0.017941093 -0.046731822 -0.17793524 0.0023385636 0.25304163 -0.028399942 0.059646543 -0.028581727
-0.15427867 -0.36176917 0.083012454 0.15851112 -0.048985783 0.08447424 -0.18448348 0.6899664
-0.026220024 -0.028825099 -0.33849505 -0.09363513 -0.26916286 -0.08615073 0.048544295 -0.044832855
0.18334863 0.13063277 -0.30050552 -10.341136 -0.04832923 0.30473828 -0.0476168 0.65103716
-0.080344625 -0.011886301 0.008143899 -0.0153478375 0.036485896 -0.054607045 -0.0073627257 0.023894846
0.016962284 -0.034264904 -0.054297764 -0.02518243 -0.016930133 0.05837531 0.022095202 -0.113996714
0.0027181134 -0.015258927 0.016238652 0.044004295 0.025120018 -0.06653309 0.033769216 -0.020330708
-0.009916163 0.05104084 -0.05533481 -0.050724152 -0.093547374 -0.037450418 -0.0889322 -0.09990009
0.039886937 0.017196883 0.03353572 0.019532582 0.03849093 0.020048464 0.037111957 0.04835592
0.010362259 -0.051202115 0.03563953 -0.0605216 0.02559014 -0.018017255 -0.00479655 -0.042048484
0.03530267 -0.104621895 -0.09652224 0.018184409 0.032744985 0.013418475 0.044991303 -0.062333692
0.05669413 -0.093948804 -0.07165106 0.034435134 -0.09443725 0.050653197 -0.0787362 0.043698363
-0.02259597 0.053197965 -0.07649948 -0.028749444 0.02131935 0.05262262 0.05834818 -0.083801754
0.035451487 -0.020264644 -0.0388239 -0.113484 -0.02281721 -0.05853214 -0.06950424 -0.08957666
-0.08898943 0.026865752 0.047162186 0.025526816 -0.106989324 -0.11289355 -0.07135213 -0.06072278
-0.0037519718 -0.08041314 -0.054805763 -0.041949384 0.0528385 -0.09630878 -0.012969506 0.019325914
-0.029814411 -0.06493888 -0.11516093 0.03839816 -0.05110223 -0.008091342 0.03686072 -0.046360306
-0.055367533 -0.11514763 -0.03729089 -0.00754841 -0.07689124 -0.0339989 0.02685565 -0.070758976
-0.11209864 -0.11704393 0.029048618 -0.06963605 -0.06949906 -0.10651933 0.051482618 -0.04575996
-0.07010746 0.010364696 0.05081866 0.033599857 -0.09625276 -0.025067834 -0.011521036 -0.023147691

model.2.bias f4 [128]
00000000: 6024 efbc dea4 993c 4a91 27bc eb53 b1bd
00000010: 6978 33bd d758 923d 2ecb 65bd 2fac d7bd
00000020: be0e bcbc be58 8b3d 82db 97ba 3a3f 9c3d
00000030: 9e74 8e3d f97e 9bbc ae26 8dbd 0bc7 7f3d
00000040: b951 3b3a d6e3 51bd 7b65 063d f2ab 2ebc
00000050: ec5e 70bd b2f2 90bd 37f8 863d eff7 1fbd
00000060: 134d 0e3d 18fa b3bd 6e9a 283d 74e4 87bd
00000070: 9ee7 213d 0876 383d d007 0b3d 8244 67bd
00000080: 02fc f03d 52f1 07bd 6f68 a73a 3a2d 3cbd
00000090: 1af8 ddbd decd 0e3d f038 113d 5648 c6bd
000000a0: 7d9d eabd a172 8ebc 5ff5 553d 9896 bb3d
000000b0: d8bb 153d 7e2d c73c da3b f13c 0868 45bd
000000c0: 4e1b 8a3d 2298 c7bd 322c a1bd 9f5c 833d
000000d0: d5b5 743d 6b1b d7bc e093 fa3c 2675 8fbd
000000e0: 0de2 15bd f941 af3d 5661 a53a c69d 4e3d
000000f0: 91f7 953b 2d18 813d d95f 9ebd 9da4 d23b
00000100: ebf2 bb3b b4f0 5f3d 5f37 5fbd 4773 093d
00000110: 1558 20bd 74ca 213d 12f4 ddbc 6da8 c0bd
00000120: 2ecc 3b3b 80f2 25bc ee2e 2c3d 11e4 1d3d
00000130: 5e08 583d 18b6 b03d 876f 8f3d 198d 1abd
00000140: dfc3 9c3c e875 1b3d 0bde dc3c 56d4 dc3d
00000150: c16f 4d3d 85a2 f8bb 1084 91bc 1cf8 663d
00000160: 0cb4 943b 33a1 4a3d 5839 e1bd 4277 503a
00000170: 95b1 ddbc b8b8 8a3d 507b 163d cc7e 5c3d
00000180: c04c 9e3d 8996 a83d 64d6 93bc b371 2e3d
00000190: 8eb4 a9bd 06e2 ad3d 73cc db3c 55f3 81bd
000001a0: c1b0 9ebd c437 d8bc 4b5c 013b 20dd 8dbd
000001b0: 7dab 313d 5a9d 783c c6f2 fbbc ff18 07bd
000001c0: b2ba 883d 1cef 87bc 3b91 f53c df2e f7bc
000001d0: 217a 9f3d 6f9e bb3d 0037 113c 0317 86bd
000001e0: 4c28 2abd 57a8 36bc fe26 cabd 2fc8 5dbc
000001f0: ecb2 f63c 8760 a0bd bd30 e13d 1e6a 593c
-0.02919215 0.018755373 -0.010227511 -0.08658584 -0.043816004 0.07145851 -0.05610197 -0.10530888
-0.022956248 0.068040356 -0.0011585804 0.07629247 0.06955837 -0.018981444 -0.06892143 0.06244568
0.00071456615 -0.051242672 0.032811623 -0.010661112 -0.058684275 -0.070775405 0.06590312 -0.039054807
0.034741472 -0.08787936 0.0411629 -0.06635371 0.039527528 0.04503444 0.033942997 -0.05646182
0.11766817 -0.033189125 0.0012772213 -0.04594157 -0.10838337 0.0348643 0.03545469 -0.09681766
-0.1145582 -0.017388644 0.052235957 0.09159583 0.036556095 0.024313685 0.029447485 -0.048194915
0.06743489 -0.09745814 -0.07869758 0.064141504 0.05974372 -0.026258191 0.03058809 -0.07004766
-0.036592532 0.08557505 0.0012617509 0.050443433 0.0045766314 0.06303439 -0.07733125 0.006428315
0.005735745 0.05467291 -0.054496165 0.033557203 -0.0391465 0.039499715 -0.02709392 -0.09407125
0.0028655636 -0.010128617 0.042036943 0.03854758 0.052742355 0.086284816 0.07003694 -0.037732217
0.019136367 0.03795424 0.026961347 0.10782687 0.050155405 -0.007587733 -0.017763168 0.05638896
0.004538065 0.049470138 -0.109972656 0.0007952341 -0.027062217 0.067735136 0.036738694 0.05383186
0.07729483 0.08231837 -0.018046565 0.0425889 -0.08286391 0.08490376 0.026830887 -0.0634524
-0.07748557 -0.026393779 0.0019738849 -0.06926942 0.043376435 0.015174234 -0.030755412 -0.032982823
0.06676234 -0.016593508 0.029976478 -0.030173717 0.07786966 0.09161078 0.008863211 -0.06547358
-0.041542336 -0.011148534 -0.098707184 -0.013536497 0.030114613 -0.07830911 0.10995624 0.013269929

model.4.weight f4 [1, 128]
00000000: ff79 5d40 e61c 2abd c65a f83f d194 f13b
00000010: b630 63bd 3c06 5740 0e41 4940 0bd9 68bc
00000020: c5f2 e83f e86e e23f 7a09 55bd 1c66 fc3f
00000030: 2910 1c3c d8dc 5740 7d35 5dbd 17fe 6d40
00000040: 6e07 b03f 3f0c 8bbb 57c5 3540 d3f3 3f40
00000050: 7c65 283c 7b34 5dbc 8046 aa3b 1c22 8c40
00000060: 18f4 43bd 5085 a540 3681 b73f a645 d3bc
00000070: 5660 603b ade4 3940 5a6f bb3f 1ad0 d53f
00000080: 55a2 2240 8a8e 45bd 801d e3bc 81d6 c13b
00000090: 4529 22bc 5ddb 3440 35a9 2dbd c74c 8f3b
000000a0: 41be df40 1d0e d2bc 98e4 5840 85c1 4740
000000b0: ffef 4dbd c49c 2340 2e93 e73f 06c1 e4bb
000000c0: c7a8 59bd 094d 2fbd 3e34 20bd 56a7 82bd
000000d0: 09c0 9740 25ac 87bd 622f 03bc 3bd5 82bd
000000e0: 282c 3640 8949 a13f e0be 713f 68e6 fd3b
000000f0: c11d 9940 57f2 81bd 498a acbb a2e1 7ebd
00000100: e58b 9040 5fbf 58bd a640 b33f 78f9 00bd
00000110: 4523 f4bb 3753 4a40 be8b 1a40 a4fb 6bbd
00000120: e9b8 2c40 bd49 843d bc11 7140 1da1 9340
00000130: 7257 0040 8c83 1640 fa4d 0540 ab81 0540
00000140: feac 44bd 7741 823c 9491 2240 da83 ef3f
00000150: 4d30 cf3f ae39 5540 3b8d 02bd 99f4 5a40
00000160: d0b0 b53f ae0c 5040 17a9 9e3b 85ad a9bb
00000170: db80 31bd 9a52 7840 268f 7740 d7c4 38bd
00000180: 6926 1340 55a0 fc3f 4665 e83b b6c7 c93f
00000190: 10de 94bc daa5 1e40 79c3 37bc 89f7 36bd
000001a0: 5103 3740 0eac 1bbd 9b06 cb3f 74ac 2f40
000001b0: dca7 60bd b0ae dfbc 7955 0640 f357 51bd
000001c0: 70ff f23f d9b0 9f3d ec87 04bd b1db acbc
000001d0: 0763 cb3f e093 2e40 8b3d cd3f 8e26 0c40
000001e0: dada 83bd a99f 0b40 665c 6ebd 5e0a 513c
000001f0: 8566 6440 9d65 04bd 7925 9b3f de65 2940
3.460571 -0.041531466 1.9402702 0.0073724766 -0.055466376 3.3597555 3.1445956 -0.014211903
1.8199087 1.7690096 -0.05201099 1.9718661 0.009525337 3.3728542 -0.05400609 3.7186334
1.3752267 -0.004243403 2.8401697 2.9992568 0.010278102 -0.013501282 0.0051963925 4.3791637
-0.047840208 5.1725235 1.4336307 -0.025790047 0.0034237108 2.9045823 1.4643357 1.6704133
2.541158 -0.04823164 -0.027724028 0.0059154634 -0.009897535 2.8258889 -0.042397697 0.0043731662
6.9919744 -0.025641495 3.3889523 3.1211865 -0.050277706 2.5564432 1.8091791 -0.006981018
-0.053139474 -0.042798076 -0.039112322 -0.06379573 4.742192 -0.06624631 -0.008006902 -0.06388327
2.846445 1.2600566 0.9443188 0.007748414 4.784882 -0.06345051 -0.0052655083 -0.0622269
4.517077 -0.05291688 1.4004104 -0.031487912 -0.0074504935 3.161329 2.4147792 -0.05761303
2.698786 0.06459377 3.7667074 4.613417 2.0053372 2.351779 2.0828843 2.0860393
-0.04801654 0.015900357 2.5401354 1.8712113 1.6186615 3.3316455 -0.03187297 3.421179
1.4194584 3.250774 0.0048419344 -0.005178156 -0.043335777 3.8800416 3.868112 -0.045109596
2.2992194 1.973643 0.007092151 1.5764072 -0.018172294 2.4788728 -0.011216038 -0.04466966
2.8595774 -0.03800588 1.5861391 2.7449007 -0.054847583 -0.027304977 2.0989668 -0.051109266
1.8984203 0.07797403 -0.032356188 -0.02110085 1.5889596 2.7277756 1.6034406 2.1898532
-0.06438227 2.18162 -0.058193587 0.012758819 3.5687573 -0.03232347 1.2120811 2.6468425
