models/2024-12-13_18-52-49/rosenbrock_model.pt (torch, 70882 bytes, 5 tensors)

model.0.weight f4 [128, 2]
00000000: 3bc0 a5bf c8a4 0abe 3665 9b3f 1bc0 60be
00000010: bb31 ab3f c3a9 86bd 2666 e7bf e181 fabe
00000020: 4d9b a3bf 42de 18be 406f b7bf d567 93bd
00000030: 59af a13f 00ba 06be 8093 edbc d0af 69bd
00000040: e278 963f da94 6bbd 5bff af3f 247f 2dbe
00000050: 90d2 37bd 0056 8b3c 7118 aebf 6ae7 21be
00000060: 75e3 e9bf e8fc 48bf 8ee8 893f 060c 22be
00000070: eed2 d0bf 07f2 0fbf d2bb 973f 5b3d 62bd
00000080: 0828 ccbf a8f1 92be 60a7 803f 2496 44bd
00000090: 7478 963f 499a 4fbd 8a55 d93f a901 c6bd
000000a0: 7ccd b4bf 53f7 9dbd 1f1d 81bf 5ad9 4abd
000000b0: a6b4 b0bf ed94 53be 55c7 86bf 25b7 62bd
000000c0: 41fa a53f e430 20be 307c f83f 8e00 54bf
000000d0: 05da 903f 7e9e 62bd da26 adbf 5c7d a0bd
000000e0: 7aee a8bf 3f00 a4bd 355c b23f c190 f3be
000000f0: 42ea b6bf 6e54 2abe 4502 95bf 0c81 abbe
00000100: 82fb 8dbf eb23 82bd 2d12 9e3f c6de 5bbd
00000110: 0b42 b0bf 6649 93bd 6240 853f 0080 fabd
00000120: d1e0 9abf 8b19 96bd 1087 af3f 395a 44bd
00000130: 6dad 7fbf f716 44bd a691 a0bf abfa 98bd
00000140: 65f9 a9bf aadb ccbd cc95 803f e1a5 3fbd
00000150: 7dda 82bf 5481 57be 504d d1bf 92e6 5ebf
00000160: 2d2b 95bf 61b7 87bd cd81 a3bf 6c5d a7bd
00000170: e90e a03f 29ac 68bd 1279 c73f dfdf c6bd
00000180: 9f0d ecbf 83b1 07bf b3e2 9f3f 277e 5cbd
00000190: 6c8f 82bf 3eaa 23be d426 3b3f 6438 a1be
000001a0: 4f0f 9b3f 23be e9bd 0c68 b4bf 9931 85bd
000001b0: 0263 c53f b095 29be 2915 c9bf 5419 e1be
000001c0: d7ce 98bf f6d2 81bd c45e b83f 1262 23be
000001d0: b450 c63f 4163 273e 9514 cdbf e564 93be
000001e0: fefa a83f 3635 86bd 4828 a33f 0b86 e5bd
000001f0: 3aae a83f 53f3 1dbe 2209 afbf 2b8f b4bd
00000200: 1cee a4bf b587 98bd 7390 b93f 5db5 3cbe
00000210: f821 f5bf d094 82bf af01 97bf 08df b7be
00000220: 309d 10c0 5ddd aebe d524 8a3f 3197 d9bd
00000230: 72a1 86bf c3b3 8fbe fdcc ad3f 506b 97bd
00000240: 722a 92bf eeb2 38bd 5ea2 fc3f a236 5bbf
00000250: 099e 89bf ac30 d7bd bd37 973f 3817 2cbe
00000260: e412 be3f 4b2f 60bd 5388 ee3f 6996 39bf
00000270: 360b e13f 989e 11bf 4aeb 9cbf fadd c6bd
00000280: 2b23 02c0 b3fe 57bf f6c4 86bf 6668 90be
00000290: d32b bb3f 52d1 68be 42b9 98bf 0dca 8ebd
000002a0: e990 c9bf ad94 e4be 4f4d 85bf a776 9cbe
000002b0: 24a5 0040 1668 4cbe bb98 b13f 4410 69bd
000002c0: 6845 9abf 89e2 05be 4c9f 03c0 6b8c 2ebf
000002d0: fb5c c3bf 08e3 4ebe 0b5e 853f e4cd 50bd
000002e0: e984 aa3f fdae d8be c64e 963f cf9d 37be
000002f0: e9c5 b03f 3ded 88bd 7955 7ebf 1b1e 90be
00000300: f359 a83f dc0c 0bbe e1ab b03f 6aba 2abe
00000310: 7e81 f63f 57ef 9ebf ee3b bdbf 6972 e1bd
00000320: bfd2 903f 9690 57bd cb6a b1bf dff8 9ebd
00000330: dea6 92bf 7cff 80bd 86ee b2bf 802a c5bd
00000340: a40b 893f 5fea 4dbd 88c3 aa3f 0ab7 c5be
00000350: e514 953f da7d 66bd f467 893f 45a8 43be
00000360: 88e7 ba3f 1986 74be ec99 a3bf 8ee4 b7bd
00000370: 8b1c e9bf dfe4 18bf 1f6f 97bf 8b8a 8bbd
00000380: f4cc 943f 810c e9bd 5242 9f3f f527 d5be
00000390: 515d cb3f 9f5a 84be f23a ff3f f984 313d
000003a0: 8c3c e53f e5c5 753f 3284 b23f 263f e0bd
000003b0: 7efd 923f 0307 19bd 4f5a b6bf 3735 8c3d
000003c0: 2038 88bf 5c51 28bd bf13 b3bf 0d04 c1be
000003d0: 8ea6 f3bf 7f14 1cbf 9d4d 993f 137a 51bd
000003e0: 8f58 9d3f 2655 f2bd 3916 b5bf 0648 a2bd
000003f0: a4ae 803f c02c 47bd 785f 86bf 2385 54bd
-1.2949289 -0.13539422 1.2140262 -0.21948282 1.3374552 -0.06575348 -1.8078048 -0.48927215
-1.2781769 -0.14928535 -1.4330826 -0.07197539 1.2631637 -0.13156891 -0.029000998 -0.057052433
1.175564 -0.057515003 1.3749803 -0.16943032 -0.044878542 0.017008781 -1.3601209 -0.15810934
-1.8272539 -0.78510904 1.0774095 -0.15824899 -1.6314371 -0.5622868 1.1854193 -0.055234294
-1.5949717 -0.28699994 1.0051079 -0.047994748 1.1755509 -0.050684247 1.697923 -0.096682854
-1.4125209 -0.07713189 -1.0087012 -0.04952369 -1.380513 -0.2066228 -1.0529581 -0.05535044
1.2966996 -0.1564365 1.9412899 -0.82813346 1.1316534 -0.05532693 -1.3527482 -0.078364104
-1.3197777 -0.080078594 1.3934389 -0.47571376 -1.429024 -0.1663377 -1.1641318 -0.33496892
-1.1092379 -0.06354507 1.2349297 -0.05367925 -1.3770155 -0.07191734 1.0410273 -0.12231445
-1.2099859 -0.07329091 1.3713093 -0.047937606 -0.99874 -0.047873463 -1.2544448 -0.07469686
-1.3279234 -0.10002835 1.0045714 -0.046789054 -1.0222927 -0.21045429 -1.6351719 -0.8707057
-1.1653801 -0.066267736 -1.2773987 -0.08172116 1.250455 -0.05680481 1.5583823 -0.09710669
-1.8441657 -0.53005236 1.2491058 -0.053831246 -1.0200019 -0.15982911 0.7310612 -0.31488335
1.2114047 -0.11413219 -1.4094253 -0.065036006 1.542084 -0.16561007 -1.5709583 -0.43964636
-1.1938123 -0.06339066 1.440392 -0.1595538 1.5493379 0.16346456 -1.6021906 -0.28787914
1.3201597 -0.06553118 1.2746668 -0.11207207 1.317817 -0.15424852 -1.3674662 -0.088163696
-1.2885165 -0.07447759 1.4497207 -0.1842856 -1.9150991 -1.0201664 -1.1797389 -0.35912347
-2.259594 -0.34153262 1.079249 -0.106245406 -1.0518019 -0.28066835 1.3578182 -0.07393515
-1.1419203 -0.045092516 1.973705 -0.8563024 -1.0751354 -0.1050733 1.1813885 -0.16805732
1.4849515 -0.054732602 1.8635353 -0.7249513 1.7581546 -0.5688262 -1.2259305 -0.097103074
-2.0333965 -0.84373015 -1.0528858 -0.2820465 1.4622749 -0.227361 -1.1931536 -0.06972132
-1.5747348 -0.4464468 -1.0414218 -0.30559275 2.0100794 -0.1996158 1.3874735 -0.056900278
-1.2052431 -0.13074698 -2.0565977 -0.6818301 -1.526275 -0.20203793 1.0419325 -0.050977603
1.3321811 -0.42321005 1.174279 -0.17931293 1.3810397 -0.066858746 -0.9934917 -0.2814797
1.315245 -0.13579124 1.3802453 -0.16672674 1.9258268 -1.2416791 -1.4783914 -0.1100815
1.1314315 -0.052628122 -1.3860716 -0.07762312 -1.1457174 -0.0629873 -1.3979042 -0.09627247
1.0706677 -0.05027234 1.3340921 -0.3861621 1.1647002 -0.056272365 1.0734849 -0.19107158
1.4601908 -0.23879279 -1.2781348 -0.0897914 -1.8211836 -0.5972423 -1.1830786 -0.06813534
1.1625047 -0.11379338 1.2442114 -0.41632047 1.5887853 -0.25850388 1.9939864 0.043339703
1.7909102 0.9600509 1.3946593 -0.109495446 1.148361 -0.037360203 -1.424631 0.068460874
-1.0642128 -0.041093215 -1.3990401 -0.37698403 -1.9035203 -0.60968775 1.1976811 -0.05114181
1.2292651 -0.11832647 -1.4147407 -0.07923894 1.0053296 -0.04862666 -1.0497885 -0.05188478

model.0.bias f4 [128]
00000000: 1daf 99c0 93ae 4bc0 e224 82c0 9186 8ebf
00000010: e051 8ec0 bdfb 64c0 5aa8 58c0 a94a 20bf
00000020: 940c acc0 6bfd 83c0 9cbb 24bf 3a21 31c0
00000030: 230f 60bf 2e7a a9c0 ed00 91bf 8891 aac0
00000040: de12 08c0 7933 99c0 aa03 8fc0 ab45 f53c
00000050: aea0 acc0 36f9 9ec0 78f3 54c0 dcfa a2c0
00000060: deaa 6cc0 60b9 8abf fb0b a8c0 a0f7 99c0
00000070: d03f b6c0 0500 01c0 5c9a 85c0 eb6d 65c0
00000080: 2fd5 a5c0 30d2 a9c0 8f96 b2c0 6f52 9ac0
00000090: c0af a9c0 668b 91c0 e3f3 9ec0 1491 b2c0
000000a0: 7324 7ec0 be49 9cc0 5d25 b0c0 4b92 00c0
000000b0: 8d1d acc0 0f9f adc0 dd56 b0c0 5a44 65c0
000000c0: 067d d7bf b66d a2c0 f513 b3c0 30bb 80c0
000000d0: 04c9 84c0 92fc 44c0 2a41 43c0 b569 02c0
000000e0: 3dab b6c0 b701 b7c0 28bf 383f 1c78 14c0
000000f0: 4f59 9bc0 7ff5 85c0 0893 84c0 1ea4 b6c0
00000100: 19dc a1c0 f97e a9c0 403d 343f 5dc2 43c0
00000110: a171 b63f adf1 99c0 ace0 8ac0 e630 72c0
00000120: 9a9a b9c0 dcfd 3a3f 0c4e 86c0 6646 cdc0
00000130: ca8d 3ec0 e1e7 f9bf 77e1 05c0 f470 9fc0
00000140: 4a9d c9be 1b41 aec0 a8a5 19c0 940a acc0
00000150: 2e40 a1bf e513 6fc0 3ba4 01bf ab66 aec0
00000160: b102 78c0 4214 a8bf c1ba 82c0 2ee0 a5c0
00000170: d831 38c0 b133 81c0 7d6e 9cc0 bbf3 95c0
00000180: 0e51 adc0 c359 a8c0 37b2 e6bf 4f89 95c0
00000190: 0e83 b9c0 b671 a3c0 bf27 adc0 5e21 94c0
000001a0: 70e1 a4c0 2387 29c0 377a afc0 c0ad b5c0
000001b0: f01e 00c0 cfb3 8cc0 a69f bfbf 9fc5 acc0
000001c0: 6f80 9dc0 78f5 44c0 1235 68bf b627 f73e
000001d0: f017 32bf a7c5 60c0 5795 b7c0 2c7f f2bf
000001e0: 3e5f aac0 48b9 0ac0 aff9 a9bf 1559 a0c0
000001f0: 4ac0 aac0 2fc2 7ac0 a90f 9ec0 e3ca a3c0
-4.802626 -3.1825302 -4.0670023 -1.1134816 -4.4474945 -3.577865 -3.3852754 -0.6261392
-5.3765354 -4.124685 -0.6434877 -2.767653 -0.87523097 -5.2961645 -1.1328408 -5.330265
-2.1261516 -4.7875333 -4.4691973 0.029940447 -5.394614 -4.9679213 -3.3273602 -5.0931225
-3.697929 -1.0837822 -5.2514625 -4.8114777 -5.6952896 -2.0156262 -4.1750927 -3.5848339
-5.1822734 -5.3069077 -5.5808787 -4.8225627 -5.302704 -4.5482664 -4.9672713 -5.5802097
-3.9709747 -4.8840017 -5.504561 -2.008929 -5.3786073 -5.4256663 -5.5106034 -3.5822968
-1.6835029 -5.0758924 -5.596186 -4.02285 -4.149538 -3.0779157 -3.0508523 -2.0377018
-5.708403 -5.7189593 0.7216668 -2.319831 -4.854652 -4.186218 -4.142948 -5.707534
-5.0581174 -5.2967496 0.7040596 -3.058738 1.4253427 -4.8107514 -4.339926 -3.7842345
-5.8001223 0.7304361 -4.197027 -6.4148436 -2.977404 -1.9523889 -2.0918863 -4.982538
-0.39377815 -5.4454474 -2.4007359 -5.3762913 -1.2597711 -3.7355893 -0.5064122 -5.4500327
-3.8751643 -1.3131182 -4.085297 -5.1836157 -2.8780422 -4.03756 -4.8884873 -4.6860023
-5.4161444 -5.2609572 -1.8023137 -4.6730113 -5.797248 -5.1076307 -5.411102 -4.629073
-5.152519 -2.648873 -5.483669 -5.6774597 -2.0018883 -4.3969493 -1.4970596 -5.3991237
-4.921928 -3.0774822 -0.9070598 0.48272485 -0.69567776 -3.5120637 -5.73698 -1.894506
-5.3241262 -2.1675587 -1.3279322 -5.0108743 -5.335973 -3.918102 -4.9394116 -5.1185164

model.2.weight f4 [128, 128]
00000000: 31dd 473d cff1 1ebd c1fc 84bd a04e aabc
00000010: 76a8 0b3d 2b74 95bd 1f39 8ebd 442a c23c
00000020: 9c3b b9bd 4684 243d 3a81 84bd 1c72 5bbc
00000030: 4f77 dfbd 263c 463d cf41 a73c a1df 0fbd
00000040: cb3b 503d 6136 57bd 0a55 8d3d 04fa c9bd
00000050: 084d a5bd 8f72 e1bd 2590 d5bd 6f7e 8abd
00000060: d8d7 713d e063 263d debc 92bd e30c 6fbd
00000070: 13c2 c4bd 54b7 9f3c 03f3 1dbc 0f13 3fbc
00000080: 373d 2f3c 5ce8 d33c fc3a 653d 7c1d a5bd
00000090: 5660 8fbd 9062 b4bc 49c3 90bd 2e7d 2f3d
000000a0: d0c3 5cbd 58ef 703d 6ffe d0b9 fa73 d9bd
000000b0: c312 eabb 6d08 eabc 55ba a73d ea6b 1ebd
000000c0: 4108 553d 17cb 60bd 3ef6 a1bd 45cd 523c
000000d0: 9ad5 a4bd 703f f2ba cdfa 89bd 4c92 9cbd
000000e0: 734e bcbd 84bc cebc ae46 34bd 3d9a 13bc
000000f0: 48e8 7e3d 7dd2 25bd 18ba 403c d956 583d
00000100: 6062 7fbd a241 89bd dde0 69bc 6e50 d5bd
00000110: 7bea 163c 3e42 2a3d 8130 863d ce5a b9bd
00000120: 2385 58bd bfc6 8ebd fc18 4bbd 32af 6ebd
00000130: f33b b6bd 5efd 09bd 0316 97bd 29ef 5a3d
00000140: f924 8ebc 764c 5d3d ca05 2b3b 1ff9 7bbd
00000150: c6df b13b 8af7 5c3d 58bc 3d3d 5737 debc
00000160: 263d d13c 16ad 6a3d 6e78 89bd 6c56 933c
00000170: 160e 7f3d a427 5ebd 0df4 d33b cfa8 b3bc
00000180: 9889 14bc 1f9b 463d c937 9cbd 69bc 66ba
00000190: 7e96 7dbd da1d 84bd d401 643d 9d82 803d
000001a0: 9d7b 68bb 6fe4 0a3d 4edd 53bd 2679 693d
000001b0: a941 7fbd 13aa e6bc e2de 89bd d44d 4dbd
000001c0: afdb 2d3d 3e55 28bc 6a70 ebbc 3865 9dbc
000001d0: c84a cc3c f285 99bd ceab 3ebd bc67 a1bd
000001e0: 3ddd 233d 88d5 77bc 60e0 363a f634 0f3d
000001f0: ca23 72bd 2ef9 9fbc 4f89 21bd 3dc1 dabd
00000200: 731c 30bd cf0a 2ac0 0a64 203e 9f20 78be
00000210: fd8f 58bc 9690 3f41 6a82 c23e 3894 41bd
00000220: 01be 10c0 1af6 e5bd 19ef a53d 2dcf b7c1
00000230: fbd7 833f 1371 f7bc e5d8 8f40 80e3 13bf
00000240: 8f21 e1c0 bcf6 01c1 0b1f 2ebf 6cd0 7fc0
00000250: 4a84 9a3c ccf9 843d 985d 7f3f 4d1f 97bd
00000260: 3eda f4bc c440 eb3f dd87 37c0 7c10 b5bd
00000270: 0027 b2ba 7417 23bf 0df5 55bf 8143 b9bf
00000280: 764c bcbd 6fe8 663e 33d9 80bd a9cc 56c0
00000290: db61 b2bd 426a 06c0 da26 b8bc 286f c73b
000002a0: 03b1 c2bd bbbf bec0 a768 9fbd 98a1 a7bf
000002b0: dc2e 44bd da57 9fbd 7788 8abf a6ad 3f3d
000002c0: 1505 e4c0 a4a0 923d edf3 2bbd eb96 b9bd
000002d0: 989f 5dbf 5632 a6c1 0f1d 85bf a0a6 cac0
000002e0: 068d 28bd 102d f2bf 11b8 80be 301b 2ec1
000002f0: 6e17 2cbf 22ee 10bf c474 4a3f 389a 9cbc
00000300: 3944 883d 841d 97bf 0eb3 dd3e 4bdb c9bf
00000310: 3f67 0741 9436 b53f ed7a 623d 8798 9ac0
00000320: 244b 25bd 8304 d740 a7c5 733d e31f 563d
00000330: ef5c a23c 98c5 18bf 399b 99bc 9c6a 383c
00000340: facc df40 4847 b8bd 7105 263f 1ff5 093b
00000350: 0504 aac0 3ba0 513b 8322 2cc0 7b78 fbbe
00000360: 86de 94be 916a c53f 5f7a 07c0 5b28 593d
00000370: bb40 42c0 f211 05c0 8add 67bf c799 37bd
00000380: a09f b2bc 5b31 babf dee7 c3c0 cf98 8cbd
00000390: 37f3 8d3c 2819 5d3d 04ef 803d 62ac 92bd
000003a0: 2a7b 5dc1 9d50 2bc0 450d ccc0 e6a9 92bc
000003b0: 7892 be3e 09a0 3abd 5da0 0cc1 46d8 a63c
000003c0: 2ef0 2d3f 0648 b4c0 1f7e b8c0 2d02 f640
000003d0: 7e26 9740 f258 abbc ffde 1f3c 0c73 0340
000003e0: 49b9 44bb 9e51 0ac1 3293 43c1 58aa 223e
000003f0: 5cfc 7f3f ee1d 77c0 186b c8bd ebd7 adbb
0.04879493 -0.038804825 -0.064935215 -0.020789444 0.034096204 -0.07297548 -0.06944489 0.023701794
-0.09044573 0.04016521 -0.064699605 -0.013393905 -0.10911428 0.048397206 0.020417122 -0.03512538
0.050838273 -0.052542094 0.069009855 -0.0986214 -0.08071333 -0.110081784 -0.10427884 -0.067623965
0.059043735 0.040622592 -0.0716493 -0.0583619 -0.09607329 0.019496597 -0.009640458 -0.011662259
0.010695747 0.025867634 0.055964455 -0.08062264 -0.070007965 -0.022019655 -0.07068498 0.04284399
-0.05389768 0.058822006 -0.0003986242 -0.10617824 -0.00714335 -0.02856847 0.08189837 -0.038677134
0.052009825 -0.05488118 -0.07908295 0.012866323 -0.08048554 -0.0018482041 -0.067372896 -0.076450914
-0.091946505 -0.025236376 -0.044012718 -0.009008941 0.06223324 -0.04048394 0.011763118 0.0528172
-0.062349677 -0.067019716 -0.014274803 -0.10415731 0.009211178 0.04156708 0.0655222 -0.09050523
-0.052861344 -0.069715016 -0.049584374 -0.058272548 -0.08898153 -0.033688895 -0.07377245 0.053450737
-0.017351614 0.054027997 0.002609598 -0.061516877 0.005428287 0.05394701 0.046322197 -0.027125997
0.025541853 0.057293974 -0.06712423 0.017985545 0.062269293 -0.054237023 0.006468302 -0.02193108
-0.009066008 0.04848778 -0.07627828 -0.0008801879 -0.0619111 -0.06451006 0.055665806 0.062749125
-0.003547407 0.033909258 -0.051724724 0.0570003 -0.062318478 -0.02815727 -0.06731965 -0.05012305
0.042445835 -0.01027423 -0.028740127 -0.019213304 0.024938002 -0.07496251 -0.046550564 -0.07881114
0.04000591 -0.015126593 0.00069761835 0.034962617 -0.059116162 -0.019527998 -0.03943759 -0.106813885
-0.04299588 -2.6569097 0.15663162 -0.24231194 -0.013217923 11.972799 0.37990123 -0.047260493
-2.261597 -0.11228581 0.08102245 -22.97616 1.0300287 -0.030205285 4.4952264 -0.5776901
-7.0353465 -8.122738 -0.6801612 -3.997096 0.018861908 0.064929575 0.9975219 -0.07379017
-0.029889222 1.837914 -2.8676674 -0.08841035 -0.0013591945 -0.6370766 -0.8357704 -1.4473726
-0.09194271 0.22549604 -0.062914275 -3.3562415 -0.08710071 -2.1002355 -0.022479463 0.006086249
-0.095064186 -5.9609046 -0.07783633 -1.309619 -0.04789625 -0.07780428 -1.0822896 0.046796463
-7.1256204 0.07159546 -0.041980673 -0.090619884 -0.86571646 -20.774578 -1.0399493 -6.33284
-0.041150115 -1.8920002 -0.25140432 -10.881638 -0.6722325 -0.5661336 0.7908442 -0.019116506
0.066536374 -1.1805882 0.4330067 -1.5770048 8.462707 1.4157281 0.055293012 -4.831119
-0.040354863 6.7193007 0.059514668 0.052276503 0.019819705 -0.59676504 -0.018750774 0.011255886
6.9937716 -0.08997971 0.6485205 0.0021050645 -5.3129907 0.0031986374 -2.6896064 -0.49115357
-0.29076022 1.5423146 -2.116844 0.053017 -3.0352008 -2.0792203 -0.90572417 -0.044824388
-0.02180463 -1.4546312 -6.122054 -0.068650834 0.017327888 0.05397907 0.062955886 -0.07161786
-13.842569 -2.6767952 -6.37662 -0.01790328 0.37221122 -0.045562778 -8.789151 0.0203668
0.6794461 -5.633792 -5.7653956 7.6877656 4.7234488 -0.020916436 0.009757756 2.053897
-0.0030017665 -8.644926 -12.223436 0.15885293 0.99994445 -3.8612018 -0.097860515 -0.0053052804

model.2.bias f4 [128]
00000000: e3d1 cdbd ca5c c240 207f 05be 05a1 fe40
00000010: 3fa7 36c0 99ec d5bd 8caf 27c0 6de8 26c0
00000020: 637b 25c0 fdfd 96bd 79d9 0f3f fa59 28c0
00000030: 2fe6 a4bd 467c 1fbc 1e91 22c0 15d3 20c0
00000040: 94cc 90bc 429d 6cbf c6c6 3ac0 4739 e3bc
00000050: e10f 4ac0 91d7 1ac0 d5ad 29c0 afc8 96c0
00000060: 4c5b d540 001f 24bd 7797 14c0 a5ec 17c0
00000070: ec79 25c0 34cd 1bc0 6ff1 a7bd 19d4 91bc
00000080: 803f 43c0 8a31 11c1 d0c7 2cc0 ce3e 30c0
00000090: cb18 25c0 8523 29c0 feb6 1dc0 cbf8 05bd
000000a0: 221e 9040 49de 22c0 ac19 c8bd f25b 35c0
000000b0: b75e 13c0 97aa 4bc1 3ab7 c340 ed27 27c0
000000c0: d2e7 cbc0 370b 2bc0 08dc 14c0 2433 64bc
000000d0: 646b 1cc0 9c86 43c0 28c0 dcbd 1fe4 dbbd
000000e0: da8c 1641 f632 cd3f 55c2 b740 5468 55c0
000000f0: 5e3a 2ac0 2a58 41c0 087e 1bbc 23d6 32c0
00000100: 4c7e 713f a616 7ebb f8c9 dcbd a1fa 3ec0
00000110: 9780 38c0 3eb3 3fc0 f2d2 2cc0 144c d3bd
00000120: 8354 abbc 50d4 28c0 6124 80bd ae15 51c0
00000130: 659b 36c0 b3b8 41c0 a276 5ac0 ddb8 bf40
00000140: 301c 5ec0 70a5 31bc 5c25 85bd a6f8 c3bd
00000150: 1d64 3bc0 97bd 4cc0 5845 8d40 34df 4740
00000160: e37c ba40 bf3e 1cc0 accb 793f ea2a 34c0
00000170: c864 45c0 5c4e e3bc 8f11 19c0 6538 31c0
00000180: 140f 3fc0 37af f6c0 1138 2cbd b123 14c0
00000190: 9c83 1cbe 7381 37c0 44ac 52c0 147c d4c0
000001a0: 05b6 e1bd 5c45 47c0 1d92 26c0 1736 32c0
000001b0: 2ea1 46c0 82e2 5ec0 fea7 9abd 8558 40c0
000001c0: 9516 15c0 c87c 27c0 382f 1bc0 a4ac 27c0
000001d0: 5829 d140 a2f6 58bd 6dc7 25c0 1343 a9bd
000001e0: f912 363c 317b 32c0 823b 32c0 9823 84bc
000001f0: 41ef 0441 14d7 37c0 8b32 9abd 4369 c2b9
-0.10049798 6.073827 -0.13036776 7.9571557 -2.853958 -0.10445518 -2.6200895 -2.6079361
-2.585656 -0.07372663 0.5619121 -2.6304917 -0.080517165 -0.009734219 -2.5401073 -2.5128834
-0.017675675 -0.92427456 -2.9183822 -0.027737273 -3.1572192 -2.4194071 -2.6512349 -4.7119975
6.6673946 -0.040068626 -2.3217447 -2.3738186 -2.5855665 -2.4343996 -0.08200347 -0.017801331
-3.0507507 -9.0745945 -2.6996956 -2.7538333 -2.5796382 -2.642793 -2.464294 -0.03270797
4.5036783 -2.5448172 -0.097705215 -2.833737 -2.302656 -12.729148 6.1161165 -2.6118119
-6.3720484 -2.6725595 -2.3259296 -0.0139282085 -2.4440546 -3.055091 -0.107788384 -0.1073687
9.409388 1.6031177 5.742472 -3.3344927 -2.6598125 -3.021006 -0.009490497 -2.7943199
0.9433334 -0.0038770824 -0.1078071 -2.9840472 -2.8828485 -2.995315 -2.700375 -0.10317245
-0.020914322 -2.6379585 -0.06256939 -3.2669482 -2.8532345 -3.0268981 -3.4134908 5.9913163
-3.4704704 -0.010842666 -0.06501266 -0.0956891 -2.9279854 -3.1990716 4.414715 3.1229982
5.827745 -2.4413297 0.97576404 -2.8151193 -3.0842762 -0.027747326 -2.3916967 -2.769067
-2.9852953 -7.7088885 -0.042045657 -2.3146784 -0.1528458 -2.867276 -3.2917643 -6.6401463
-0.110210456 -3.1136084 -2.602668 -2.7845514 -3.1035876 -3.482575 -0.07551573 -3.0054028
-2.3295033 -2.616991 -2.424757 -2.6199121 6.536297 -0.052969582 -2.590297 -0.082647465
0.011112922 -2.788769 -2.784882 -0.016130254 8.308412 -2.8725023 -0.075291716 -0.0003708099

model.4.weight f4 [1, 128]
00000000: 7662 22bc a091 cf40 b3f9 8ec0 9ec2 f740
00000010: 9983 4040 c5f2 24bc ee4d 4140 1938 3e40
00000020: 678c 3d40 9948 163b 91db 4c40 271d 3f40
00000030: dd47 5abc 05fb 06bd 8dac 4140 63c7 4140
00000040: 94ca 96bc b8fb 1241 f0ce 3d40 784b 4c3c
00000050: 8ccd 4140 c8d1 3e40 ee04 3f40 e469 75c1
00000060: 8efa a440 e541 8cbb ff1c 3d40 3979 4240
00000070: 83ea 4140 4071 3f40 68da 1fbd fae7 6bbd
00000080: 3836 4040 49e3 8ac1 590d 4340 d072 4240
00000090: c826 4140 26fa 3b40 2269 4240 b9e4 b5bc
000000a0: b919 9340 030f 4140 21a4 53bd a596 4140
000000b0: b50c 4140 a88d f240 6df5 3541 0195 4240
000000c0: 6320 0141 e5ed 4040 2c33 3c40 80a5 7dbd
000000d0: 33e0 4140 365e 4040 0a95 38bc 9345 90ba
000000e0: c4c7 1441 e969 8840 62e2 09c1 9984 4140
000000f0: dcb5 7b41 606e 4040 6b10 6fbd d5cd 4340
00000100: 82e1 36c1 fe1f 02bd a3a9 a3bc 493d 3e40
00000110: de07 4240 542d 4140 a88b 4340 8c4a 29bc
00000120: 93f9 60bd e8b3 4140 ff44 3bbd db12 4140
00000130: 7ff6 4140 e49f 3d40 3935 4340 3fe3 b9c1
00000140: 1468 6b40 26a8 33bd 358a e0bc b45f 81bd
00000150: a951 4240 4584 3e40 19b9 f840 35a4 3f41
00000160: 9ec1 08c1 449b 4240 2316 ba40 baba 4140
00000170: f05c 4340 b5de 5fbc f89a 3e40 7329 4340
00000180: 592c 3c40 b77a 8ac1 90e0 0abd 1024 3c40
00000190: 2d23 27bc 47a5 3f40 d08f 4540 6ff2 f4c0
000001a0: 1a66 c1bb db83 4340 85c4 3c40 b854 4140
000001b0: 5baa 4240 c17e 6e40 46a8 b63b b183 4240
000001c0: 2a66 3c40 bf42 4340 4936 4240 02bc 4140
000001d0: 1685 09c1 b108 603c 8077 3f40 4085 afbc
000001e0: 51fa 98bb 27c1 3b40 8890 3d40 096e 5ebd
000001f0: 1f0f e940 c25a 3f40 7c67 37bc 7c46 42bd
-0.00991117 6.4865265 -4.467981 7.742507 3.008032 -0.010067646 3.0203815 2.972174
2.9616945 0.0022931455 3.2009013 2.9861543 -0.013322798 -0.032954235 3.0261567 3.0277946
-0.018407144 9.186455 2.9657555 0.012469165 3.0281706 2.981554 2.984676 -15.338352
5.1555853 -0.004280316 2.9548948 3.0386488 3.0299385 2.9912872 -0.039026648 -0.057594277
3.0033092 -17.36098 3.0476897 3.0382576 3.017992 2.9371428 3.0376668 -0.02220379
4.59689 3.0165412 -0.051670197 3.0248196 3.0164006 7.579792 11.372418 3.0403445
8.070407 3.01452 2.9406233 -0.06192541 3.029309 3.0057502 -0.011266002 -0.0011007063
9.298771 4.2629285 -8.617769 3.023718 15.731899 3.0067368 -0.058365267 3.059438
-11.430056 -0.03176879 -0.01997835 2.9724905 3.0317302 3.0183916 3.055399 -0.010332715
-0.054925513 3.0266056 -0.045720097 3.0167758 3.03067 2.962884 3.0501235 -23.23596
3.6782274 -0.04386153 -0.027409652 -0.06317082 3.0362341 2.976823 7.772595 11.97759
-8.54727 3.0407267 5.815202 3.027022 3.0525475 -0.013663937 2.9782085 3.0494049
2.9402068 -17.30992 -0.033905566 2.939701 -0.010201258 2.9944627 3.0869026 -7.654594
-0.005902064 3.0549228 2.9494946 3.0207958 3.0416477 3.7264864 0.005574259 3.0392878
2.9437356 3.0509489 3.0345633 3.0271 -8.594992 0.013673947 2.9916687 -0.021425843
-0.004668512 2.933664 2.9619465 -0.054304156 7.283096 2.9899144 -0.011194106 -0.0474305
