models/2024-12-10_22-30-00/rastrigin_model.pt (torch, 70872 bytes, 5 tensors)

model.0.weight f4 [128, 2]
0	0xbb7cc36b	-0.0038568627
1	0xbf1d0c28	-0.61346674
2	0xbef2abd9	-0.47396734
3	0xbe7aaf3e	-0.24480912
4	0xbae57a48	-0.0017507756
5	0xbf0d0b81	-0.5509568
6	0x3f8001ac	1.000051
7	0x3b8eed75	0.004361803
8	0xbfaf4c3b	-1.3695139
9	0x3c7ae067	0.015312291
10	0x39354e3f	0.00017290654
11	0xbe9563da	-0.29177743
12	0x3ab4f145	0.0013804814
13	0x3ec55195	0.38538805
14	0x3c617e42	0.013763012
15	0x3f4e84b9	0.8067127
16	0x3f52675c	0.82188964
17	0xbe134943	-0.14383416
18	0x3ef19927	0.47187158
19	0x3b35d57a	0.002774565
20	0x3f35f067	0.7106995
21	0xbe2bd789	-0.16781439
22	0xbe4a4c67	-0.19755708
23	0xbebd6363	-0.3698989
24	0xbf30606b	-0.6889712
25	0xbabf72ac	-0.0014606318
26	0xbb1187ca	-0.002220618
27	0x3f8930ef	1.0718058
28	0xbe08acb3	-0.1334713
29	0x3999e9d2	0.00029356644
30	0x3fe5eb2c	1.7962394
31	0x3adb71a8	0.0016742246
32	0x3ebdd132	0.37073666
33	0x3d9d2716	0.07673471
34	0x3eb5d243	0.3551198
35	0xbe809ad7	-0.25118133
36	0x3ca8b833	0.020595646
37	0x3f7906fc	0.9727628
38	0x3b6000c9	0.0034180155
39	0x3f485f37	0.78270286
40	0xbf2456eb	-0.64195126
41	0x3e03d214	0.12873107
42	0x3f21e15f	0.63234514
43	0x3b8cd03b	0.004297284
44	0x3f3efbb1	0.746028
45	0xbe201a02	-0.15634921
46	0xbe799667	-0.2437378
47	0x3d09af74	0.03361459
48	0x3f1107d8	0.56652594
49	0xbf16884d	-0.5880173
50	0xb910d4a7	-0.0001381213
51	0x3f526e18	0.8219924
52	0x3df61dc2	0.120173946
53	0xbed16b69	-0.4090226
54	0x3b213dd3	0.00246035
55	0xbf78fbdc	-0.97259307
56	0xbf1096ae	-0.5647992
57	0x3ef275ba	0.47355443
58	0xbb2ea884	-0.0026650736
59	0xbf28b2ac	-0.6589763
60	0xbd25a252	-0.040438004
61	0x3f4ac2b4	0.79203343
62	0x3efcee94	0.4940077
63	0x3b3fdbcc	0.0029275296
64	0x3f27bdce	0.65523994
65	0xbb30ee6c	-0.002699758
66	0xbee241b8	-0.44190764
67	0x3a91af7c	0.001111492
68	0xbe6ef892	-0.2333701
69	0x3f40d17e	0.7531966
70	0x3f3f66ee	0.74766433
71	0xb968e67a	-0.00022211103
72	0xbf8f3776	-1.11888
73	0xbcebb4f3	-0.028772807
74	0x3f177717	0.5916609
75	0x3b820384	0.0039677043
76	0x3a1370fa	0.000562444
77	0xbf93d011	-1.1547872
78	0xbcf238dd	-0.02956813
79	0xbf8f671c	-1.1203341
80	0xbed699d7	-0.41914245
81	0x3a7e4fb3	0.0009701207
82	0x3c6677f9	0.01406669
83	0x3f5f19c3	0.87148684
84	0x3ee0c0b6	0.43897027
85	0xbf303e10	-0.688447
86	0x3bba63a1	0.005688146
87	0x3f512eb1	0.8171187
88	0x3c4fa91a	0.012674594
89	0x3f950938	1.1643438
90	0x3f11e718	0.56993246
91	0x3b5a0a36	0.0033270246
92	0xbb179a0d	-0.0023132593
93	0xbf54420f	-0.829133
94	0x3ea776e6	0.327079
95	0xbe082e83	-0.13298993
96	0xbf1beddd	-0.60909826
97	0xbdf19fcb	-0.11798056
98	0x3d7d06e6	0.061774157
99	0x3f7777d8	0.9666724
100	0x3e5620a5	0.2091089
101	0x3d548fdd	0.05189501
102	0xbf0ed2e4	-0.55790544
103	0x3b48a508	0.0030615944
104	0xbd1dc7e8	-0.038520724
105	0x3e89722e	0.26844925
106	0x3e27b235	0.16376574
107	0xbf1a94da	-0.6038338
108	0xbaedc5f8	-0.0018140664
109	0xbf1cc5e6	-0.6123947
110	0xbf70d20d	-0.9407051
111	0x3f1f267f	0.62168115
112	0xbeb82d99	-0.35972288
113	0xbf27d6bd	-0.6556204
114	0xbcce880c	-0.025211357
115	0x3f84c6ee	1.0373209
116	0xbf5ba145	-0.8579295
117	0xbdf9617f	-0.12176799
118	0xbdadfd2c	-0.08495554
119	0x3f60d634	0.8782685
120	0xbe21259b	-0.15737002
121	0xbe9b6fea	-0.3035882
122	0xb998ce0c	-0.00029145216
123	0xbf6e8659	-0.9317375
124	0x3f168e32	0.5881072
125	0x3c4c58fd	0.012472388
126	0xbf5fbbfa	-0.87396204
127	0xbf074101	-0.52833563
128	0x3da0ae9f	0.07845806
129	0x3f5e053d	0.86726743
130	0xbf2352b0	-0.63798046
131	0x3f37babf	0.71769327
132	0xbf061f22	-0.52391255
133	0x3f061045	0.52368575
134	0xbf578f89	-0.8420339
135	0xbbad8d34	-0.0052963737
136	0xbf735ac2	-0.9506036
137	0x3ccfc071	0.025360318
138	0xbe181fd1	-0.14855887
139	0x3ef17002	0.47155768
140	0xbd90cb46	-0.07070021
141	0xbf27da52	-0.65567505
142	0x3f3a9f32	0.7289916
143	0x3e07707a	0.132265
144	0xbc40527e	-0.011738418
145	0xbfda6c0a	-1.7064221
146	0xbd0958c8	-0.033531934
147	0xbfbf75b3	-1.4957794
148	0x3efefd9f	0.49802873
149	0xbd32bcfc	-0.04363726
150	0xbf46b2cf	-0.7761659
151	0x3eaa528c	0.33266103
152	0xbf6cd400	-0.92510986
153	0xbe33edd9	-0.175712
154	0x3b11e0c3	0.0022259213
155	0x3f2b0d76	0.66817415
156	0x3f406c22	0.75165
157	0xbea379a6	-0.31928748
158	0xbf4de9c6	-0.80434835
159	0xbe0c2b5e	-0.13688418
160	0xbf5fc0c7	-0.8740353
161	0xbd2f3353	-0.042773556
162	0x3f239396	0.63897073
163	0x3e836ad5	0.25667444
164	0x3ed072a8	0.40712476
165	0xbd5e2d3d	-0.05424236
166	0xbf8415e3	-1.0319179
167	0x3b32425d	0.00272002
168	0xbfc5ce49	-1.5453578
169	0xbc7f46be	-0.015580831
170	0xbc0a124b	-0.008427213
171	0xbf3f0966	-0.74623716
172	0x3db1b2c1	0.08676673
173	0xbf58c5f3	-0.84677047
174	0x3f3bd7e3	0.7337629
175	0x3da61a47	0.08110481
176	0x3f59fbdd	0.8514994
177	0xb9506e9f	-0.00019877635
178	0x3f80bd0e	1.0057695
179	0xbbcb0f94	-0.0061969254
180	0xbb5c13d9	-0.0033581166
181	0xbf06e6e1	-0.52696043
182	0x3efb47e0	0.49078274
183	0xbe62c706	-0.22146234
184	0xbd36814f	-0.044556912
185	0x3f9b756e	1.2145212
186	0xbd7347a1	-0.059394483
187	0x3f3ef80e	0.7459725
188	0xbef39ab9	-0.47578982
189	0x3f33dfa3	0.7026312
190	0xbf84cd63	-1.0375179
191	0x3b976e2a	0.004621287
192	0x3dc4a9d8	0.096027076
193	0xbf3c2a15	-0.7350171
194	0x3f90a600	1.1300659
195	0xbb3090ea	-0.0026941844
196	0xbf69b4ca	-0.9129149
197	0x3b26e706	0.002546729
198	0xbe5473fe	-0.20747373
199	0x3e38595c	0.18002838
200	0xbd068023	-0.032837044
201	0x3f765031	0.9621611
202	0xbecac534	-0.3960358
203	0x3e62a59d	0.22133489
204	0xbf14c52c	-0.5811336
205	0x3cec4019	0.028839158
206	0xbd8cae43	-0.06869175
207	0xbf2fed45	-0.6872142
208	0x3f12a481	0.57282263
209	0x3b619dff	0.0034426448
210	0x3d239b01	0.039942745
211	0xbfaedb30	-1.3660641
212	0xbb7b9602	-0.0038388972
213	0x3ee56770	0.4480548
214	0x3cc67b68	0.024228767
215	0xbf9795f1	-1.1842633
216	0xbea4cf2c	-0.3218931
217	0x3d3269d9	0.043557975
218	0x3e617552	0.2201741
219	0xba1b6077	-0.0005927155
220	0x3ed25356	0.41079205
221	0xbe3804b4	-0.17970544
222	0xbf880629	-1.062688
223	0xbccc6ab0	-0.024953216
224	0x3b43238c	0.0029775826
225	0xbf7214b7	-0.9456286
226	0xbe15d8b0	-0.14633441
227	0xbe7f52b0	-0.24933887
228	0x3cc7d1a1	0.024391951
229	0xbd7ee204	-0.062227264
230	0x3f533bcc	0.8251312
231	0xbcc5056d	-0.024050439
232	0xba793461	-0.0009506401
233	0x3f9bfa06	1.2185676
234	0x3f93cb9f	1.1546515
235	0x3d0852a5	0.03328194
236	0x3ad59855	0.0016296009
237	0x3f2b2425	0.6685203
238	0x3f86ae1d	1.0521885
239	0x3ab6f397	0.0013958093
240	0xbe1dfc50	-0.15428281
241	0x3f3c330e	0.73515403
242	0x3f84d510	1.0377522
243	0xbc6b92c0	-0.01437825
244	0xbf400638	-0.7500949
245	0xbd5e8ebc	-0.05433534
246	0x3d2fc0cd	0.04290848
247	0xbf44ac8e	-0.768258
248	0xbc8319b6	-0.01600347
249	0xbf2b5cf4	-0.6693871
250	0x3ec40d2a	0.38291293
251	0xbf4fd8ff	-0.81190485
252	0x3ea1d430	0.316072
253	0xbe4d0b55	-0.20023854
254	0x3f25da61	0.64786345
255	0x3e0be212	0.13660458

model.0.bias f4 [128]
0	0x3f9d751a	1.2301362
1	0xbfbd2a93	-1.4778618
2	0xbf86cf39	-1.0531989
3	0x3cd370d7	0.025810642
4	0xbfa58e3c	-1.2934031
5	0xbf5f9fe7	-0.87353367
6	0x3f3cf2b0	0.7380781
7	0xbec33830	-0.38128805
8	0x3f3c2c5d	0.73505193
9	0x3f98b4c3	1.1930164
10	0xbe9ce788	-0.30645394
11	0x3f73f572	0.95296395
12	0xbf85768a	-1.04268
13	0xbfcf711a	-1.6206391
14	0x3f1a6c4d	0.60321504
15	0x3f524ea7	0.82151264
16	0xbf8fa6e8	-1.1222811
17	0x3fa62789	1.2980815
18	0xbf70bc52	-0.94037354
19	0xbfc6078e	-1.5471056
20	0xbe887c94	-0.26657546
21	0x3fa2df4e	1.2724397
22	0xbe907b4e	-0.28219074
23	0x3f21ec8f	0.63251585
24	0x3f26a736	0.65098894
25	0xc002fcad	-2.046672
26	0xbf12ef26	-0.5739616
27	0x3f7875bc	0.9705465
28	0xbbdca3c6	-0.0067333905
29	0x3f6fcdad	0.9367321
30	0xbc913036	-0.017723184
31	0x3f7ed695	0.99546176
32	0x3f2985b3	0.66219634
33	0x3f893e51	1.0722142
34	0x3f50e289	0.81595665
35	0xbfb828dd	-1.438747
36	0xbf2d4f8f	-0.6769952
37	0x3f98713b	1.1909555
38	0x3ef40ff9	0.47668436
39	0x3d9042f6	0.07044022
40	0x3f8225f5	1.0167834
41	0x3fa1a32a	1.2627919
42	0xbecdb4cc	-0.40177
43	0xbeca0fc6	-0.3946516
44	0x3f90a74f	1.1301059
45	0x3f118bc9	0.5685392
46	0x3f98c8f2	1.1936324
47	0xbf043ee4	-0.51658463
48	0x3f81b6dd	1.013393
49	0x3d5df3d9	0.05418763
50	0x3f01fe4d	0.5077866
51	0xbfcbccb4	-1.5921845
52	0x3f40fb9d	0.7538393
53	0xbf579759	-0.84215313
54	0xbf95ccc8	-1.1703119
55	0xbee6281f	-0.44952485
56	0x3f315f48	0.6928601
57	0x3ee04199	0.43800047
58	0x3dc52b3e	0.096273884
59	0x3efa634e	0.48903888
60	0x3f4d62ff	0.8022918
61	0xbf1356f1	-0.5755454
62	0x3f1e9ac9	0.61954933
63	0xbcad9596	-0.021189492
64	0x3da70c64	0.0815666
65	0xbf433b7c	-0.7626264
66	0xbec28d9f	-0.37998673
67	0xc0059706	-2.0873427
68	0x3f77e782	0.9683763
69	0x3f022b60	0.50847435
70	0xbfac325b	-1.3452867
71	0x3f78bbdd	0.97161657
72	0xbf502599	-0.8130737
73	0xbd6f612b	-0.058442276
74	0x3d6a326f	0.057177003
75	0x3f663304	0.89921594
76	0xbf1c26bf	-0.6099662
77	0xbff45d88	-1.9091043
78	0xbef168c1	-0.47150233
79	0x3ec885f7	0.39164707
80	0x3f69eb80	0.9137497
81	0x3eb63d88	0.3559382
82	0xbf4e827b	-0.8066785
83	0x3f82e551	1.0226232
84	0x3f4af49f	0.7927951
85	0xbef5defd	-0.4802169
86	0x3e243a50	0.1603787
87	0xbf3ef923	-0.745989
88	0xbfd1b4bc	-1.6383281
89	0x3fbe5ae6	1.487149
90	0x3f8739a0	1.0564461
91	0xbf003856	-0.5008596
92	0xbf966956	-1.1750896
93	0xbf4a5d96	-0.7904905
94	0x3e8fc26a	0.28078014
95	0x3f84581b	1.0339388
96	0xbf102ae4	-0.56315446
97	0xbfd4b1ac	-1.6616721
98	0xbfe8fca9	-1.8202106
99	0x3eed5942	0.4635716
100	0x3f7557a9	0.95836884
101	0xbee5c4fe	-0.44876856
102	0xbfc8477e	-1.5646818
103	0xbee5692c	-0.44806802
104	0x3f93b990	1.1541004
105	0xbd6caf20	-0.0577842
106	0x3f8d1811	1.102297
107	0x3e01af37	0.12664495
108	0x3f55848a	0.83405364
109	0x3f7d5ad8	0.9896674
110	0xbe6df9ce	-0.23239824
111	0x3f88d5c1	1.0690233
112	0x3e9f83ea	0.3115533
113	0x3f85038d	1.0391709
114	0x3f612924	0.879534
115	0xbd2df652	-0.042471237
116	0x3f9cca48	1.2249231
117	0x3d8f473f	0.06996011
118	0xbfae7d04	-1.3631902
119	0x3ce8cc2d	0.028417671
120	0xbf097534	-0.5369446
121	0xbd31cfce	-0.04341107
122	0x3ee7155d	0.45133486
123	0xbf420d68	-0.75801706
124	0x3f3065da	0.68905413
125	0xbd6c6b63	-0.0577196
126	0xbebb77c6	-0.36614817
127	0x3f85ae4f	1.044382

model.2.weight f4 [128, 128]
0	0x3e8932f0	0.26796675
1	0xbdc5c699	-0.0965702
2	0x3f10d869	0.56580216
3	0x3e47b838	0.19503868
4	0x3ef24038	0.4731462
5	0x3ec0d121	0.37659553
6	0x3ae29364	0.0017286357
7	0xbd7f8613	-0.062383723
8	0xbe39f6d6	-0.18160567
9	0xbde9273b	-0.11384436
10	0xbe16ce6c	-0.14727181
11	0xbdc025bb	-0.093821965
12	0xbf46f253	-0.7771351
13	0xbf4052fe	-0.75126636
14	0xbcb8a7c5	-0.022540936
15	0xbe8b28fe	-0.27179712
16	0x3e830723	0.25591382
17	0xbe1ffaf4	-0.15623075
18	0x3ec92efb	0.39293656
19	0x3f25d99d	0.64785177
20	0xbdc45089	-0.09585673
21	0x3dcf5041	0.10122729
22	0xbe3511bd	-0.17682548
23	0x3e227fc7	0.15869056
24	0xbc2276ae	-0.009915991
25	0xbfaf823a	-1.3711617
26	0x3d4462b8	0.047945708
27	0x3e28207f	0.16418646
28	0x3d0ef431	0.034900848
29	0xbe4159b0	-0.1888187
30	0xbe21e2d8	-0.1580919
31	0x3e7e6b3f	0.24845599
32	0x3e0ee74c	0.1395542
33	0xbe1a0594	-0.1504119
34	0xbc83d529	-0.016092854
35	0x3f05229e	0.52005947
36	0xbe1e49c2	-0.15457824
37	0x3e458895	0.19290383
38	0xbea0ac17	-0.31381294
39	0x3e7b3784	0.24532896
40	0xbea54471	-0.3227878
41	0xbe8333fc	-0.25625598
42	0xbd99973d	-0.074995495
43	0xbe3de45e	-0.18544146
44	0x3e95fbe0	0.29293728
45	0x3e533221	0.20624591
46	0xbddc78b6	-0.10765211
47	0xbd57223f	-0.052522894
48	0xbd9d51fd	-0.07681654
49	0xbe41b582	-0.18916896
50	0xbde3d5a0	-0.1112473
51	0x3ecd6897	0.40118858
52	0x3cd06c62	0.025442306
53	0xbd4ada96	-0.049524866
54	0x3f258783	0.646599
55	0xbc806364	-0.015672393
56	0x3d12d417	0.035846796
57	0xbe44f72a	-0.1923491
58	0xbdf6f0ae	-0.12057625
59	0x3abfa1b2	0.0014620333
60	0xba7b0558	-0.00095756864
61	0xbe777af0	-0.2416799
62	0x3e45edad	0.19328947
63	0x3d1477ee	0.036247186
64	0xbe26b890	-0.16281343
65	0x3df433ac	0.11923918
66	0xbd730ff9	-0.059341405
67	0xbf521b45	-0.8207286
68	0x3e3d3e0e	0.18480703
69	0x3c994220	0.018708289
70	0xbe4785bf	-0.19484614
71	0xbd44119d	-0.04786836
72	0xbeeb47fd	-0.4595336
73	0x3e45fddd	0.19335122
74	0xbdd65964	-0.10466269
75	0x3d3a81c0	0.045533895
76	0x3c635314	0.013874788
77	0x3f6dccaa	0.9289042
78	0xbdad91bd	-0.08475063
79	0xbe220405	-0.15821846
80	0x3e064605	0.13112648
81	0x3a2ade98	0.00065181544
82	0xbe2bd019	-0.16778602
83	0x3e017a85	0.12644394
84	0xbeeb05bc	-0.45902812
85	0xbe256e7e	-0.1615543
86	0xbd4672be	-0.04844927
87	0xbe85870b	-0.26079592
88	0x3ef650a8	0.4810841
89	0xbeaee8f3	-0.341621
90	0x3e9f1d14	0.31076872
91	0x3dd36cfa	0.1032352
92	0x3ed25992	0.41083962
93	0xbe4a2c75	-0.19743522
94	0x3c91d436	0.017801385
95	0x3e8cd612	0.27507073
96	0x3c289f01	0.010291816
97	0xbf4ff96a	-0.8123995
98	0x3f255efb	0.64598054
99	0xbd95c1a6	-0.07312326
100	0x3e8189d7	0.25300476
101	0x3d0ab4a7	0.03386369
102	0x3dd30445	0.10303549
103	0x3bea1a5a	0.0071442546
104	0x3de0e8f5	0.10981933
105	0x3e9d9d2c	0.30783975
106	0xbe4822ac	-0.19544476
107	0x3e4d43fd	0.20045467
108	0x3dc368d9	0.095414825
109	0xbe02db37	-0.12778936
110	0xbd773bda	-0.060359813
111	0x3e82eae3	0.2556983
112	0xbe22245c	-0.15834183
113	0xbe293f3f	-0.16528033
114	0xbd05543d	-0.03255104
115	0x3ea0694d	0.31330338
116	0x3e6059d0	0.21909261
117	0x3e81ce12	0.25352532
118	0x3f2545b3	0.6455948
119	0x3e6bdadc	0.23032707
120	0xbdfc1585	-0.12308792
121	0x3e41cfc6	0.18926916
122	0xbdb4ceb0	-0.08828485
123	0xbe3cf2f3	-0.18452053
124	0x3e7c63c5	0.24647434
125	0xbc8f7e32	-0.01751623
126	0x3dc40a62	0.09572293
127	0x3afd03a1	0.001930345
128	0x3e2b5c4d	0.16734429
129	0xbd9b5915	-0.075853504
130	0x3eda1b95	0.42599168
131	0x3e86d134	0.26331484
132	0x3ef1d0ae	0.47229522
133	0x3ebabc67	0.36471865
134	0xbc7791ff	-0.015110492
135	0xbdf8b3eb	-0.12143692
136	0xbbf82c4e	-0.007573641
137	0xbde31fc0	-0.1109004
138	0x3cb2bf2a	0.02181967
139	0xbdfa53eb	-0.12223037
140	0xbf318871	-0.6934882
141	0xbf1f4809	-0.6221929
142	0xbe046112	-0.12927654
143	0xbe9ac74f	-0.30230185
144	0x3e5ae81d	0.21377607
145	0xbd8dd9fe	-0.06926344
146	0x3eea232c	0.4572996
147	0x3f08da2a	0.5345789
148	0x3bae8018	0.0053253286
149	0x3d49cca8	0.04926744
150	0xbe18b8ed	-0.14914294
151	0x3ddc3ac4	0.10753396
152	0x3acb3016	0.0015502002
153	0xbf9663ee	-1.1749246
154	0x3c8fff5b	0.017577818
155	0x3df760e4	0.12079027
156	0xbbb6139b	-0.0055565364
157	0xbe182b24	-0.14860207
158	0xbd84eb42	-0.06490184
159	0x3e2e55f5	0.17024978
160	0x3e85492b	0.26032385
161	0xbd8eada0	-0.0696671
162	0xbd0dfa2d	-0.034662414
163	0x3ec083ef	0.37600657
164	0xbe8957f7	-0.26824924
165	0x3e22f1c4	0.15912539
166	0xbe7dc044	-0.24780375
167	0x3e93207a	0.28735715
168	0xbea1194b	-0.3146461
169	0xbe818ad5	-0.25301233
170	0xbca0c397	-0.019624515
171	0xbde6bf10	-0.11266911
172	0x3e465cba	0.1937131
173	0x3e7c7c6c	0.24656838
174	0xbdc3c40f	-0.095588796
175	0xbd940167	-0.0722683
176	0xbd7feefd	-0.062483776
177	0xbe1fe29a	-0.15613785
178	0xbd8b35a2	-0.06797339
179	0x3eeb8595	0.46000353
180	0xbe00c9c5	-0.12576969
181	0xbd84f2f3	-0.064916514
182	0x3f39633c	0.72417045
183	0xbbcc6ab2	-0.006238305
184	0xbd3a3d1a	-0.045468427
185	0xbe562346	-0.20911893
186	0xbde1daea	-0.11028083
187	0x3d8e22c7	0.06940227
188	0xbc2118c7	-0.009832568
189	0xbdcb8f52	-0.099394456
190	0x3e1ee924	0.15518624
191	0x3e12c101	0.14331438
192	0xbe2fbc9f	-0.17161797
193	0x3d796f0d	0.060896922
194	0xbd558d64	-0.052136794
195	0xbf37bdd3	-0.71774024
196	0x3e24ba0f	0.160866
197	0xbd09de90	-0.033659518
198	0xbe90a9a5	-0.28254429
199	0xbcb5b9a4	-0.022183247
200	0xbee33f71	-0.4438434
201	0x3e5ea60c	0.2174303
202	0xbda5306e	-0.08065878
203	0xbbe4ccb9	-0.0069824127
204	0x3cd5ef1e	0.026114997
205	0x3f415ed9	0.7553535
206	0xbdc65f64	-0.09686163
207	0xbe175bd1	-0.14781119
208	0x3e7ac791	0.24490191
209	0xbd7af166	-0.06126537
210	0xbe55e423	-0.20887809
211	0x3e60f7d0	0.21969533
212	0xbebbf74e	-0.36712116
213	0xbe1799f0	-0.14804816
214	0xbdef6745	-0.11689619
215	0xbeb447e2	-0.35211092
216	0x3eac2a1d	0.3362588
217	0xbe1da10b	-0.15393464
218	0x3e03a38e	0.1285536
219	0xbb659811	-0.0035033266
220	0x3eefdf6a	0.4685014
221	0xbd5583db	-0.0521277
222	0x3d1f4c51	0.03889114
223	0x3e045d17	0.12926136
224	0xbdcf94db	-0.10135814
225	0xbf557e9b	-0.8339631
226	0x3f1462e9	0.57963425
227	0xbd8beeeb	-0.06832679
228	0x3e87b3a7	0.2650425
229	0x3c03dfbc	0.008048948
230	0x3e3301d4	0.17481166
231	0xbdaa22d0	-0.08307421
232	0x3dc089b2	0.09401263
233	0x3e61cfd0	0.2205193
234	0xbe6d081f	-0.23147629
235	0x3e89a2f2	0.2688213
236	0x3d91b4d5	0.07114569
237	0xbe37afa0	-0.1793809
238	0xbcd678ea	-0.026180703
239	0x3e8a3bf9	0.2699888
240	0xbdbfec05	-0.09371189
241	0xbdd7ebf5	-0.10543052
242	0x3c9e6001	0.019332888
243	0x3e6d16af	0.23153184
244	0x3e2cb400	0.1686554
245	0x3e7feca4	0.24992615
246	0x3f1ada9a	0.6048981
247	0x3e10be8e	0.14135191
248	0xbdd78ed5	-0.1052529
249	0x3e32b94a	0.17453495
250	0xbe06510f	-0.13116859
251	0xbe5d854e	-0.21632883
252	0x3e22761a	0.15865365
253	0x3da8009f	0.082032435
254	0xbcf71087	-0.030159248
255	0xbcd6c7ac	-0.026218258

model.2.bias f4 [128]
0	0x3d6615d3	0.056173157
1	0xbd8f7a61	-0.07005764
2	0xbd529971	-0.051415864
3	0x3d967db4	0.07348195
4	0x3bbcd8bc	0.0057631414
5	0x3d8617ad	0.065474845
6	0xbd8f36fb	-0.069929086
7	0x3c4e4972	0.012590753
8	0x3d6706c2	0.05640293
9	0x3cb8ed60	0.022574127
10	0xbd57cc36	-0.052684985
11	0x3d6942e0	0.056948543
12	0x3a8a0cd1	0.0010532384
13	0xbc0f7393	-0.008755582
14	0xbd1ffd69	-0.03906003
15	0x3d0f2a6a	0.03495256
16	0x3d7ad479	0.061237786
17	0x3b95b311	0.0045684655
18	0x3dc62e20	0.096767664
19	0xbd54adb9	-0.051923487
20	0xbd595af4	-0.053065255
21	0xbcbfff9f	-0.02343732
22	0xbd68fdad	-0.05688255
23	0x3da3c2b0	0.07996118
24	0x3d9ea3ff	0.077461235
25	0xbd7ae39c	-0.06125222
26	0x3cc981ee	0.024598088
27	0xbc95a2f6	-0.018266182
28	0x3b8948b2	0.004189574
29	0x3cfa874b	0.03058209
30	0x3c87365f	0.016505418
31	0xbd770839	-0.060310576
32	0x3d089fcd	0.033355523
33	0x3dab19df	0.08354544
34	0xbd184fdd	-0.03718554
35	0x3dd81356	0.10550563
36	0xbcff697b	-0.031178227
37	0x3c9bae65	0.019004056
38	0x3f33a744	0.701771
39	0xbceba8cd	-0.028767014
40	0x3d91bec4	0.07116464
41	0xbd409f3b	-0.047026854
42	0xbd3ff3ed	-0.046863485
43	0xbc8451fb	-0.016152373
44	0x3e3076ac	0.1723277
45	0x3c0f6a9d	0.008753446
46	0x3d959730	0.07304227
47	0x3d0f712e	0.035020046
48	0xbdc5c303	-0.09656336
49	0xbb91430f	-0.004433043
50	0xbd1da6b4	-0.03848906
51	0x3be2f3f3	0.0069260537
52	0x3c8bd9e6	0.017071676
53	0x3c845687	0.01615454
54	0x3dfd8999	0.1237976
55	0xbd84a161	-0.06476093
56	0x3d92d155	0.07168833
57	0xbc9d36ac	-0.019191109
58	0x3cb11297	0.02161531
59	0x3dd7407b	0.105103455
60	0xbd75166e	-0.059835844
61	0xbdb883fc	-0.09009549
62	0x3d0f2750	0.0349496
63	0x3d4529cd	0.048135567
64	0xbda6910d	-0.08133135
65	0x3cf0b3bb	0.029382577
66	0x3a2ea437	0.0006662043
67	0x3d0dced1	0.034621064
68	0xbd985d9d	-0.0743973
69	0x3d91fe73	0.071286105
70	0xbdc477e3	-0.09593179
71	0xbd50ef2d	-0.051009346
72	0xbd2229f9	-0.03959081
73	0xbd9ca0f1	-0.07647885
74	0x3c5fc3f6	0.013657561
75	0xbdca3614	-0.09873596
76	0x3d3bacd7	0.04581913
77	0x3c01d99c	0.007925417
78	0xbcdd0f08	-0.026984707
79	0xbd40eb77	-0.047099557
80	0x3d4385df	0.04773509
81	0x3d7afa7e	0.061274044
82	0x3cc91059	0.024543928
83	0x3d2e57b0	0.042564094
84	0x3d555ae9	0.05208865
85	0xbdb512dd	-0.088414885
86	0x3ca9191e	0.02064186
87	0xbc69f8c1	-0.014280499
88	0x3c81439a	0.015779305
89	0x3c0b0487	0.008484966
90	0x3c08e201	0.008354665
91	0xbce023b4	-0.027360775
92	0xbb5a5cd1	-0.0033319483
93	0x3c63c510	0.013901964
94	0x3dc20ea5	0.094754495
95	0x3d36fc95	0.044674475
96	0x3bd6c01d	0.0065536634
97	0x3d77d694	0.060507372
98	0xbdc9a777	-0.098463945
99	0xbdade0fe	-0.084901795
100	0xbd68b908	-0.056817085
101	0x3d01f5d5	0.031728584
102	0x3d31d2c8	0.043413907
103	0xbd267c84	-0.04064609
104	0x3c50abd9	0.012736284
105	0x3c88fbfa	0.016721714
106	0xbcb9169b	-0.022593787
107	0x3c872fa3	0.016502207
108	0xbc3e768c	-0.011624943
109	0xbd75d1fa	-0.060014702
110	0x3d457f98	0.048217386
111	0xbcb109db	-0.021611145
112	0x3dc8a611	0.097973
113	0x3d63b590	0.055593073
114	0x3d01bd45	0.031674642
115	0x3dd8bc2f	0.10582768
116	0x3d1a4029	0.037658844
117	0xbd046486	-0.03232243
118	0xb9aaecb7	-0.00032601293
119	0xbc1f1596	-0.009709736
120	0x3d332cae	0.04374378
121	0x3d57bba5	0.052669186
122	0x3d23ac6e	0.039959364
123	0x3d0b06dc	0.03394209
124	0xbd795c16	-0.060878836
125	0xbc848351	-0.016175898
126	0xbcdcdecc	-0.026961707
127	0xbd4b6b92	-0.049663134

model.4.weight f4 [1, 128]
0	0x3fb87b2c	1.4412589
1	0x3f6e1715	0.9300397
2	0xbbdf0e40	-0.0068071187
3	0x3f5c9539	0.86165196
4	0xbd007754	-0.0313638
5	0x3f55c2b2	0.83500206
6	0xbbe9a130	-0.0071298108
7	0xbc938006	-0.018005382
8	0xbd56e456	-0.052463852
9	0x3d734726	0.059394024
10	0xbd85d51f	-0.0653479
11	0x3f747d6b	0.9550387
12	0xbd80567d	-0.06266496
13	0xbd8e0978	-0.069354
14	0x3f7458be	0.9544791
15	0xbd700a3d	-0.058603514
16	0xbb9ec563	-0.0048453077
17	0x3f87a5da	1.0597489
18	0x3f5ce000	0.86279297
19	0xbd1d1cf7	-0.0383577
20	0x3fff24e3	1.9933132
21	0x3fd8001b	1.6875032
22	0xbbba48e0	-0.005684957
23	0x3fe85c17	1.8153104
24	0xbd41653d	-0.04721569
25	0x3f034563	0.5127775
26	0x3f85b317	1.0445279
27	0x3b15e14e	0.0022869888
28	0x3f5a0f97	0.8518004
29	0xbb12ccd6	-0.0022399924
30	0x3f73e86e	0.95276535
31	0x3fd40949	1.6565334
32	0xbd8d7917	-0.06907862
33	0x4015c09d	2.3398812
34	0x3f341776	0.703483
35	0x3fa1d9d7	1.2644604
36	0x3f9f3c98	1.2440367
37	0x3f4d497b	0.8019025
38	0xc050cff6	-3.262693
39	0x3f660f6f	0.898673
40	0x3ff17b6f	1.8865794
41	0xbd838c3d	-0.06423233
42	0xbcea3821	-0.028591217
43	0x3fa34125	1.2754256
44	0x405ae037	3.419935
45	0xbc9312ea	-0.017953355
46	0x3f88f0be	1.0698469
47	0xc02a75c4	-2.6634378
48	0xbd25810b	-0.040406268
49	0xbd60b1e3	-0.054857146
50	0xbcc288ba	-0.023746837
51	0x3f819afd	1.0125424
52	0xbd911751	-0.070845254
53	0x3facb2f9	1.3492118
54	0x3f86b0ce	1.0522707
55	0xbd8f8738	-0.07008213
56	0x3fa3ff20	1.2812233
57	0xbd629263	-0.055315387
58	0xbc3b9c36	-0.011450818
59	0x3fc153aa	1.5103657
60	0xbd61e9d8	-0.05515465
61	0xbb751c34	-0.0037400844
62	0x3fb7e0d8	1.4365492
63	0xbc9543fe	-0.018220898
64	0xbcf80875	-0.03027747
65	0xbc8f4e2e	-0.017493334
66	0x3f137f1a	0.57615817
67	0x3f9cdc24	1.2254682
68	0x3f90c95e	1.1311452
69	0x3b868d55	0.0041062036
70	0xbc3df612	-0.011594312
71	0xbd7093d2	-0.058734722
72	0xbc8bb046	-0.017051827
73	0x4026d4f3	2.6067474
74	0x3f22ae59	0.63547283
75	0xbcaf5060	-0.02140063
76	0x3f84928f	1.0357226
77	0xbd08cadf	-0.033396598
78	0xbd6d3401	-0.057910923
79	0x3f6a1ba2	0.91448414
80	0x3f3f676c	0.74767184
81	0x3f7fc713	0.9991314
82	0x3fa76ec0	1.3080673
83	0xbd351a79	-0.0442147
84	0x3f431eae	0.7621869
85	0xbb3331d9	-0.0027342944
86	0xbd01b1a9	-0.03166357
87	0xbd81f94e	-0.06346379
88	0x3f55a3aa	0.83452857
89	0x3f2df634	0.679538
90	0x3f40b5bc	0.75277305
91	0x3fb18543	1.3868793
92	0xbd7b479e	-0.061347596
93	0xbc088d6b	-0.008334498
94	0x3fc74350	1.5567417
95	0x3f44138b	0.7659232
96	0x3f626c73	0.8844673
97	0xbaf7da0b	-0.0018909586
98	0xbd76202a	-0.060089268
99	0xbd76ae41	-0.060224775
100	0xbd3c65b6	-0.045995437
101	0xbd51b64c	-0.051199242
102	0xbd8361e8	-0.064151585
103	0x3f7ddbeb	0.99163693
104	0x3f8eea02	1.1165164
105	0x3f4811b6	0.78152025
106	0xbd844630	-0.064587
107	0xbd99ead0	-0.0751549
108	0x3f7513cf	0.9573335
109	0x3f964907	1.1741036
110	0x3fd8aa61	1.6926996
111	0x3d4979d8	0.049188465
112	0x3f67f041	0.90600973
113	0xbb98d5c3	-0.0046641543
114	0x3f37bdf2	0.7177421
115	0xbe30809e	-0.17236564
116	0xbbb40c8c	-0.0054946598
117	0x4034adb2	2.8231015
118	0xbd1aa2a2	-0.037752755
119	0xbaff54c9	-0.0019480224
120	0x3fc06615	1.5031153
121	0x3f11aa5f	0.5690059
122	0xbc23b659	-0.009992206
123	0xbd848928	-0.06471473
124	0xbd1e3cba	-0.038632132
125	0x3f4fa29e	0.8110751
126	0xbcc1e3e9	-0.023668246
127	0x3f006256	0.5015005
