models/2024-12-10_22-30-00/rosenbrock_model.pt (torch, 70882 bytes, 5 tensors)

model.0.weight f4 [128, 2]
0	0xc00e6bc1	-2.2253268
1	0x3f789aac	0.9711101
2	0xbfae99eb	-1.3640722
3	0x3dca2322	0.09869982
4	0xc008404a	-2.128924
5	0x3ed3cc10	0.41366625
6	0xc00c2e61	-2.1903307
7	0x3fabf148	1.3433008
8	0xc005a501	-2.088196
9	0x3eb1fd77	0.3476369
10	0x3f85b3f7	1.0445546
11	0xbe6ce978	-0.23135936
12	0xbf9d8ce5	-1.2308623
13	0xbd8b73e4	-0.06809214
14	0x4023b629	2.5579932
15	0xbef01902	-0.4689408
16	0x401df86a	2.468287
17	0x3f6b3781	0.9188157
18	0x400d30d5	2.2061055
19	0xbea051b4	-0.31312335
20	0xbfc873c0	-1.5660324
21	0xbe355f04	-0.17712027
22	0x3f80481a	1.0022004
23	0xbd090590	-0.03345257
24	0xbfb5928a	-1.4185345
25	0xbe140cd3	-0.14458017
26	0x3ff0e46a	1.8819706
27	0x3f886010	1.0654316
28	0xbf8906cb	-1.0705198
29	0xbd9ccf3c	-0.07656714
30	0x3fbe3d79	1.486251
31	0xbe3ca9f7	-0.18424211
32	0xc0041019	-2.0634825
33	0x3f8c986b	1.0984014
34	0x403d8bd7	2.9616601
35	0x3e9e1e3f	0.3088245
36	0x3f9f3e6f	1.2440928
37	0x3cd08ba4	0.02545721
38	0xbf3fb774	-0.748893
39	0xbf13329c	-0.574991
40	0xc01937d5	-2.3940327
41	0x3f264036	0.6494173
42	0xbf89d949	-1.0769435
43	0xbd772b14	-0.060343817
44	0x3fb59cb6	1.4188449
45	0x3d863f9b	0.065551005
46	0x3f8eca3f	1.1155471
47	0xbd35c44b	-0.044376653
48	0xc0331c8b	-2.7986171
49	0xbeaadb0a	-0.3337024
50	0x401f6e3d	2.4911034
51	0x3eb88843	0.3604146
52	0xbfa5123e	-1.2896192
53	0xbe0e9054	-0.13922244
54	0x3f9aec9f	1.2103461
55	0xbde10f42	-0.10989238
56	0xc0216890	-2.522007
57	0x3f7ea13e	0.99464786
58	0xbfefef2b	-1.8744863
59	0xbe439f6a	-0.1910378
60	0x4014c4bc	2.3245077
61	0x40116c3d	2.2722313
62	0x3fac4187	1.3457497
63	0xbe670640	-0.22560978
64	0x3f8bdd75	1.0926958
65	0xbd0d0ec6	-0.034437917
66	0xbf9a7d7e	-1.2069547
67	0xbe4627da	-0.1935114
68	0xc01f6978	-2.4908123
69	0x3f6d33e1	0.92657286
70	0x402c4b8a	2.6921105
71	0x3dba4342	0.0909486
72	0x3f814d15	1.0101649
73	0xbc9aef53	-0.018912947
74	0x3f6e3634	0.9305146
75	0xbd11bb91	-0.035579268
76	0x402213a9	2.53245
77	0x3f897c7a	1.0741112
78	0x3f88ade5	1.0678068
79	0xbcef2df7	-0.029196722
80	0x3f94da6d	1.1629158
81	0xbe97ba5e	-0.29634374
82	0xbf961bd1	-1.1727239
83	0xbd836bf2	-0.06417073
84	0xbf889012	-1.0668967
85	0xbd77c114	-0.060486868
86	0x40397bf2	2.89819
87	0xbf9d9b20	-1.2312965
88	0x3fd4d049	1.6626064
89	0x3d495a76	0.049158536
90	0xc00af4d3	-2.171193
91	0x3f2e6b3a	0.68132365
92	0x3fb14540	1.3849258
93	0xbe11d2ed	-0.14240618
94	0xc002cffb	-2.0439441
95	0x3f838d55	1.0277506
96	0x3f8e9c07	1.1141366
97	0xbd31f258	-0.043444008
98	0xbfa34845	-1.275643
99	0xbe12fc81	-0.14354135
100	0x3f923546	1.1422508
101	0xbd405041	-0.046951536
102	0xbfe5aa5a	-1.7942612
103	0xbf28391c	-0.6571214
104	0x402d86fb	2.7113636
105	0x3ebee162	0.37281328
106	0x3f92ef69	1.1479312
107	0xbdb4c97b	-0.08827492
108	0x401c8d2f	2.4461172
109	0x3f782e5e	0.9694575
110	0xbf96523d	-1.1743847
111	0xbe17a34b	-0.14808385
112	0x401bdf6f	2.4355123
113	0x3fac27d8	1.3449659
114	0x3fa5b3c6	1.2945487
115	0xbe02a93a	-0.12759867
116	0xc01c269e	-2.439857
117	0x3fde05e5	1.7345549
118	0x3f852f95	1.0405146
119	0xbd381df8	-0.044950455
120	0x402ea3a2	2.7287374
121	0xbfa62127	-1.2978867
122	0x4005b1a3	2.088967
123	0x3f6dce73	0.9289314
124	0x3f897611	1.0739156
125	0xbd29458e	-0.0413261
126	0x3f8064a0	1.0030708
127	0xbe6f82f6	-0.23389801
128	0xc000dacd	-2.0133545
129	0x3f84e0c0	1.0381088
130	0xc0124bd5	-2.2858784
131	0x3ff41c4e	1.9071138
132	0x4003bae1	2.0582812
133	0x3f3f4415	0.7471326
134	0xc01b3f96	-2.425756
135	0x3f4856c7	0.7825741
136	0xc010141f	-2.251228
137	0x3f848081	1.0351716
138	0xbf85c9bb	-1.0452188
139	0xbd679538	-0.05653879
140	0x3f88125f	1.0630606
141	0xbd234d1c	-0.03986846
142	0x40209b18	2.5094662
143	0x3f1665fc	0.58749366
144	0x3feb98f6	1.8406055
145	0x3eec7bcf	0.46188208
146	0xc02e2cf0	-2.7214928
147	0x3f830e48	1.0238733
148	0x3f8d710b	1.1050123
149	0xbd3c70b9	-0.04600594
150	0x40058afc	2.086608
151	0x3f24b36b	0.6433627
152	0xc0342771	-2.8149073
153	0xbfb0b4a3	-1.3805126
154	0x3f8d8038	1.1054754
155	0xbdcd9bbf	-0.10039472
156	0xc02ded69	-2.7176154
157	0x3f97bfae	1.1855371
158	0x40101994	2.2515612
159	0x3f3573b0	0.7087965
160	0xbfbf3dbe	-1.4940717
161	0xbf21fc37	-0.63275474
162	0xbfc3b182	-1.5288546
163	0xbe26a2da	-0.1627306
164	0xc025484a	-2.5825372
165	0xbf913024	-1.1342816
166	0xbf93a2a0	-1.1534004
167	0xbdd88bb1	-0.10573519
168	0xc01d4a9c	-2.4576788
169	0x3f783cde	0.96967876
170	0xc01f4174	-2.48837
171	0x3f7ee16b	0.9956271
172	0xbfc201a0	-1.5156746
173	0xbe26b606	-0.16280374
174	0xbfbe6664	-1.4874997
175	0xbd07611f	-0.033051606
176	0xbf83fba9	-1.0311176
177	0xbde1657e	-0.11005686
178	0xc005c5e3	-2.090203
179	0x3f3b4712	0.7315532
180	0xc009f8a3	-2.1558006
181	0x3fb54fad	1.416494
182	0x3fb1b746	1.3884056
183	0xbf17f4a0	-0.59357643
184	0xc0121ec5	-2.283128
185	0x3f800864	1.0002561
186	0xc00fcafb	-2.246764
187	0x3f943060	1.1577263
188	0x4019d87a	2.4038377
189	0x3f8f9558	1.1217451
190	0xc0156fd8	-2.3349514
191	0x3f81558f	1.0104235
192	0x3ff14b99	1.8851196
193	0x3f0dccb8	0.553905
194	0xbfb4a0ed	-1.4111611
195	0xbe1db7b0	-0.15402102
196	0x3f153eb6	0.58298814
197	0xbf1621e1	-0.58645445
198	0x3f798f79	0.97484547
199	0xbd412069	-0.04715005
200	0xbff3ad46	-1.9037254
201	0x3f9f21c3	1.2432178
202	0x3fe02b49	1.751321
203	0xbedaf1cd	-0.42762604
204	0xbfcb4f76	-1.5883625
205	0xbe3e78f3	-0.18600826
206	0xbf846031	-1.0341855
207	0xbe31630f	-0.17322944
208	0xbf8f45f6	-1.1193225
209	0xbd8b1a90	-0.06792176
210	0x3f9abc66	1.2088745
211	0xbcd70007	-0.02624513
212	0x40149e56	2.322164
213	0x3f611219	0.8791824
214	0x400648ee	2.0982013
215	0xbf7e2058	-0.992681
216	0xc00c5e96	-2.193273
217	0x3f80c696	1.0060604
218	0x3fed409d	1.8535343
219	0xbf0f102c	-0.5588405
220	0xc00247c8	-2.0356312
221	0x3e889c24	0.26681626
222	0x3f898b99	1.0745727
223	0xbd4f916e	-0.050675802
224	0xbf9a7dc9	-1.2069637
225	0xbda28b83	-0.07936766
226	0x40055b05	2.0836804
227	0x3f8cd70f	1.1003131
228	0x3f8200d4	1.0156503
229	0xbd172b8c	-0.036906764
230	0x3f8caf12	1.0990927
231	0xbea09bda	-0.31368905
232	0x402a6f8b	2.663058
233	0x3edfe9da	0.43733102
234	0x3fa65af1	1.2996503
235	0xbe012296	-0.1261085
236	0xbfa400d9	-1.2812759
237	0x3e5c1147	0.21490966
238	0x400c37c7	2.1909044
239	0x3d8c4f5d	0.06851075
240	0xbf92b16d	-1.1460396
241	0xbdf718e1	-0.12065292
242	0x3f82fb17	1.0232877
243	0xbd5e613d	-0.054291952
244	0xbf78e2f0	-0.9722128
245	0xbe21b293	-0.15790777
246	0x3fb6d499	1.428363
247	0xbf052325	-0.5200675
248	0xc000e260	-2.0138168
249	0x3f6b2fe8	0.91869974
250	0xc00c125e	-2.188621
251	0x3f49dcbe	0.7885245
252	0x3fca876d	1.5822579
253	0x3d700394	0.058597162
254	0x40138784	2.3051462
255	0x3f6dbe60	0.92868614

model.0.bias f4 [128]
0	0xbccedc93	-0.025251662
1	0xc095867b	-4.672666
2	0x3f3419a1	0.70351607
3	0xbfa37536	-1.2770145
4	0xc04386a3	-3.0550926
5	0xc0950a3b	-4.657499
6	0xc096d2d6	-4.713237
7	0x3ed9220f	0.42408797
8	0x3f07bcf3	0.5302269
9	0xbfa6c970	-1.3030224
10	0xc092ff83	-4.5936904
11	0xc08e7480	-4.451721
12	0xc09c5973	-4.885919
13	0xc041e5b8	-3.029646
14	0xc09e9cbd	-4.956633
15	0xc05c8f0d	-3.4462311
16	0xbfce849e	-1.6134222
17	0x3f4f15aa	0.8089243
18	0xc0837c16	-4.108897
19	0xc07b8906	-3.9302382
20	0x3dcde88c	0.100541204
21	0xc09dd344	-4.9320393
22	0xc07f86c4	-3.9926004
23	0xc0922f91	-4.5683064
24	0x3df04a56	0.117329285
25	0x3f59edc9	0.85128456
26	0xc09314be	-4.596282
27	0xc06591a2	-3.5870137
28	0x3f2da760	0.6783352
29	0xc077bfff	-3.8710935
30	0xbf6044a2	-0.87604725
31	0xc06f4714	-3.7387133
32	0xc09da5e8	-4.926502
33	0xc0a08495	-5.0161843
34	0x3e9eeeb5	0.31041494
35	0x3eea6ba1	0.4578524
36	0xc0734959	-3.8013518
37	0xc06bcdef	-3.6844442
38	0xbee43759	-0.44573477
39	0xc0945653	-4.6355376
40	0xc0900c85	-4.5015283
41	0xc0954864	-4.6650867
42	0xc08c29ae	-4.380088
43	0xbf2344ec	-0.6377704
44	0xc02fed86	-2.7488723
45	0x3ee2fa21	0.44331458
46	0xc06dc6ad	-3.7152512
47	0xc0164965	-2.3482296
48	0xc09033c0	-4.506317
49	0xc09962c0	-4.7933044
50	0xc08e8aa8	-4.454426
51	0xc06275b2	-3.5384336
52	0x3f706f2b	0.9391963
53	0xc085a9b9	-4.176968
54	0x3ff1004e	1.8828218
55	0xc092ec8a	-4.5913744
56	0xc007db27	-2.122751
57	0xc081abab	-4.0522056
58	0xbf89cd68	-1.076581
59	0xc09958ef	-4.792106
60	0xbf779762	-0.96715367
61	0xbf17ea2b	-0.59341687
62	0xc091ac3e	-4.5522757
63	0xc085671f	-4.168838
64	0xbfc2effb	-1.5229486
65	0xbf521475	-0.82062465
66	0xbf3a8dee	-0.7287282
67	0x3ff7a4cd	1.9347168
68	0xc003efa0	-2.0615005
69	0xc0958012	-4.6718836
70	0xc08e016f	-4.437675
71	0x3fa7fb37	1.312354
72	0x40030515	2.0471852
73	0x3f356a4c	0.7086532
74	0xc0996f81	-4.7948613
75	0x3f533c50	0.82513905
76	0xbf5a7a95	-0.85343295
77	0xc065660d	-3.5843537
78	0x3fbc0a85	1.469071
79	0xc029f25c	-2.6554174
80	0xc08955aa	-4.291707
81	0xc070a027	-3.759775
82	0xc03d2a2b	-2.9556987
83	0xc085add0	-4.1774673
84	0xbff69830	-1.9265194
85	0xc009481a	-2.1450257
86	0xc09cb2dd	-4.896834
87	0xc0771232	-3.8604856
88	0xc09af2b0	-4.842125
89	0x400a8402	2.164307
90	0xc02fc0a5	-2.746133
91	0xc0455341	-3.0832064
92	0x3fa19459	1.2623397
93	0x4016e018	2.3574276
94	0xbfe12059	-1.7587997
95	0xbecc2fc5	-0.39880195
96	0xbff85f28	-1.9404039
97	0xc08c11fd	-4.377196
98	0xc0603c8f	-3.5036962
99	0xc090a08a	-4.519597
100	0xbff46f45	-1.9096457
101	0xc06b09e3	-3.6724784
102	0xc08a598b	-4.3234305
103	0xc092195a	-4.5655947
104	0xc09b46c6	-4.8523893
105	0xc08bde1d	-4.3708634
106	0x3f848b4d	1.0355011
107	0xc023af28	-2.5575657
108	0x3fcf9b8c	1.6219344
109	0xc02f6a9d	-2.7408822
110	0xbf93c34a	-1.1543972
111	0xc06b31ea	-3.6749215
112	0xc0a2d4fa	-5.088498
113	0xc0148523	-2.320626
114	0xc0946cec	-4.638296
115	0xc0761164	-3.8448114
116	0x3fbcc2af	1.4746913
117	0xc08e73aa	-4.451619
118	0xc05c4ee9	-3.4423163
119	0xbfa0df48	-1.256814
120	0xc0755cc1	-3.8337862
121	0xc0782c16	-3.8776908
122	0xc0941b0c	-4.6283016
123	0xc087ee43	-4.2478347
124	0xc016e39e	-2.3576427
125	0x3fd76e40	1.6830521
126	0xc0650122	-3.5781941
127	0x3f69968e	0.91245353

model.2.weight f4 [128, 128]
0	0xbce06f3e	-0.027396794
1	0xbc8d28e4	-0.017231412
2	0xbcb1a94c	-0.021687172
3	0xbc3262ca	-0.010887811
4	0x3d1cdb1f	0.038294908
5	0x3d87b037	0.06625407
6	0xbd14bbe3	-0.036311995
7	0x3d7d1465	0.061787028
8	0xbdae7d22	-0.08519961
9	0xbd8ff24a	-0.07028635
10	0xbd84af83	-0.06478789
11	0x3d6cd9a1	0.057824735
12	0xbd07e979	-0.03318164
13	0xbdc26da2	-0.09493567
14	0xbda1096a	-0.07863124
15	0x3ba84a9a	0.0051358463
16	0x3d132d3e	0.03593182
17	0x3d4eb16c	0.05046217
18	0x3c3c3ab8	0.011488609
19	0xbdc6b827	-0.09703093
20	0xbc1a3de4	-0.00941417
21	0xbdbe2df4	-0.092861086
22	0xbb666e40	-0.003516093
23	0xbda1ebda	-0.07906313
24	0x3d6d269b	0.057898145
25	0x3c8411cf	0.016121773
26	0x3cb7040c	0.022340797
27	0xbd8c4241	-0.068485744
28	0x3d5a6b24	0.053324834
29	0xbdc3fcec	-0.095697254
30	0x3b5515b9	0.0032514168
31	0xbd3a83b0	-0.045535743
32	0x3cdf887e	0.027286764
33	0xbcf94e2f	-0.030432789
34	0xbd6238e8	-0.05523005
35	0xbd469f0d	-0.048491526
36	0xbc72083c	-0.014772471
37	0xbd658a1e	-0.056039922
38	0xbd0cc359	-0.034365986
39	0xbd91e9fd	-0.07124708
40	0xbca4ba9a	-0.02010851
41	0xbdb0d6d5	-0.08634726
42	0xbc8a20b9	-0.016861307
43	0xbc188cfb	-0.009310956
44	0xbd2a505e	-0.04158055
45	0x3d0f034d	0.034915257
46	0xbd3e5340	-0.046466112
47	0xbd97c551	-0.07410682
48	0x3bbcc0cb	0.0057602874
49	0x3d857dc2	0.06518127
50	0x3c7193ca	0.014744708
51	0xbac4c713	-0.0015012942
52	0xbd52070f	-0.051276263
53	0xbc06b8dc	-0.008222785
54	0x3d033b9b	0.032039266
55	0x3cd2ddd3	0.02574054
56	0x3d04bc65	0.03240623
57	0xba8011dd	-0.0009770949
58	0xbd0f719d	-0.03502046
59	0xb8ba9399	-8.896663e-05
60	0xbcab684c	-0.020923756
61	0xbd82ce4f	-0.063870065
62	0x3d87b3b0	0.066260695
63	0x3d26f860	0.040764213
64	0xbc43b5f1	-0.011945234
65	0x3d161342	0.03663946
66	0x3d85747e	0.0651636
67	0xbd6b630a	-0.057467498
68	0xbc38af55	-0.011272271
69	0x3d8e4d02	0.06948282
70	0xbd83fdff	-0.0644493
71	0xbd0c298e	-0.034219317
72	0xbc7d2c6c	-0.0154524855
73	0x3ca87ca0	0.020567238
74	0x3d483727	0.048880722
75	0xbb87d943	-0.0041457727
76	0xbc85195d	-0.016247446
77	0xbda57480	-0.08078861
78	0xbd0c65e0	-0.034276843
79	0xbd099144	-0.0335858
80	0x3cf6b973	0.030117726
81	0xbadab757	-0.001668672
82	0xbd84378c	-0.06455907
83	0xbd3f7f69	-0.046752367
84	0xbc8549f7	-0.01627062
85	0xbd48d8ab	-0.049034756
86	0xbc4021fb	-0.011726852
87	0xbc26019d	-0.010132221
88	0xbb501100	-0.0031748414
89	0xbd88be87	-0.06676965
90	0x3d88b79b	0.06675645
91	0xbdbaecc6	-0.09127192
92	0x3d001521	0.03127015
93	0xbba71b88	-0.0050997175
94	0x3d2d6451	0.042331997
95	0xbc02e530	-0.007989213
96	0x3c0d96f0	0.008641943
97	0xbce279cf	-0.027645973
98	0x3c197605	0.009366517
99	0xbc02bfa6	-0.007980263
100	0xbd2a98af	-0.041649517
101	0xbd490c5b	-0.04908405
102	0x3d4be1b4	0.049775794
103	0xbcfd6c4b	-0.030935427
104	0xbda2effd	-0.079559304
105	0xbd1c5f14	-0.03817661
106	0x3d71077e	0.058845036
107	0xbced9285	-0.02900053
108	0x3d731f1a	0.059355833
109	0x3ce6e04e	0.028183129
110	0x3cf22802	0.029560093
111	0xbd53532b	-0.051592987
112	0xbdcf03b7	-0.101081304
113	0xbd3b1d62	-0.04568232
114	0xbbfd3c43	-0.007728131
115	0x3d37d282	0.04487849
116	0xbc8d9552	-0.017283116
117	0xbd672137	-0.05642816
118	0x3d236315	0.039889414
119	0xbd5b176b	-0.05348913
120	0x3d82cb3f	0.06386422
121	0xbcd21e40	-0.02564919
122	0x3cca2fbc	0.024680965
123	0xbc285ade	-0.010275571
124	0x3d83b900	0.0643177
125	0xbd1d0e6f	-0.038343843
126	0x3d50511f	0.050858613
127	0xbc46df18	-0.012138151
128	0x3d63aec1	0.05558658
129	0x3cd46b14	0.025929965
130	0x3d77ca8b	0.060495894
131	0xbda55ddc	-0.08074543
132	0x3d38450e	0.04498773
133	0xbd8815a5	-0.06644753
134	0x3cd91259	0.026498007
135	0xbda4f024	-0.08053616
136	0xbd4179f1	-0.047235433
137	0x3cb9e108	0.022690311
138	0xbd5a120a	-0.05323986
139	0xbc0fdae0	-0.008780211
140	0xbd9bd717	-0.076093845
141	0xbd6344ef	-0.055485662
142	0x3d15dc70	0.03658718
143	0xbd7b67dd	-0.06137835
144	0x3c82ee48	0.015982762
145	0xbda871ee	-0.08224855
146	0xbd6fba12	-0.05852706
147	0x3cd56377	0.026048405
148	0x3d4cf381	0.05003691
149	0x3d90c351	0.07068504
150	0xbb176c20	-0.002310522
151	0x3da17a51	0.07884658
152	0xbd68f373	-0.056872796
153	0x3c40ade0	0.011760205
154	0xbd3bfebb	-0.045897227
155	0x3d507aea	0.05089847
156	0xbd81a875	-0.06330959
157	0xbd67786a	-0.05651132
158	0xbcb295e7	-0.021799995
159	0xbc059fa8	-0.008155741
160	0x3dab1559	0.08353681
161	0x3d97894b	0.073992334
162	0x3d23dd27	0.04000583
163	0xbdaf19e8	-0.08549863
164	0x3d8851f3	0.066562556
165	0xbb9a2210	-0.0047037676
166	0x3d62859c	0.0553032
167	0x3d82696b	0.06367763
168	0x3ae66327	0.0017577157
169	0xbc791208	-0.015202053
170	0x3d8a6cd3	0.06759038
171	0xbd9d7887	-0.076890044
172	0xbc81107e	-0.015754934
173	0x3cecfcba	0.028929103
174	0x3d8c669b	0.06855508
175	0xbd5046be	-0.050848715
176	0xbd931c38	-0.07183117
177	0xbd840d6c	-0.064478725
178	0xbdb4e3b3	-0.08832493
179	0x3d6f18e2	0.05837334
180	0xbd439ed3	-0.04775889
181	0x3d84ed77	0.06490605
182	0x3d63f233	0.0556509
183	0xbcf88660	-0.030337512
184	0xbd9ce5ab	-0.07660993
185	0xbdb46d2e	-0.08809887
186	0x3d65b13d	0.05607723
187	0xbd616fb3	-0.055038165
188	0xbc49fb00	-0.0123279095
189	0xbcf00d4d	-0.029303217
190	0xbd4741d2	-0.048646756
191	0x3d8004a5	0.06250886
192	0x3d661a95	0.056177694
193	0xbd7c0a0d	-0.061533023
194	0x3bc37026	0.005964297
195	0xbdc5a8fe	-0.09651373
196	0xbd106e41	-0.035261396
197	0x3da28d45	0.07937101
198	0x3c8eef88	0.017448202
199	0x3d02e310	0.031954825
200	0xbdc71418	-0.097206295
201	0xbc95ac18	-0.018270537
202	0xbda2a65d	-0.079418875
203	0x3d9d6a02	0.07686235
204	0xbdc25479	-0.09488768
205	0x3c91851b	0.017763665
206	0xbd9fa9a8	-0.07796031
207	0x3d46fd6a	0.04858152
208	0x3ced7221	0.028985085
209	0x39414d3b	0.00018434685
210	0xbd1fb023	-0.038986336
211	0xbd861e52	-0.06548752
212	0x3d824e1c	0.063625544
213	0xbd279666	-0.040914916
214	0x3cab9e2d	0.020949448
215	0x3d14a3f7	0.03628918
216	0xbc65bfe8	-0.014022805
217	0xbdb2bb11	-0.08727086
218	0xbc848dae	-0.01618084
219	0xbd3ab9c7	-0.045587327
220	0x3d2122d4	0.039339855
221	0xbd81cb12	-0.06337561
222	0xbd5c412e	-0.053773098
223	0xbbdf56ec	-0.006815782
224	0xbd897488	-0.0671168
225	0xbccf56a6	-0.025309872
226	0xbd1ff6b8	-0.03905365
227	0xbd87cdc8	-0.066310465
228	0xbdc24d0e	-0.09487353
229	0x3c9823a3	0.01857168
230	0x3d5214c2	0.051289327
231	0xbd968ae7	-0.07350712
232	0x3c30d69b	0.010793353
233	0xbcc0d464	-0.023538776
234	0xbd9e29a1	-0.07722784
235	0x3bbe5820	0.005808845
236	0xbd3e5736	-0.04646989
237	0xbc87d1f0	-0.016579598
238	0x3cb14c84	0.02164293
239	0x3db13bdd	0.08653996
240	0xbcfd3985	-0.030911217
241	0xbcc6802b	-0.024231037
242	0xbd8c5bbf	-0.06853437
243	0xbd55da40	-0.052210093
244	0xbd21102b	-0.03932206
245	0x3cd08837	0.025455577
246	0xbd536b61	-0.051616076
247	0x3d202ba6	0.039104126
248	0x3db2a397	0.087226085
249	0xbc9267d0	-0.017871767
250	0x3d3ab826	0.045585774
251	0x3d08789a	0.03331814
252	0x3d57f1d7	0.05272087
253	0xbd9af9aa	-0.07567151
254	0xbd497467	-0.049183276
255	0x3ba0a19a	0.004902077

model.2.bias f4 [128]
0	0xbdb1ff6b	-0.08691295
1	0xbd9926e1	-0.07478119
2	0x40782358	3.8771572
3	0xbd0d0e21	-0.034437303
4	0xbfb759c6	-1.4324272
5	0xbfa759c2	-1.3074267
6	0xbfb59c0c	-1.4188247
7	0xbfab88a8	-1.3401079
8	0xbfb5a412	-1.4190695
9	0xbfb2e263	-1.3975338
10	0xc07e6352	-3.974812
11	0xbfb1895e	-1.3870046
12	0xbfade510	-1.3585529
13	0x3f4cb2e1	0.7996045
14	0xbda9d1b5	-0.082919516
15	0x401c04cf	2.4377935
16	0xbfb5dcc8	-1.4208002
17	0xbfb141db	-1.3848222
18	0x3feeeb33	1.8665527
19	0xbfa9187a	-1.3210595
20	0xbfb07750	-1.3786411
21	0xbfb7c995	-1.4358393
22	0xbfabe602	-1.3429568
23	0xbfaec75c	-1.365459
24	0xbd6d46a3	-0.057928693
25	0xbda4582c	-0.0802463
26	0x4071aaec	3.7760572
27	0x4066813b	3.6016376
28	0x4084470e	4.1336737
29	0xbdae51ce	-0.08511697
30	0x3bbb1cf1	0.005710237
31	0xbc101e11	-0.008796231
32	0xbfb75499	-1.4322692
33	0xbfafe4a8	-1.3741655
34	0x3f2d9377	0.6780314
35	0xc0104d5e	-2.254722
36	0xbd2aaf42	-0.041671045
37	0xbfb4d87f	-1.4128569
38	0xbd8e5b41	-0.06950999
39	0xbfb151dd	-1.3853108
40	0xbdb6022c	-0.08887133
41	0xbd482854	-0.048866585
42	0x40854eb2	4.1658564
43	0xbfb33e86	-1.4003456
44	0xbfaff74d	-1.3747345
45	0xbdafbb8e	-0.08580695
46	0xbda197c0	-0.07890272
47	0xbfb5bb2c	-1.4197745
48	0xbd9a1210	-0.075229764
49	0xbfb9529c	-1.4478335
50	0x3e6aafcc	0.22918624
51	0xba6a7cd8	-0.0008944995
52	0xbdc45316	-0.0958616
53	0xbca336f1	-0.019923659
54	0x4037c19b	2.8711917
55	0xbfaf674f	-1.3703402
56	0xbfb8c38a	-1.4434674
57	0xc0abdfa6	-5.371051
58	0xbdd90a88	-0.10597712
59	0xbfb23e63	-1.3925289
60	0x40852af0	4.1614914
61	0xbfaf2d77	-1.368575
62	0xbfba306c	-1.4546027
63	0x408627ad	4.192343
64	0x40311be7	2.767328
65	0x407c0203	3.9376228
66	0x3c92e748	0.01793255
67	0xbfa940aa	-1.3222859
68	0x3c9ddacc	0.01926937
69	0xbdc2ff17	-0.09521311
70	0xbfab2933	-1.3371948
71	0xbfbd804b	-1.4804777
72	0x3d1cabc6	0.038249753
73	0xc0405bda	-3.0056062
74	0xbfa90584	-1.3204808
75	0xbfb74657	-1.4318341
76	0xbfbb01a3	-1.4609874
77	0xbfabb064	-1.3413205
78	0x40d3f4f3	6.623651
79	0x3d268c38	0.040661067
80	0xc031ea63	-2.7799308
81	0x405e655c	3.4749365
82	0xbfbb5cac	-1.4637656
83	0xbfbba70a	-1.4660351
84	0xbfa63508	-1.2984934
85	0xbcc67f80	-0.024230719
86	0xbfac0988	-1.3440409
87	0xbfa705e1	-1.3048669
88	0x40c204f3	6.063104
89	0xbfb56501	-1.4171449
90	0xc014031d	-2.31269
91	0xbfa97037	-1.323737
92	0x4048e7ed	3.1391556
93	0xbfbb601b	-1.4638704
94	0xbfb528c7	-1.4153069
95	0xbfb02f0b	-1.3764356
96	0xbfa79bf0	-1.3094463
97	0xbcbf5bb3	-0.023359155
98	0x3cd3cd9c	0.025854878
99	0xc02f55fd	-2.7396233
100	0xbfb73942	-1.4314349
101	0x4012d22f	2.2940786
102	0xbfb783f4	-1.4337144
103	0x40343f38	2.8163586
104	0xbfb6989a	-1.426532
105	0xbd047fae	-0.032348327
106	0xbfb6e58d	-1.4288803
107	0xbfbd6802	-1.4797366
108	0xbfaa7180	-1.3315887
109	0xbfb1d1c7	-1.3892144
110	0x40876400	4.230957
111	0x400427a1	2.0649188
112	0xbfb968ed	-1.4485146
113	0xbfb07540	-1.3785782
114	0x40a89cc3	5.269136
115	0xbf69f16c	-0.91384006
116	0x4071b7f7	3.7768533
117	0xbfaf3706	-1.3688667
118	0x4083a7da	4.1142397
119	0xbfb4e791	-1.4133168
120	0x4009f7b9	2.1557448
121	0x406e4d62	3.723473
122	0xbfb62b78	-1.4232016
123	0xbfb54028	-1.4160204
124	0xbfb34a0e	-1.4006975
125	0x40d5d83b	6.6826453
126	0x4026ff76	2.609342
127	0xc02a0482	-2.6565251

model.4.weight f4 [1, 128]
0	0xbd34f954	-0.04418309
1	0xbd28084f	-0.04102355
2	0xc0c28717	-6.0789905
3	0xbb563893	-0.003268753
4	0x40298b28	2.6491184
5	0x4028b9b6	2.636335
6	0x402976c0	2.647873
7	0x4026c8f0	2.6060143
8	0x402a734e	2.6632876
9	0x4028a8ec	2.6353102
10	0xc0aea433	-5.457544
11	0x402654a4	2.598916
12	0x4026432a	2.5978494
13	0xbf81de79	-1.0146018
14	0xbc2ff121	-0.010738642
15	0xc0a37373	-5.107843
16	0x40285a5e	2.6305156
17	0x4027f7a4	2.6244898
18	0xc0a46a84	-5.1380024
19	0x4027d682	2.6224675
20	0x4025b94d	2.5894349
21	0x4025e4e7	2.592096
22	0x40261724	2.5951624
23	0x4023c277	2.5587442
24	0xbb29d9e5	-0.0025917229
25	0xbd99b06f	-0.07504355
26	0xc0c4228b	-6.1292167
27	0xc0b43a4f	-5.6321177
28	0xc0c790c3	-6.236421
29	0x3c167210	0.009182468
30	0xbd28a90f	-0.04117685
31	0xbd14b948	-0.03630951
32	0x402962db	2.6466587
33	0x4026bc27	2.605234
34	0xbffe7f81	-1.9882661
35	0xc08beb6d	-4.3724885
36	0xbd988a85	-0.074482955
37	0x4029c5f9	2.6527083
38	0xbd5f9091	-0.05458123
39	0x4027f88e	2.6245456
40	0xbd8f8b73	-0.0700902
41	0xbc9122c6	-0.017716777
42	0xc0ce8f8b	-6.4550223
43	0x402479e3	2.5699394
44	0x4026ac96	2.6042838
45	0xbd65dd80	-0.056119442
46	0xbd3eb174	-0.04655595
47	0x402544a1	2.5823138
48	0xbc7763bd	-0.015099463
49	0x4027a428	2.6193943
50	0xbea26cc1	-0.31723598
51	0xbd8f54b0	-0.06998575
52	0xbc8b8e71	-0.017035695
53	0xbd7b62e0	-0.06137359
54	0xc0858e08	-4.173588
55	0x402b67fc	2.6782217
56	0x40298627	2.648813
57	0xc0ab20e8	-5.347767
58	0xbd4b2d03	-0.049603473
59	0x40299700	2.6498413
60	0xc0c79b95	-6.237742
61	0x402c0ebb	2.688399
62	0x4027a3a2	2.6193624
63	0x40991de0	4.784897
64	0xc0ad2972	-5.4113092
65	0xc0c4ee62	-6.1540995
66	0xbd9bfa48	-0.07616097
67	0x4029f3c5	2.6555035
68	0xbd33fa63	-0.04393996
69	0x3ce7476d	0.0282323
70	0x4024d86d	2.5757096
71	0x40280309	2.6251853
72	0xbd5a45e0	-0.053289294
73	0xc080b532	-4.0221186
74	0x4025ffa7	2.5937288
75	0x40266bab	2.6003215
76	0x40279e94	2.6190538
77	0x40266d70	2.6004295
78	0x40d20dcd	6.5641847
79	0xbcc0331a	-0.023461867
80	0xc0863428	-4.1938667
81	0x408a2802	4.317384
82	0x402a42d6	2.6603293
83	0x402af955	2.671468
84	0x402c86b5	2.6957219
85	0xbd07340d	-0.033008624
86	0x40249452	2.5715528
87	0x4023e05d	2.560569
88	0x40cc8957	6.391765
89	0x402b057a	2.6722093
90	0xc08da340	-4.426178
91	0x402b1566	2.673181
92	0xc0ae14e7	-5.4400516
93	0x4028e78b	2.6391323
94	0x4026c2d7	2.605642
95	0x402b0ae1	2.672539
96	0x40283d87	2.6287553
97	0xbcda9ad8	-0.026685163
98	0xbcadcf81	-0.02121711
99	0xc0b12d7e	-5.5368032
100	0x402cb98f	2.6988256
101	0xc0a51887	-5.159244
102	0x40288333	2.6330078
103	0xc07e9beb	-3.9782665
104	0x402b9c67	2.681421
105	0xbd81ba3e	-0.06334351
106	0x4026cc50	2.6062202
107	0x402a0183	2.6563423
108	0x4026e5c2	2.6077733
109	0x40271dd2	2.611195
110	0xc0cfa02d	-6.4883027
111	0xc0afd7f5	-5.495112
112	0x4025ee8f	2.5926855
113	0x402a78df	2.6636274
114	0x40a7e901	5.247193
115	0xc0a76454	-5.230997
116	0xc0c682d4	-6.20347
117	0x402afc91	2.6716654
118	0xc0c9ee6f	-6.3103557
119	0x402d187a	2.704619
120	0xc0bc670a	-5.887578
121	0xc0bd1236	-5.908473
122	0x402b153f	2.6731718
123	0x402aa70f	2.6664464
124	0x40276490	2.6155128
125	0x40dddbac	6.9330654
126	0xc08825ff	-4.254638
127	0xc09eccd9	-4.962506
