models/2024-12-11_11-34-24/ackley_model.pt (torch, 70842 bytes, 5 tensors)

model.0.weight f4 [128, 2]
000000 e0 23 7d 38 fa 63 9f 3d 17 3b 2a bf 40 49 28 bf
       6.035331e-05 0.07782741 -0.66496414 -0.6573677
000010 aa 5d 49 3e 51 a1 1e bf 6c 9d 2f be f1 0e 01 3e
       0.19664636 -0.619649 -0.17149895 0.12603356
000020 1c 29 fa 3a 69 97 53 3f 19 bd 4e 3e f3 9b 52 3e
       0.0019085738 0.8265291 0.20189323 0.20567302
000030 b3 3c 11 bf 52 3b 42 3e a4 f1 91 bd e8 61 49 ba
       -0.56733245 0.18967941 -0.071261674 -0.00076821307
000040 b6 c6 46 be ff 35 eb 3d 69 15 93 3e 86 46 cb 3e
       -0.1941174 0.11484908 0.28727272 0.39702243
000050 da a1 8d 3d 02 31 f5 3e 3f 0e c3 3e 05 1e ad 3e
       0.06915636 0.47888952 0.38096806 0.33811966
000060 fc 65 01 3f f4 9a 45 3e 84 40 21 3f 2a 07 21 3f
       0.5054624 0.19297391 0.6298907 0.62901556
000070 73 41 02 3f ad ee b0 3e 10 a4 05 3e 85 90 99 be
       0.5088112 0.34557095 0.13050866 -0.29993072
000080 34 52 1c 3e 8d f7 12 bf a8 fd 21 bf 5f 7b 91 3e
       0.15265733 -0.5740898 -0.63277674 0.28414437
000090 16 fc 74 39 28 31 5c 3e 3b fa e4 3e dc b0 84 bd
       0.00023363563 0.21503127 0.4472216 -0.06479046
0000a0 8a 11 bd be 3f 29 00 3e 7f b5 55 3e 21 90 3a 3e
       -0.36927444 0.12515734 0.20870017 0.18219043
0000b0 0e 02 1e bf 66 c6 5b bb 15 45 8b bd 40 fe 3a 3e
       -0.61721885 -0.0033535003 -0.06800286 0.18261051
0000c0 3c f8 db 3d bb 18 c7 3e 12 db 4e be 8a 27 2e 3e
       0.10740706 0.38886055 -0.20200756 0.1700727
0000d0 05 c5 0c bf 23 37 83 3e 1f 00 9d bd 2b 20 06 be
       -0.5498813 0.25628003 -0.07666039 -0.13098209
0000e0 eb 6d fe ba 84 12 33 3f ad 06 cd bd 05 db a0 be
       -0.001941142 0.6995013 -0.10011039 -0.314171
0000f0 f7 cd 09 3f 0c 9b 89 3e 7e 0a 28 3f 2a 59 cc b9
       0.538299 0.26876104 0.6564101 -0.00038976345
000100 f9 1b 32 3f 49 d9 e3 3a ee 57 9a 3d df fd 10 bf
       0.6957393 0.0017383482 0.075363025 -0.56637377
000110 0f 7b fa be 84 3a 59 be fa bc 2f 39 48 cc 31 3e
       -0.4892201 -0.21213728 0.000167597 0.17363083
000120 c3 64 b7 3e bb 5f f0 be 44 73 8a b9 30 b5 f7 bd
       0.35819063 -0.46948037 -0.0002640729 -0.12095106
000130 95 a8 ca bb 57 bb 19 3f fa a1 d0 3e db 02 5b 3a
       -0.0061846473 0.6005148 0.40748578 0.00083546125
000140 de f4 0a bf 2c 36 87 bd d4 62 e7 3e f1 2d 58 bb
       -0.5427989 -0.06602129 0.45192587 -0.0032986368
000150 2a be 15 3c df 1d d7 3d 86 8f 8d be 8a 2d e1 be
       0.009139577 0.10503744 -0.27648562 -0.43980056
000160 59 d3 0c be 37 21 93 3e b2 62 94 3e e2 ac 94 be
       -0.13752498 0.28736278 0.2898155 -0.2903815
000170 44 98 a4 be 20 d3 0e bf ed ab 6f be be 14 63 be
       -0.3214742 -0.557909 -0.23405428 -0.22175881
000180 5f 13 08 bf 9f 57 09 bf ee 4e 7a be 4b 2d ff 3e
       -0.5315456 -0.53649324 -0.24444172 0.49839243
000190 79 85 55 be 93 4c d1 3e d3 19 9a 3e 91 d2 67 be
       -0.20851697 0.40878734 0.30097827 -0.22638918
0001a0 83 e0 f7 39 cf 56 02 bf b5 96 b4 3a c5 9a 2d bf
       0.00047278785 -0.5091371 0.0013777824 -0.67814285
0001b0 e6 1e 4f bd bc fc 84 bd c5 41 3e be b7 5f 0f bf
       -0.050566576 -0.06493518 -0.18579777 -0.56005424
0001c0 28 54 9a 3e 80 d2 5e be 37 5a 8c be 78 6e f0 3e
       0.3014233 -0.21759987 -0.27412578 0.4695928
0001d0 4b f0 22 3b 08 b4 0a bf 39 aa ec 3e a3 14 bc b9
       0.0024862464 -0.54180956 0.4622362 -0.0003587353
0001e0 6f 03 18 3f 5e db b2 bb d7 56 1f 3a 1a c8 a9 3e
       0.5938024 -0.0054582795 0.0006078309 0.33160478
0001f0 e7 2c ed be 41 cd 80 ba f0 74 4a 3e 3c 27 4a 3e
       -0.4632332 -0.0009826795 0.1977117 0.19741529
000200 8d 28 cc 3e d7 44 ca be d5 dd 53 be 17 39 7e 3d
       0.39874688 -0.39505646 -0.20690091 0.062066164
000210 26 3c 51 3e d8 8e ab be a5 69 d3 3e 49 f6 d4 3e
       0.20433101 -0.3350742 0.41291538 0.4159415
000220 e9 43 f9 3d b8 61 b5 be 75 f5 a6 bc a7 1b fb bd
       0.12171156 -0.35426116 -0.020380715 -0.12261134
000230 31 93 36 39 f9 22 1c 3e 81 23 9e be e0 b8 2e ba
       0.00017411706 0.15247716 -0.30886462 -0.0006665122
000240 c6 51 63 3f e3 9a 2d bb cd 7c 56 be e6 5b c9 3a
       0.8879665 -0.0026490025 -0.20946045 0.0015362471
000250 83 35 b7 3e 10 c9 31 bc f9 b0 6f 3f 9d 32 9f 3b
       0.35783014 -0.01085116 0.93629414 0.0048583285
000260 c0 19 07 3f 04 5d 05 bf fb 68 b4 3e 31 55 a1 3e
       0.52773666 -0.52095056 0.35236344 0.31510308
000270 75 c3 8c 3e 83 89 a2 be 8e 26 e9 3e 68 3d bf 3d
       0.27492872 -0.31745538 0.45537227 0.09337884
000280 ef d8 96 bc 66 d8 85 bc 63 3a 94 3e 55 11 aa be
       -0.018413989 -0.016338538 0.28950796 -0.33216348
000290 27 85 e6 3d b8 15 ed 3e 66 c0 e0 bb 76 a1 81 3f
       0.112558655 0.46305633 -0.006858873 1.0127399
0002a0 50 43 8a be c6 49 c3 3e 37 c8 dd 3e 45 08 da 3e
       -0.2700448 0.38142222 0.43316814 0.42584434
0002b0 87 32 ea be 13 31 e8 3e 43 c9 8f 3e ab fa 10 3f
       -0.45741674 0.4534994 0.28083238 0.5663249
0002c0 74 16 2f be 76 39 c2 3e 2a 75 54 3f d6 72 92 3b
       -0.17098409 0.37934464 0.8299128 0.004469256
0002d0 6a 3c c3 3e 9c 39 c3 3e 70 1b 66 3b 1a 5e 20 bf
       0.3813203 0.3812989 0.003511157 -0.6264359
0002e0 0a d4 5b be 78 8c b9 3d ee da 6a be 2b 0b c7 be
       -0.21467605 0.090599954 -0.22935078 -0.38875708
0002f0 1e 29 d9 3e 0f 59 c0 be 5e f3 85 bd 34 a8 2f be
       0.42414182 -0.37567946 -0.06540559 -0.17154008
000300 37 35 05 bf 01 81 a5 be 0f e9 14 be 15 3b bd 3e
       -0.52034324 -0.32324985 -0.1454203 0.3695914
000310 cd bf cb 3e ed 89 cb be 25 83 95 3e d9 07 ac 3e
       0.3979477 -0.39753667 0.29201618 0.33599737
000320 19 2b b8 be 66 62 3e bc 9e 65 98 be c6 a4 98 3e
       -0.3597038 -0.01162014 -0.29765028 0.29813212
000330 d7 7d 88 3e e2 91 9a be 75 17 aa 3e 15 f7 a8 be
       0.26658508 -0.30189425 0.3322102 -0.3300101
000340 b5 8d 4e 3e 1b 7b dd 3e 37 1e 6d 3a 4b 31 33 bf
       0.20171244 0.43257985 0.0009045335 -0.6999709
000350 a0 b0 c4 3d a1 dd 37 3e 43 b7 d4 bd 2c bb 11 3f
       0.09604001 0.17955638 -0.10386517 0.56926227
000360 ea 26 11 bf d2 50 df bd 2f 42 c9 be b1 d4 69 be
       -0.56700003 -0.10904087 -0.39308307 -0.22835042
000370 d8 c5 58 3e 6a 65 a3 3e c8 7c a4 3e a2 91 35 be
       0.21169221 0.3191331 0.3212645 -0.17731336
000380 c5 d6 ac 3e 81 38 d1 bd 4b a2 9b 3e 12 52 9b be
       0.33757606 -0.102158554 0.30397257 -0.30336052
000390 9d f8 20 bf 4f 20 c0 be 37 95 95 3e 7e 05 72 be
       -0.62879354 -0.3752465 0.29215404 -0.23634908
0003a0 a3 91 88 3e e0 2f e0 3e 1e 68 05 bf 53 b5 f9 bd
       0.26673612 0.43786526 -0.52111995 -0.12192788
0003b0 0e e8 d7 be 7b bb dc 3b b6 0a e0 3e fd 68 71 3e
       -0.4216923 0.0067362166 0.43758172 0.23575206
0003c0 04 43 e3 be d6 d2 2e 3e 03 f2 36 3f b0 45 09 bb
       -0.44387066 0.17072615 0.7146303 -0.0020946078
0003d0 9c f7 5f bb 9d c1 43 3f 4e 10 83 3e 15 47 a4 3d
       -0.0034174686 0.76467305 0.25598377 0.0802137
0003e0 d7 0a 12 be 01 19 22 3f c0 83 02 3f e4 ac 03 3f
       -0.14261948 0.633194 0.50982285 0.51435685
0003f0 1b 94 38 bb f1 61 3c bf 54 86 00 bf 32 b5 d6 3e
       -0.002816445 -0.73586947 -0.5020497 0.41935116

model.0.bias f4 [128]
000000 33 6d b6 3e ef 18 c5 3c 3d 5f b3 3d c5 f9 ab 3b
       0.35630187 0.02405974 0.087584 0.0052482807
000010 80 97 06 bc 03 e7 4f 3e f8 9b 46 bf 25 58 a6 3e
       -0.008214831 0.20302968 -0.7758174 0.32489124
000020 c5 67 73 3e 78 98 87 be ac 0f 7a bd 8d 68 9a be
       0.23770054 -0.26483512 -0.061050102 -0.3015789
000030 f2 36 9b be 5c 6e d1 bb 17 8b 5d 3e 2c 28 98 be
       -0.30315357 -0.0063913297 0.2163509 -0.2971815
000040 38 18 b0 3e bf f7 b3 bd 0a 03 7c 3f 78 87 f0 3e
       0.34393477 -0.08787488 0.9844214 0.46978354
000050 4e 0e ed 3c 83 ad 09 3e 64 1b 68 bf b9 08 f7 3d
       0.028937485 0.13445096 -0.90666795 0.120622106
000060 8c 4e 2e 3e 70 e0 9c 3e 16 96 8e bf 96 bd d7 3d
       0.17022151 0.30639982 -1.1139553 0.105342075
000070 c3 cd 86 bf 4e b5 ab bd 76 b6 36 bf 60 85 a6 3e
       -1.0531543 -0.083841905 -0.71372163 0.32523632
000080 47 b8 e0 bc b6 10 05 bf aa 4c 10 be 27 78 4b 3f
       -0.02743162 -0.51978624 -0.14091745 0.7948021
000090 2a ee d5 bc b4 12 d6 be 4c d1 be bf fa c1 80 bc
       -0.026114542 -0.41811144 -1.4907622 -0.015717495
0000a0 2d bc a8 be b1 c4 90 bf 87 62 28 bf 6c 6f 4a 3c
       -0.32956067 -1.1310025 -0.6577534 0.012355667
0000b0 3f ea 14 be 81 e5 55 3b ef e5 2b bf f4 53 88 bf
       -0.14542483 0.0032638016 -0.67147726 -1.065062
0000c0 e6 53 7a be 32 4d 8e be 73 14 6e bf d7 87 8f bd
       -0.24446067 -0.2779327 -0.92999953 -0.07008331
0000d0 e9 e3 83 bf d7 fe 82 bf ff aa e2 3e c5 f8 02 bc
       -1.0303928 -1.0234021 0.44271085 -0.007993882
0000e0 c6 ac ca be 46 8c 38 3e c9 16 ab bf 46 33 6c bf
       -0.3958494 0.1802226 -1.3366328 -0.9226574
0000f0 ca 6d aa 3c 16 c0 26 bb 29 9d 92 bf 3b dd c0 3d
       0.020804305 -0.0025444082 -1.1454211 0.09417196
000100 e5 26 22 bc 27 e5 d1 3e 56 81 7f 3e bb 2b cc be
       -0.0098969685 0.40995142 0.24951681 -0.39877114
000110 b4 75 04 3e fd 5f f7 3e 3f b9 32 3f 2b 8d 43 bf
       0.12935525 0.4831542 0.69813913 -0.7638728
000120 ea e7 63 3f 57 49 78 bf 6a 81 9d bf 13 89 f1 be
       0.8902575 -0.9698691 -1.2305119 -0.47174892
000130 4d 12 06 3f 21 a8 1c be 6a f2 89 be 19 00 a2 be
       0.52371675 -0.15298511 -0.2694276 -0.316407
000140 7a d8 8e 3c be 99 9d be 5d 3d d2 3c 3d c3 05 bf
       0.017437208 -0.30781358 0.025664026 -0.52251035
000150 0b c4 33 3c 81 ed e2 3e 40 14 66 bf b9 4c a9 bd
       0.010972033 0.44321826 -0.8987465 -0.08266587
000160 d9 49 6d bd 8c 33 9f bf 9e b7 0a 3f 40 a9 99 be
       -0.057931755 -1.2437606 0.5418643 -0.3001194
000170 ff 8c 33 ba be e4 f0 bd ba f9 85 3b 62 7c ca be
       -0.0006849318 -0.11762379 0.0040886076 -0.39548022
000180 d3 d8 30 bf ed d8 4e bf 27 55 ae 39 12 c4 aa be
       -0.6908085 -0.8079975 0.0003325131 -0.33352715
000190 21 8e a4 be d6 00 94 3e 86 81 cb bc 0d ce 63 bf
       -0.32139686 0.28906888 -0.024842035 -0.88986284
0001a0 31 b2 1b bf 51 01 34 3f 25 55 0e 3e 82 5a 94 bf
       -0.60818774 0.7031451 0.13899668 -1.1590121
0001b0 74 a4 c7 be 9f fe 04 be 22 9d ef bd 46 a4 a5 3e
       -0.38992655 -0.12987755 -0.116998926 0.32351893
0001c0 6e ca ea 3e 3a 45 eb 3e ea 80 ed 3c af a7 21 be
       0.45857567 0.45951253 0.028992135 -0.15786622
0001d0 75 db 99 bf 5a d8 0f 3e 7e 4b 97 bc 98 7e 04 3e
       -1.2020098 0.14047375 -0.018468615 0.12938917
0001e0 95 69 3b be 60 57 37 bf 50 aa 42 3f 64 7e 59 bf
       -0.18301995 -0.716177 0.76041126 -0.8495848
0001f0 4d ce 44 bf b7 08 6c be b5 bb cd 3b 53 a3 3c bf
       -0.7687729 -0.230502 0.00627848 -0.73686713

model.2.weight f4 [128, 128]
000000 0b 3a ad bd af 29 68 bd c9 63 e3 bd e7 70 8e bc
       -0.084583364 -0.056680378 -0.11103017 -0.01738782
000010 5c 72 e8 bc c1 e6 34 3d a2 a5 e1 bc 05 5a e9 3c
       -0.028374843 0.044165377 -0.0275448 0.028485307
000020 9d 4e 9b bb f3 1d 29 3d be 09 c0 bd c1 46 ad bd
       -0.004739596 0.041288327 -0.09376858 -0.08460761
000030 cd 90 01 3d 02 2f 80 bd 39 fe 5d 3b ad ff cb 3b
       0.031632233 -0.06258966 0.0033873452 0.0062255473
000040 7f 15 e4 bd 13 c8 0f 3d 19 78 ff bc b4 b7 9b 3c
       -0.111369126 0.035102915 -0.031185197 0.019008495
000050 21 c9 d2 3c 5c 18 b4 bd c8 45 e2 bd 9d c6 0d bd
       0.025730671 -0.08793709 -0.11048466 -0.03461324
000060 57 6e 72 bc e5 c0 27 3d 35 01 6d bc b4 0f 14 3c
       -0.014796815 0.040955443 -0.01446562 0.009036947
000070 63 c9 b2 bd fe ac ca bd f8 0e 50 3d b3 ee 40 3b
       -0.08729818 -0.09896277 0.050795525 0.002943915
000080 38 7e bc bd 50 e9 8d bd a9 ac 76 bd ff 17 c1 bd
       -0.09203762 -0.069292665 -0.060223255 -0.09428405
000090 68 f5 05 bd cf 41 6d 3d fb 56 d9 bd 39 2e 3b 3c
       -0.03270474 0.057924088 -0.10612293 0.011424595
0000a0 99 35 ea bd fe ec 8e bd d8 af 34 3c 96 3f 50 3d
       -0.11436004 -0.069787964 0.011028253 0.05084189
0000b0 2c d4 19 bd 11 83 96 bd 4f 92 21 bc 69 25 d2 bd
       -0.03755586 -0.07349218 -0.009861543 -0.10261042
0000c0 f4 36 79 3a a1 cc ba bd fd ca d0 bd 81 3b 6e bc
       0.0009506785 -0.09121061 -0.10194967 -0.014540554
0000d0 82 51 40 bd bb a3 67 bb 93 d5 fd bc e9 8a 92 bd
       -0.046952732 -0.0035345394 -0.03098563 -0.07155401
0000e0 7f ef 81 3c 61 b8 da bc ad 83 59 3d a7 00 a0 bd
       0.015861271 -0.026699247 0.05310409 -0.078126244
0000f0 34 21 89 3c 7a e2 03 bc 86 ba f2 bd af 6e 00 bd
       0.016739465 -0.008049602 -0.11851983 -0.031355556
000100 8c 00 17 bd c5 8b 72 bd 5e a8 93 3c 2b 5f ae bd
       -0.036865756 -0.059215326 0.01802462 -0.085142456
000110 2a 57 33 3d db 33 53 3d 44 c7 5b 3d 37 52 dd bd
       0.043784298 0.051563125 0.05365683 -0.10806697
000120 7b 9b 15 bd df 36 29 3d 86 63 55 3c f5 5c 2d 3d
       -0.03652523 0.041312095 0.0130242165 0.04232498
000130 8b 5b e7 bd 24 1e 00 b9 1e cc bc 3c 5f c2 c9 3c
       -0.11296757 -0.0001221826 0.02304655 0.024628816
000140 4d 2a cf 3c ff 6f 08 bd 71 92 85 3c 62 8d 00 3d
       0.025288725 -0.033309933 0.01630518 0.031384833
000150 cd 27 4c bd 82 2d 22 bd 5a 05 4b 3c 17 94 5a bd
       -0.049842644 -0.03959418 0.012391413 -0.053363886
000160 fd 74 a2 bd d7 6d c7 bd 22 8a 76 bd 34 bc 26 bc
       -0.0793247 -0.09737747 -0.060190327 -0.010176707
000170 71 d7 47 3d 1d a2 55 3d 4c 83 16 bb b4 90 f4 bc
       0.048789445 0.052156556 -0.0022966443 -0.029854156
000180 fc b7 a3 3c 6f a8 25 3d 8e 4c ef 3c 6f 51 04 3d
       0.019985192 0.040443834 0.029211309 0.032304224
000190 11 05 98 3c a4 a6 00 bd 8a 01 27 bd 2f 69 9c 3c
       0.018557103 -0.03140892 -0.040772952 0.019093124
0001a0 94 67 e1 3c 6f 05 2d bd f5 4d 8b bd ab 97 a7 bc
       0.02751521 -0.04224151 -0.068019785 -0.020458063
0001b0 f5 8d 90 bd 5c 3c c0 bd 22 7e 50 3d 1d d4 5b 3d
       -0.07058326 -0.09386513 0.05090154 0.053669084
0001c0 5b 47 bf bd 8c 1d 8d bd 6c de 29 3d a0 29 74 bd
       -0.09339782 -0.06890401 0.041471884 -0.05961001
0001d0 68 65 62 3c 0b 89 3a 3c c5 99 9b bd dc c8 33 3d
       0.013818122 0.011385213 -0.075976886 0.043892726
0001e0 37 3f ad bd f9 9d d3 bc 0f aa 04 bd 9b 91 82 bc
       -0.08459323 -0.025832163 -0.032388743 -0.01593857
0001f0 58 51 c6 3c f8 99 d7 3b fc d6 b3 bd 1b ee b2 bd
       0.02420871 0.006579634 -0.087812394 -0.08736821
000200 33 5f a9 bc 49 aa 1d 3e b1 21 a0 bd b3 5f bb 3b
       -0.020675277 0.1539699 -0.07818926 0.0057181953
000210 92 f6 01 3e 87 92 6b bc 93 5b 77 3c 1b 18 38 be
       0.12691715 -0.014378197 0.015097517 -0.17977946
000220 b2 a2 96 3d 32 48 19 3e a5 a7 b7 bd 83 02 04 3b
       0.073552504 0.14968947 -0.089675225 0.0020143099
000230 cf 5e 38 bd 45 a7 97 3d 31 59 94 3d f2 c2 b6 bd
       -0.04501229 0.07404951 0.072435744 -0.089239016
000240 2f 96 3b 3d 74 db 57 ba 41 61 60 be 72 6f b1 bd
       0.045797523 -0.00082343 -0.219121 -0.08663835
000250 c9 7c 84 bd ab c8 50 3c b4 02 ab be 4e 60 6c bd
       -0.064691134 0.0127431555 -0.334005 -0.05770903
000260 31 78 d3 bd 41 4f 8d 3d 36 f4 49 3b 1c 15 ac 3d
       -0.10325659 0.06899882 0.0030815727 0.08402464
000270 bc d1 7c bd a8 fc 93 3b 8a e2 f0 bd cd d7 1e bd
       -0.061723456 0.004516203 -0.11761959 -0.038780022
000280 fc b8 a2 3d 9a d0 e0 bd 9d d3 39 bc 9b c5 83 be
       0.07945439 -0.109772876 -0.011341956 -0.25736699
000290 2d ed 8f bd 5b 9e 25 bf cb a0 1b bf 42 df d2 3d
       -0.070276596 -0.64694756 -0.60792226 0.10296489
0002a0 37 5f 2a 3c 85 5e 90 bd 80 eb 76 ba 8b 14 db 3b
       0.010398678 -0.07049278 -0.00094192475 0.0066857985
0002b0 3b 99 12 3d a7 a6 5e bd 78 d4 71 bd 77 0c 57 be
       0.035790663 -0.05435815 -0.059040517 -0.21000849
0002c0 b1 d4 b3 3d 97 12 ce 3d 72 eb d2 bd b1 bb fc bc
       0.08780802 0.100621395 -0.10298814 -0.030851217
0002d0 ad 9b c7 3e 2c a9 c7 be 53 ee 81 bd c2 a5 6a 3d
       0.3898596 -0.38996255 -0.06344285 0.057286985
0002e0 90 2f 81 3c 51 8a 10 bd 26 31 17 be ef cc 27 3f
       0.01576975 -0.03528816 -0.14764842 0.6554708
0002f0 66 7b 77 3d 8c 97 09 3e 08 4f 6f be 66 77 8a 3d
       0.060420416 0.13436717 -0.23369992 0.06761055
000300 58 de 3f 3c cb 40 a0 3d 9b 33 5e 3d 64 29 98 3c
       0.011710726 0.07824858 0.054248434 0.018574424
000310 6d d3 88 3d ad e1 1f be 51 22 36 be 6e 3d 26 be
       0.06680951 -0.15613432 -0.17786528 -0.16234371
000320 4d d6 b0 3d 3a b0 c6 be 04 7e 97 be dc 7f 18 bd
       0.08634625 -0.38806325 -0.2958833 -0.03723131
000330 d1 08 9d 3d dc fe 00 3d 63 2b 57 bd 0f 99 18 3d
       0.07667697 0.031493053 -0.05253161 0.037255343
000340 b5 8b 9e bd 30 09 6a bd c6 9e 91 bc 87 76 97 be
       -0.07741491 -0.057137668 -0.017775904 -0.29582617
000350 c6 3d 19 bd 94 19 41 3d 57 88 eb bb f6 e0 09 bc
       -0.037412427 0.047143534 -0.007187884 -0.008415451
000360 6a 76 04 3e 8f 80 56 be dc ed 31 bd da b7 9c be
       0.12935796 -0.20947479 -0.04343973 -0.30609018
000370 5f 0a 27 3d 77 ce 00 bd f3 14 da 3c 1b 72 31 bc
       0.040781375 -0.0314469 0.026621317 -0.0108304275
000380 be 35 2a 3e da b8 84 3d e9 34 26 bd e6 ee 20 3d
       0.16622064 0.0648057 -0.040577803 0.03929033
000390 31 c8 fd 3d f4 5b c4 3d c2 c4 09 bd ae b2 5b 3d
       0.12391699 0.09587851 -0.03363491 0.0536372
0003a0 a7 10 95 3d 8b ac 4f 3e 6a 11 01 be c1 7a da 3d
       0.07278567 0.20280664 -0.12604299 0.10667945
0003b0 44 cb 19 be 24 ba cf 3d 2e 2a 6d bc 47 32 73 3d
       -0.15018946 0.101429254 -0.014475388 0.05937412
0003c0 3b 60 57 3d e8 4d c4 bd ed 46 09 bd c2 2d 92 3d
       0.052582007 -0.09585172 -0.033514906 0.07137634
0003d0 49 39 8e 3d fa 96 d9 bd 22 35 4a 3e 63 20 43 bb
       0.0694452 -0.106244996 0.19746831 -0.0029773943
0003e0 cd d6 f4 bb 2e 10 4f 3e 62 21 b9 3e 0a e5 f1 bd
       -0.0074718953 0.20221016 0.36158282 -0.11811264
0003f0 3b f2 37 3e 81 43 d0 ba 77 26 00 3e 43 91 a2 3c
       0.17963497 -0.0015889258 0.12514673 0.019844657

model.2.bias f4 [128]
000000 0b 90 5c 3d 35 12 a8 3d 70 80 1c 3d 28 08 b1 3b
       0.053848308 0.08206598 0.038208425 0.0054025836
000010 64 1c 96 bd 11 e5 2f 3d cf 8d 30 3d 42 15 e7 3c
       -0.07329634 0.042943064 0.04310399 0.028208379
000020 72 ce 40 3b 2a df 63 3d c8 96 89 3c 35 13 59 bd
       0.0029419926 0.055632748 0.01679553 -0.052996833
000030 98 db e6 3c d4 3b a6 bc 0d 79 80 3d 11 c4 6b bd
       0.028180882 -0.0202922 0.062730886 -0.05756003
000040 71 f5 74 3c 49 98 db bd 02 f0 a2 bb f4 65 9a 3c
       0.014951096 -0.107224055 -0.004972459 0.018847443
000050 6d e2 85 3d f1 73 7f 3a 86 71 94 3d d1 ba bf bd
       0.06537328 0.00097447546 0.072482154 -0.09361804
000060 3f 9b 11 3d 72 33 47 3d 4e 1a 0a 3d 34 0e 90 3d
       0.035548445 0.048633046 0.033716492 0.07033959
000070 46 91 f5 3c 51 ad 91 3c 96 ee b3 3c e2 33 97 3c
       0.029976498 0.017782839 0.021964353 0.018457357
000080 27 f5 bb bd 61 97 9d bc e0 bb c8 bd 4e d9 d6 3d
       -0.091776185 -0.019237222 -0.09801459 0.10490666
000090 1b cb e6 bc 36 3a 35 3d be 85 3c bd 83 c9 73 3c
       -0.02817302 0.044244967 -0.046025984 0.014879587
0000a0 27 78 34 3d 9e 09 13 3d d5 2a a6 3d e8 46 89 3c
       0.0440599 0.035897844 0.08113638 0.016757444
0000b0 5f cf bc bd 44 60 1c 3c b1 70 88 3d 1a 6c 3a 3d
       -0.092192404 0.009544436 0.06662119 0.04551325
0000c0 12 d4 e9 bc dc 2a 97 3d ab 22 4a 3d d9 40 56 bc
       -0.028543506 0.07381222 0.04934947 -0.013076984
0000d0 fc 65 0e be e6 ef 3c bd b6 4e af bc 87 84 86 bd
       -0.13906091 -0.046127222 -0.021399837 -0.06568246
0000e0 17 dd 83 bc 69 8d dd bc ee dd 5c bd fa 82 dd bd
       -0.016096635 -0.027044969 -0.053922586 -0.108159974
0000f0 5d 7d 73 3d ac 88 c8 3d 7b 0f 1f 3d b8 60 1d b8
       0.059445728 0.09791693 0.038833123 -3.7521793e-05
000100 08 9d 4a 3c b6 ea 11 be 35 b8 01 bb f0 0b 8e bc
       0.012366541 -0.14249691 -0.0019793634 -0.017339677
000110 20 98 b9 3d f1 38 96 bc 6e 27 2b bd 91 32 d9 bd
       0.09062219 -0.018337699 -0.04178565 -0.10605348
000120 ac 45 5a 3c 8c 7b 91 bd 36 86 69 bd dd 5d 82 bd
       0.013322275 -0.07103643 -0.05701276 -0.06365559
000130 78 c7 0d 3d 15 0d 49 3d 3c 7a 2e bd d7 85 0c 3d
       0.034614056 0.04908474 -0.04259704 0.034307327
000140 63 d9 2d bd 84 8f 8d 3d b8 df cb bd cc b4 75 3d
       -0.042443644 0.06912139 -0.0995478 0.059986874
000150 ea 05 34 3d 2f 66 9e bc ca b3 ec bc 7f b0 a0 bd
       0.043950953 -0.019335834 -0.028894324 -0.07846164
000160 5b bf cb bd c7 44 52 3b 2f 97 9b bd b2 85 b1 3c
       -0.099486075 0.0032084452 -0.07597195 0.021670196
000170 ca a8 ff bc 18 ae 4e bc 97 68 9a bd 4b e3 b0 b9
       -0.031208415 -0.012614749 -0.0753948 -0.00033738682
000180 cc 1b 11 bc 06 ed 2e 3d 09 e1 3c 3d fe 9a ba bd
       -0.008856725 0.042706512 0.046113048 -0.09111594
000190 f4 84 b4 bd 08 7e ce 3c e7 6f 13 3a af 4d 2d bd
       -0.08814421 0.02520658 0.000562428 -0.042310413
0001a0 73 7d cc bd c0 fc 71 bd 8e aa 44 3c 6b e6 7e be
       -0.09984865 -0.05907893 0.012003554 -0.24892585
0001b0 ef ec b6 bd 81 06 2d bd 03 34 73 bc ac 78 75 3d
       -0.0893191 -0.04224253 -0.0148439435 0.059929535
0001c0 ff 31 ae 3b 3c c9 70 bd 60 3c f1 3c 93 26 47 bb
       0.0053160186 -0.058785662 0.029447734 -0.0030387982
0001d0 19 9b cd bc 8e 8e 94 bd ba e5 7c bd fc 29 83 3d
       -0.02509837 -0.07253753 -0.06174252 0.06404492
0001e0 70 b8 d4 bd 9f 3a 2f bd 90 e6 8a bd 00 91 cc bd
       -0.10386741 -0.042780515 -0.067822576 -0.09988594
0001f0 b5 38 92 3d 79 79 cc bd df 2c 41 39 e3 a4 1d 3d
       0.07139722 -0.099841066 0.0001842263 0.038487326

model.4.weight f4 [1, 128]
000000 6e 7e e1 bb b2 18 86 3e a1 ad af 3e ae 85 4e 3e
       -0.0068815267 0.26190716 0.34312156 0.20168182
000010 e3 ff 47 3c be 94 05 3e bc 06 f5 bb dd 02 60 3c
       0.012207004 0.13045022 -0.0074776094 0.013672558
000020 56 f2 69 bd fa 08 12 3c ec ef 73 3c 33 97 53 3e
       -0.057115875 0.008913273 0.014888745 0.20663147
000030 df 13 77 bd b4 f1 7a 3f 99 64 00 3f 27 fe c6 3e
       -0.060321685 0.9802506 0.501535 0.38865778
000040 73 9e b4 bc 68 42 e6 3e 6d 51 af 3d db 1e 7f bd
       -0.02204821 0.4497254 0.085604526 -0.062285285
000050 ae b9 1b 3e 28 61 47 3e 18 4f 47 3e 13 95 71 bd
       0.1520755 0.19470656 0.19463766 -0.05898006
000060 65 b0 b7 3d 1a 0e 27 3e ab bf d8 3d f5 22 bc 3e
       0.089691915 0.16313973 0.10583433 0.3674542
000070 06 03 d1 3e 3e 24 45 3e ab fa 08 bc b0 02 c6 bc
       0.4082262 0.19252107 -0.008360545 -0.024171203
000080 b9 9d 67 3b c4 2c c5 3e 12 e3 77 3b fa 4a 87 3e
       0.0035341813 0.38510716 0.0037824553 0.2642439
000090 5a da 7b 3e 38 cc 27 3c 1b ef 06 3e 8d 0b 82 3f
       0.24595013 0.010241561 0.13177149 1.0159775
0000a0 49 e9 38 bc 54 51 a1 38 32 45 3b 3e 14 ff 3e bc
       -0.011286088 7.692227e-05 0.18288115 -0.011657495
0000b0 c6 d2 95 3d 3b 31 95 3e 1d 85 69 3e 79 92 e4 3e
       0.073155925 0.29139122 0.22804685 0.44643
0000c0 c7 e0 ad 3d 59 56 1a 3f f2 cd 0e bd 08 cc 5c 3e
       0.084901385 0.60288006 -0.034864374 0.21562207
0000d0 04 76 44 bc 5f 11 77 bd ba eb a0 3c 7b df 93 3c
       -0.011991028 -0.0603193 0.019643653 0.0180509
0000e0 9b 31 87 bd 2e fd 86 3e 0b 56 b1 3e b1 9c 62 bd
       -0.06601258 0.26365036 0.34635958 -0.055325214
0000f0 01 85 a6 bc fd a7 53 3e 53 8b 1c 3d c5 d5 91 3d
       -0.020327093 0.20669551 0.038218807 0.071208514
000100 23 0b 7d 3e b0 b3 73 3d 36 67 8b bd 03 40 d9 3e
       0.2471128 0.059497535 -0.06806795 0.4243165
000110 ae 5d ce 3e 4b c6 02 bb 40 94 6b 3c ef 91 c1 bc
       0.40305847 -0.0019954618 0.014378607 -0.023629157
000120 16 04 80 bd 9e b7 0d 3e c0 00 26 bd 28 a2 91 3e
       -0.06250779 0.13839576 -0.04052806 0.28444028
000130 3c 94 05 3f a4 0d f3 bb ec 93 b9 3d 44 15 7e ba
       0.5217931 -0.0074173976 0.09061417 -0.00096925
000140 41 b2 21 3e 7d 15 7e 3f 25 1b 01 bd 77 e0 15 bc
       0.15790655 0.9925154 -0.031520028 -0.009147755
000150 a6 b6 77 3d 4f 72 33 bd de 4f 8c bb be b6 41 bd
       0.06047692 -0.043810185 -0.004281982 -0.047293417
000160 14 66 32 3f 1e 54 7a 3d 89 54 59 bd a7 1f 15 3f
       0.6968701 0.061115377 -0.053059135 0.5825142
000170 91 eb 30 3e b7 12 3f bc 9c a0 8a 3d 44 16 a4 3d
       0.17277361 -0.011662177 0.06768915 0.08012059
000180 b3 b9 03 bc f4 26 84 3e 98 e5 98 bc 86 46 0f 3e
       -0.00803988 0.2581097 -0.018664166 0.13991746
000190 26 50 83 bc e8 2d ba 3d bd 00 a9 3d fb 69 64 3c
       -0.016029429 0.09090787 0.08252094 0.013941283
0001a0 86 1f e8 3b d5 f2 c0 3e 43 14 25 3e ec 9d 41 3f
       0.007083836 0.37685266 0.1612101 0.75631595
0001b0 cb 90 79 bc 51 63 66 bd 20 3a b9 3e ce 85 08 3a
       -0.015232275 -0.05624706 0.36177158 0.0005207927
0001c0 0a 89 82 3f 17 d8 ef bb a7 75 9d 3e 78 57 ba 3e
       1.0198071 -0.007319461 0.30753824 0.36394858
0001d0 76 c5 44 3e 3f 4e e8 3e ea fb 07 bd 02 32 39 3f
       0.1921595 0.45372197 -0.03319923 0.7234193
0001e0 0a 0f 8b bc 17 72 9c bd 35 bf 25 bd 2e 85 6f bd
       -0.016974945 -0.076389484 -0.040465552 -0.05847662
0001f0 41 37 dc 3d df 05 2e bd 7b 80 be bc 1f bb 1e 3f
       0.10752726 -0.042486068 -0.023254624 0.62004274
