models/2024-12-11_11-34-24/rastrigin_model.pt (torch, 70872 bytes, 5 tensors)

model.0.weight f4 [128, 2]
0	0xbf0b8468	-0.5449891
1	0x3f0e1db8	0.555141
2	0x3dab03ae	0.08350311
3	0xbf48aff9	-0.7839351
4	0xbf3ca55c	-0.7368982
5	0xb96dd94f	-0.00022683035
6	0xbf285023	-0.6574728
7	0x3f2aa00d	0.6665047
8	0x3f33b5c2	0.70199215
9	0xbe2103e8	-0.15724146
10	0x3f3400b8	0.70313597
11	0xbc71d1e8	-0.014759518
12	0x3eeb706d	0.45984212
13	0xb9d4c6ef	-0.00040584008
14	0x3d289322	0.04115594
15	0xbe9e8808	-0.3096316
16	0x3becec31	0.0072303046
17	0xbf2aaabb	-0.66666764
18	0x3d98f2c1	0.07468177
19	0xbf0eb827	-0.55749744
20	0x3ddc4e41	0.10757113
21	0x3f6064f7	0.8765406
22	0x3d8f55d4	0.06998792
23	0xbf199658	-0.5999503
24	0x3f135f0a	0.57566893
25	0x3e046a1b	0.12931101
26	0x3f045efc	0.51707435
27	0x3e777dfc	0.24169153
28	0xbf155f5e	-0.58348644
29	0xb987b55c	-0.0002588433
30	0x3ebd6cde	0.36997122
31	0xbdcbd941	-0.09953547
32	0xbefece95	-0.49766985
33	0xba9da1ae	-0.0012026334
34	0x3f092412	0.53570664
35	0xbe601bbd	-0.21885581
36	0x3db68765	0.08912543
37	0xbf1aa568	-0.6040864
38	0xbe8739dd	-0.26411334
39	0xbf545f8e	-0.82958305
40	0xbad6e442	-0.001639493
41	0x3f262c69	0.64911515
42	0xbc94f811	-0.018184694
43	0xbf676d8a	-0.9040152
44	0x3e25d5f9	0.16194905
45	0x3f09bed2	0.53806794
46	0xbdab1cc9	-0.083551
47	0x3f1d8ac3	0.6153986
48	0x3f2a3997	0.66494125
49	0x3aeb3d46	0.0017947338
50	0x3f201ed5	0.62547046
51	0x3e4a6848	0.19766343
52	0xbd2e4fe8	-0.042556673
53	0x3ea63b4f	0.32467124
54	0xbc91ccd6	-0.017797869
55	0xbf24862f	-0.6426725
56	0xbe00fe23	-0.12596945
57	0x3e06407b	0.13110535
58	0xbfea6b59	-1.831401
59	0xbbd20514	-0.0064092968
60	0x3c411b6b	0.011786322
61	0x3f265d00	0.64985657
62	0xba821333	-0.0009923935
63	0xbf2d2d06	-0.67646825
64	0x3ad6441c	0.0016347202
65	0xbf8eb30b	-1.114839
66	0xb9849884	-0.00025290635
67	0x3f5c9c12	0.86175644
68	0xbed91fc0	-0.42407036
69	0x3d75b500	0.05998707
70	0x3d841200	0.06448746
71	0x3ee3c45e	0.44485754
72	0x3e930a9e	0.28719038
73	0xbec83e40	-0.39109993
74	0x3ee1ed9d	0.44126597
75	0x3f3d4c81	0.7394486
76	0x3f38786a	0.7205874
77	0xba8d530b	-0.0010782195
78	0x3defffb1	0.11718691
79	0x3f1a9e93	0.60398215
80	0x3f33511b	0.7004563
81	0xbe14a605	-0.14516456
82	0x3cee770c	0.0291095
83	0xbe63ee43	-0.22258858
84	0xbeb30da5	-0.34971347
85	0x3dcbd358	0.0995242
86	0xbe9756b0	-0.29558325
87	0x3e064c7a	0.13115111
88	0xbf6373e9	-0.8884874
89	0x3a26aab7	0.0006357836
90	0x391f8379	0.00015212399
91	0xbf32bd00	-0.6981964
92	0xbbc87640	-0.006117612
93	0xbf546a6a	-0.82974875
94	0xbcf8c8e2	-0.030369226
95	0x3f5c2bf8	0.8600459
96	0xbfebfcdb	-1.843654
97	0xbbef2b0a	-0.007298832
98	0x3eb04ff5	0.34436002
99	0xbf01d0f3	-0.50709456
100	0x3f2e1c09	0.6801153
101	0xbf423c5e	-0.75873363
102	0xbf49264a	-0.7857405
103	0xbe3f7269	-0.18695988
104	0xbe975904	-0.295601
105	0xbf3d89a5	-0.74038154
106	0x3e90e290	0.28297853
107	0xba3e8a54	-0.00072685373
108	0x3ed11167	0.4083359
109	0xba62d835	-0.0008653433
110	0x3f148e86	0.58029974
111	0xbf0045ef	-0.5010671
112	0xbc1460ca	-0.009056279
113	0x3ef8ad16	0.48569554
114	0xbf0bb963	-0.5457975
115	0xbb78a344	-0.003793911
116	0x3f1e0278	0.61722517
117	0xbeeb30a2	-0.4593554
118	0xbeeba3a5	-0.46023288
119	0xbb78a92d	-0.0037942633
120	0x3dea7efd	0.11450002
121	0x3ea02e2c	0.31285226
122	0x3f0e6953	0.5562946
123	0x3e585771	0.21127106
124	0x3deacfaa	0.1146539
125	0xbea12137	-0.31470653
126	0xbd049004	-0.032363907
127	0x3f832c1e	1.0247838
128	0xbf8176b7	-1.0114354
129	0xbd1e0599	-0.038579557
130	0x3d2777c3	0.040885698
131	0x3eb4245f	0.35184
132	0x39dcfc7d	0.00042149788
133	0xbf3e692e	-0.7437924
134	0xbf4bcaf2	-0.79606545
135	0xbaed8678	-0.001812174
136	0xbf1177e3	-0.5682356
137	0x3dffd140	0.12491083
138	0xbefcf65c	-0.49406707
139	0x3e0deae4	0.13859135
140	0xbaf5d3a2	-0.0018755088
141	0x3f0f24d6	0.5591558
142	0xbdb35c0b	-0.0875779
143	0xbe89dd2e	-0.2692656
144	0x3e284dc9	0.16435923
145	0x3b8c18fa	0.0042754384
146	0x3ef40539	0.47660235
147	0x3bb4484d	0.005501783
148	0xbc954281	-0.018220188
149	0xbf4f29f9	-0.8092342
150	0xbe29387c	-0.16525453
151	0x3cad471e	0.021152075
152	0xbe9a7315	-0.30165926
153	0x3f23e75b	0.64024895
154	0xbf27332e	-0.6531247
155	0xbc1c3037	-0.00953298
156	0xbdcf8660	-0.10133052
157	0xbf61e616	-0.8824171
158	0xbc7127c0	-0.01471895
159	0x3ba9f300	0.0051864386
160	0xbe2d3ffc	-0.1691894
161	0xbeb9514d	-0.3619484
162	0xbdfca4ba	-0.123361066
163	0x3f1cb027	0.6120629
164	0xbcb5faa1	-0.022214236
165	0x3f845bfe	1.0340574
166	0xbfb66acd	-1.4251343
167	0x3b9263b9	0.0044674543
168	0xbd1c3f9b	-0.038146596
169	0x3e0a33a6	0.13496265
170	0xbf4f2f3a	-0.80931437
171	0x3a6f9eb6	0.0009140776
172	0x3d82d7c3	0.063888095
173	0x3e6dc084	0.2321797
174	0x3cb1b3ad	0.021692121
175	0x3e061453	0.1309369
176	0xb9d46b77	-0.0004051586
177	0xbf01a9dd	-0.50649816
178	0xbe5eb4b1	-0.21748616
179	0xbd59c659	-0.053167675
180	0xbad97f2c	-0.0016593686
181	0x3f3cff69	0.73827225
182	0x3d4c8330	0.049929798
183	0x3edbcd6b	0.4293016
184	0xbdba89b2	-0.091082945
185	0xb990a65e	-0.00027589774
186	0xbf5390a0	-0.82642555
187	0xbbb0b5ab	-0.0053927503
188	0xbb49bb75	-0.00307819
189	0x3f8a1513	1.0787681
190	0xbef5d5e3	-0.48014745
191	0x3b445106	0.002995552
192	0x3e8885e9	0.26664665
193	0xbda1255a	-0.07868452
194	0xbc4a81fe	-0.012360094
195	0xbf47bab6	-0.78019273
196	0xbaa80c4d	-0.0012821049
197	0x3eb66310	0.35622454
198	0xbcc09e04	-0.023512848
199	0x3f8c838b	1.0977644
200	0x39ba9f48	0.00035595358
201	0x3ee8bbb3	0.45455703
202	0x3ebeabe1	0.37240508
203	0xbf36e285	-0.7143939
204	0xbd5943e0	-0.053043246
205	0xbc1e7cc0	-0.009673297
206	0x3ed3f3fb	0.4139708
207	0xbdd93f2d	-0.10607753
208	0xbf0efc6e	-0.5585393
209	0x3b98d69b	0.004664255
210	0x3edd7ccb	0.43259272
211	0x3f29601a	0.66162264
212	0x3e644b73	0.22294407
213	0xbe6970e4	-0.2279697
214	0x3ed68f4a	0.41906196
215	0x3e09cf33	0.13457946
216	0x3f8e7f2f	1.1132563
217	0x3b8375b0	0.004011832
218	0xbed81d07	-0.42209646
219	0xbd0c0c7a	-0.034191586
220	0x3f116dfa	0.56808436
221	0xbc1b4760	-0.009477466
222	0x3f39e1bd	0.72610074
223	0x3b03df93	0.0020122274
224	0xbd24cb0b	-0.0402327
225	0xbeb19ef4	-0.34691584
226	0x3eb58d6d	0.35459462
227	0x3eeec6b9	0.46635988
228	0xbf0ba380	-0.54546356
229	0x3adc1b9f	0.00167929
230	0xbf1728dd	-0.5904673
231	0x3e20647b	0.1566333
232	0xbe3fe01a	-0.18737832
233	0xbf4df450	-0.80450916
234	0x3d991d36	0.07476275
235	0xbefbcb84	-0.49178708
236	0x3f3f9cc1	0.7484856
237	0x3b120b45	0.002228455
238	0xbab6c1d3	-0.0013943262
239	0x3ecf353f	0.4047031
240	0x3e4677ee	0.19381687
241	0x3f1530b8	0.58277464
242	0xbe882b90	-0.26595736
243	0xb9c93056	-0.0003837372
244	0xbdb8add8	-0.09017533
245	0xbea49199	-0.32142332
246	0x3f13c0fc	0.57716346
247	0x3e17eb2e	0.14835808
248	0x3b42fd04	0.002975286
249	0xbf4dba49	-0.80362374
250	0x3f412c4f	0.75458235
251	0x3b0957c8	0.0020956863
252	0xbc120996	-0.008913418
253	0x3ec0f2fb	0.3768538
254	0xbf2f4ba2	-0.6847478
255	0xbe6f1ecd	-0.23351593

model.0.bias f4 [128]
0	0xbea4c6f2	-0.32183033
1	0xbf656dc7	-0.8962063
2	0x3f9042bc	1.1270366
3	0x3d6e1782	0.058127888
4	0xbeadf8ea	-0.3397897
5	0x3f39f479	0.7263866
6	0xbf9123ab	-1.133901
7	0x3f3c1049	0.7346235
8	0xbfa7c74c	-1.3107696
9	0xbe985cdf	-0.29758355
10	0x3f82ba2f	1.0213069
11	0xbe008efb	-0.12554543
12	0xbf66e5b3	-0.90194243
13	0xbe8f517b	-0.27991852
14	0x3f9444ea	1.1583531
15	0xbbe9a8f2	-0.0071307356
16	0xbf9de79e	-1.2336309
17	0xbd4e090c	-0.050301597
18	0xbeb9686e	-0.36212486
19	0xbd333d22	-0.043759473
20	0x3fcd1cfc	1.602447
21	0xbf6b938f	-0.9202203
22	0x3cd25333	0.025674438
23	0x3f9d164b	1.2272428
24	0xbea8490e	-0.32868236
25	0xbd3303c9	-0.04370478
26	0x3f7b319b	0.98122567
27	0xbfa1ff2d	-1.2655998
28	0xbf26b46a	-0.6511904
29	0x3f6a67ef	0.9156484
30	0x3f77f68d	0.9686058
31	0x3faaf16e	1.3354928
32	0x3f1353dc	0.57549834
33	0x3ed49555	0.4152018
34	0x3e23e7af	0.16006349
35	0x3fa88245	1.3164755
36	0x3a042eb3	0.0005042359
37	0xbce806e5	-0.0283236
38	0x3f272ef4	0.6530602
39	0xbed0216f	-0.40650508
40	0xbf78b819	-0.9715591
41	0x3f07ae20	0.5300007
42	0xbd1e1757	-0.038596477
43	0x3eff985d	0.4992093
44	0x3fa382c5	1.2774283
45	0xbeacba2b	-0.33735785
46	0xbed938b5	-0.42426077
47	0x3fa660d9	1.2998306
48	0x3ced4a7d	0.028966183
49	0x3e0d0e6f	0.13775037
50	0xbdd35f31	-0.10320891
51	0xbee95f8f	-0.45580718
52	0x3efb076a	0.49029094
53	0xbf96cf0f	-1.1781939
54	0xbfec0419	-1.843875
55	0xbf8e87ce	-1.1135194
56	0x3f6fc267	0.9365601
57	0xbf93bdc4	-1.1542287
58	0xbeb01403	-0.34390268
59	0x3f6d8199	0.92775875
60	0xbf63424d	-0.8877304
61	0xbf0e8041	-0.5566445
62	0x3f217f16	0.6308454
63	0xbf820fd9	-1.0161086
64	0x3e1b531b	0.15168421
65	0x3f350713	0.7071392
66	0x3fbd4832	1.4787657
67	0xbf984d50	-1.1898594
68	0xbe93c565	-0.28861538
69	0xbd6f18ce	-0.058373265
70	0xbfcf071f	-1.6174048
71	0xbe505911	-0.20346476
72	0x3ea41e38	0.32054305
73	0x3f6cc5fc	0.924896
74	0x3f560151	0.8359576
75	0x3eadaec0	0.33922386
76	0xbeb9fc25	-0.36325184
77	0xbfa727c2	-1.3059008
78	0xbfe355d3	-1.7760566
79	0xbe0d2b24	-0.13785988
80	0xbe93e0aa	-0.28882343
81	0xbe61ef19	-0.22063865
82	0x3f827410	1.019167
83	0x3fb434a0	1.407856
84	0xbe4281d5	-0.1899484
85	0xbf5255f8	-0.8216243
86	0xbf8457b1	-1.0339261
87	0x3f0501f7	0.51956123
88	0x3fa13cbb	1.2596658
89	0x3f0ed6e4	0.5579665
90	0xbf924a6d	-1.1428963
91	0x3f5cda9e	0.86271083
92	0x3e85cfe7	0.2613518
93	0xbe8c2db3	-0.27378616
94	0x3af43cfd	0.0018633899
95	0x3f9625b6	1.1730258
96	0x3eabc141	0.3354588
97	0x3f3a074c	0.72667384
98	0x3f85fe9a	1.0468323
99	0xbf8f17e9	-1.1179172
100	0xbf921b46	-1.1414573
101	0x3e6217a4	0.2207933
102	0xbeea8bac	-0.45809686
103	0x3e8606d6	0.2617709
104	0x3f8bf133	1.0932983
105	0xbf4ce312	-0.8003398
106	0x3f116b09	0.5680395
107	0xbf162fc7	-0.5866665
108	0x3f1368d2	0.5758182
109	0xbf53d4b3	-0.8274643
110	0xbf26d0b3	-0.651622
111	0xbeb77d58	-0.35837817
112	0xbf3291fc	-0.69754004
113	0x3f09cdaa	0.53829443
114	0xbf89ed93	-1.0775627
115	0xbf48c926	-0.7843193
116	0xbe9b0ad5	-0.30281702
117	0xbe983a55	-0.29732004
118	0xbebd3bab	-0.36959586
119	0x3f98402d	1.1894585
120	0x3ef1226a	0.47096568
121	0x3f437ea6	0.76365125
122	0x3f080b88	0.53142595
123	0x3ddb2862	0.10701062
124	0x3f8dc60b	1.1076063
125	0xbebed01d	-0.37268153
126	0x3f385afa	0.7201382
127	0x3f1b708f	0.60718626

model.2.weight f4 [128, 128]
0	0xbd0c3b2c	-0.03423612
1	0xbe1f437a	-0.15553084
2	0xbee3188c	-0.44354665
3	0xbd68d3f9	-0.056842778
4	0xbe301f1c	-0.17199367
5	0x3e236537	0.15956579
6	0xbf0fdac1	-0.56193167
7	0x3dc02f81	0.09384061
8	0x3edf7787	0.4364588
9	0x3e19f2df	0.15034054
10	0xbe8c33aa	-0.27383167
11	0xbd2e2dd6	-0.04252418
12	0xbcf99f32	-0.030471418
13	0xbd2298bf	-0.03969645
14	0x3eba8b0b	0.36434206
15	0xbc8ecefa	-0.017432678
16	0xbf0ded74	-0.5544045
17	0x3db3ec26	0.08785276
18	0xbe2048ed	-0.15652819
19	0xbd4845bb	-0.048894625
20	0xbead00d8	-0.33789706
21	0x3f2a87d6	0.6661352
22	0x3dcf7d11	0.101312764
23	0xbe5afff8	-0.21386707
24	0x3dbb33ff	0.09140777
25	0xbdcf169c	-0.10111734
26	0xbec27e22	-0.37986857
27	0x3f33d1d7	0.70242065
28	0xbe660f54	-0.22466785
29	0xbf117937	-0.56825584
30	0xbead0a79	-0.33797053
31	0x3f01a83b	0.50647324
32	0xbf0b110d	-0.5432289
33	0xbe69e44f	-0.22840999
34	0x3c45ebe2	0.012080165
35	0xbe4bef42	-0.19915488
36	0xbe07a651	-0.13247038
37	0x3c2accfc	0.010424849
38	0x3eb70ae5	0.357505
39	0xbe0d027d	-0.1377048
40	0xbc8d8e3d	-0.017279739
41	0xbd97f868	-0.074204266
42	0xbd3c9805	-0.046043415
43	0xbd46fd91	-0.048581664
44	0xbe9adca3	-0.30246457
45	0xbe22a15b	-0.15881865
46	0xbea9e620	-0.33183384
47	0xbe97c3d6	-0.29641598
48	0x3f145bf6	0.5795282
49	0x3d2c5ced	0.04208081
50	0x3ced22be	0.02894723
51	0xbdee5a29	-0.116382904
52	0xbe140801	-0.14456178
53	0x3f2b2b1c	0.66862655
54	0xbfb55898	-1.4167662
55	0xbd2c66b1	-0.04209012
56	0x3d863f9d	0.06555102
57	0x3e768868	0.24075472
58	0x3d23d582	0.03999854
59	0x3f12e653	0.57382697
60	0xbe6a43df	-0.22877453
61	0x3bca6e5d	0.006177707
62	0xbe395bb8	-0.18101394
63	0xbec07ce0	-0.37595272
64	0xbea6516c	-0.32483995
65	0x3e1455de	0.1448588
66	0x3ed6f217	0.41981575
67	0xbf0892d0	-0.5334902
68	0xbda5d72d	-0.08097682
69	0xbdd75391	-0.10513986
70	0x3f2629ed	0.64907724
71	0x3d681e62	0.0566696
72	0x3d81b320	0.063329935
73	0x3e148de1	0.14507248
74	0x3e1e9863	0.15487818
75	0xbe0e1550	-0.13875318
76	0xbd10127b	-0.035173874
77	0x3efacd85	0.48984924
78	0xbf2ce882	-0.6754228
79	0xbd316dc4	-0.04331757
80	0xb9b2b8ba	-0.00034088438
81	0xbe1a96d0	-0.15096593
82	0x3ea9207e	0.33032602
83	0x3f0ec698	0.5577178
84	0x3c3c929d	0.011509565
85	0x3ec7e94e	0.39045185
86	0xbe8d5cdd	-0.27609912
87	0xbe3d6610	-0.18495965
88	0xbe5b0b46	-0.21391019
89	0xbd93b562	-0.072123304
90	0xbedf4997	-0.43610832
91	0x3e10201c	0.14074749
92	0xbc0e13f4	-0.008671749
93	0xbe16a861	-0.14712669
94	0x3f3a1eb4	0.727031
95	0xbe3c9061	-0.18414451
96	0x3e03191e	0.1280255
97	0x3e562de3	0.20915942
98	0x3ec8d68d	0.3922619
99	0x3f570467	0.8399109
100	0xbf62af40	-0.8854866
101	0xbcc07c18	-0.023496673
102	0xbd68a989	-0.056802306
103	0xbdfc77d1	-0.12327541
104	0x3e9e7a0a	0.30952483
105	0x3c9b63b2	0.018968437
106	0xbc2cd3c4	-0.010548536
107	0x3db98207	0.09058004
108	0xbee8bc40	-0.45456123
109	0xbe8ab08b	-0.27087817
110	0x3dc2442b	0.09485658
111	0x3e2195ec	0.15779847
112	0x3f0c8972	0.54897225
113	0x3cb45ef7	0.022017939
114	0x3edfe4fd	0.43729392
115	0xbd1f86ac	-0.038946792
116	0xbddbbc25	-0.10729245
117	0x3c8df843	0.017330294
118	0x3e081f48	0.13293183
119	0x3ed7562b	0.42057928
120	0xbcfdc5dc	-0.030978136
121	0x3e93f1a5	0.28895298
122	0xbe1714c0	-0.14754009
123	0x3db1522c	0.08658251
124	0xbec0bab2	-0.37642437
125	0x3e2bf683	0.16793256
126	0x3e0af006	0.13568124
127	0xbda235fc	-0.07920453
128	0xbde47684	-0.111554176
129	0xbe5ae1e6	-0.21375236
130	0xbee4edb0	-0.4471259
131	0xbcba5e58	-0.022750065
132	0xbddb92b4	-0.10721341
133	0x3e7d2d2f	0.24724267
134	0xbef6ea30	-0.48225546
135	0x3d8d323a	0.068943456
136	0x3f0be447	0.546452
137	0x3d08629a	0.03329716
138	0xbe97faef	-0.29683635
139	0xbdba8b79	-0.091086335
140	0xbddc9b56	-0.107718155
141	0xbc967694	-0.01836709
142	0x3ec39ee4	0.3820716
143	0x3a3f5cd0	0.0007299902
144	0xbf1c7416	-0.61114633
145	0x3d9adb99	0.07561416
146	0xbe418ccc	-0.18901366
147	0xbddba92e	-0.10725628
148	0xbee8dbb3	-0.45480117
149	0x3f2cb729	0.6746698
150	0x3defd3f8	0.11710352
151	0xbe7d4181	-0.24732019
152	0x3de6e78f	0.11274635
153	0xbe0c523b	-0.13703243
154	0xbec9b1bf	-0.39393422
155	0x3f41c4b7	0.7569079
156	0xbe28503b	-0.16436855
157	0xbee5f293	-0.44911632
158	0xbe76d725	-0.24105509
159	0x3ed08d77	0.4073293
160	0xbefccb82	-0.49374014
161	0xbdff4e8b	-0.12466153
162	0x3d123234	0.03569241
163	0xbe1efd46	-0.15526304
164	0x3b326049	0.0027218035
165	0x3d1c44f1	0.038151685
166	0x3e9a4d45	0.30137077
167	0xbe2ba875	-0.1676348
168	0xbdfa3b77	-0.12218373
169	0x3db8ccb7	0.09023421
170	0xbd61060c	-0.054937407
171	0xbd46bc11	-0.048519198
172	0xbee6f9c5	-0.45112434
173	0xbd7f3ca0	-0.062313676
174	0xbe945fa6	-0.28979224
175	0xbe963b8f	-0.29342315
176	0x3f299259	0.66238934
177	0xbd45187f	-0.048119064
178	0x3c47358b	0.012158762
179	0xbdbde506	-0.092721984
180	0xbe21b3a5	-0.15791185
181	0x3f1f49cf	0.62222
182	0xbfd4f105	-1.6636053
183	0x3d535dd1	0.051603142
184	0x3d5650dc	0.052323207
185	0x3ec501c7	0.38477919
186	0xbd8b19d3	-0.06792035
187	0x3f04f811	0.5194102
188	0xbdf1f55d	-0.118143775
189	0x3dd1d8da	0.10246439
190	0xbcc6c58e	-0.024264123
191	0xbeb9724c	-0.36220014
192	0xbe7bc07a	-0.24585143
193	0x3e202ea4	0.15642792
194	0x3ee566d0	0.44805002
195	0xbf1434b4	-0.5789292
196	0xbdfe11ec	-0.12405762
197	0xbdfe6eb3	-0.12423458
198	0x3f200dbb	0.6252095
199	0xbd30ad29	-0.04313389
200	0x3e04e51e	0.12978026
201	0x3e139a8b	0.14414422
202	0x3e207b6b	0.1567208
203	0xbe19d825	-0.15023859
204	0xbc8253fe	-0.015909191
205	0x3eef4e03	0.46739206
206	0xbf3325d4	-0.69979596
207	0xbcc7b820	-0.02437979
208	0xbc8deab8	-0.017323837
209	0xbe18a728	-0.14907515
210	0x3e8769d9	0.26447943
211	0x3f16f940	0.58974075
212	0x3cd9b1ce	0.026574042
213	0x3eb9cf5a	0.3629101
214	0xbe7e7a95	-0.24851449
215	0xbde377de	-0.11106847
216	0xbe50a831	-0.2037666
217	0xbdad9f2c	-0.08477625
218	0xbf0d96bc	-0.5530813
219	0x3ddadf11	0.10687078
220	0x3d852197	0.065005474
221	0xbea97ddb	-0.33103833
222	0x3f365eea	0.7123858
223	0xbe6206db	-0.22072928
224	0x3db307aa	0.08741696
225	0x3e77e8f1	0.24209954
226	0x3edae161	0.42750075
227	0x3f59ab30	0.85026836
228	0xbf4d49a0	-0.8019047
229	0x3d523ca7	0.051327374
230	0x3d48e5d6	0.049047314
231	0xbdae948d	-0.085244276
232	0x3e89a0d9	0.2688053
233	0xbbf4621f	-0.007457986
234	0x3cd6d1af	0.026223032
235	0xbd439a19	-0.04775438
236	0xbf0922f8	-0.53568983
237	0xbeb22be6	-0.34799117
238	0x3cedeb30	0.02904281
239	0x3e2b734f	0.16743205
240	0x3ed8b1fe	0.42323297
241	0x3cde728d	0.027154231
242	0x3ed0fcbc	0.4081782
243	0xbdea0ea2	-0.11428572
244	0xbdfcc7ed	-0.1234282
245	0x3dce0715	0.100599445
246	0x3e3a850a	0.18214813
247	0x3ecf0ccd	0.40439454
248	0xbce92b1d	-0.02846294
249	0x3e86d338	0.26333022
250	0xbe494239	-0.19654168
251	0x3e09e026	0.13464412
252	0xbef012b0	-0.46889257
253	0x3de34c88	0.110985816
254	0x3e608014	0.21923858
255	0xbdff4a28	-0.12465316

model.2.bias f4 [128]
0	0xbdbc24ea	-0.09186728
1	0x3be89080	0.007097304
2	0x3be82636	0.007084633
3	0x3d7d40cf	0.061829384
4	0xbc948440	-0.018129468
5	0xbdbc8e83	-0.092068695
6	0x3d3ee41a	0.046604253
7	0x3d0da636	0.03458234
8	0xbd6ff145	-0.058579702
9	0x3b24505e	0.0025072317
10	0xbd36b8a3	-0.044609677
11	0xbd208444	-0.03918864
12	0xbc40fc0c	-0.011778843
13	0x3d6871cf	0.05674916
14	0x3c7bcc88	0.015368588
15	0x3d3b1177	0.045670953
16	0xbd61f655	-0.05516656
17	0xbdce5483	-0.10074713
18	0xbde0d065	-0.10977248
19	0x3cdf3785	0.027248153
20	0xbdbcb16c	-0.09213528
21	0x3cc12342	0.023576383
22	0xbcf38b5a	-0.029729534
23	0xbc572941	-0.013132394
24	0x3d1222a5	0.03567757
25	0xbd1dd3ea	-0.038532175
26	0x3d76681e	0.060157888
27	0xbcc1d931	-0.023663135
28	0xbd602f80	-0.0547328
29	0x3cfe7dca	0.03106584
30	0x3d62c3d0	0.055362523
31	0xbdca099d	-0.09865115
32	0x3c98ffa5	0.018676588
33	0xbd8cb747	-0.06870895
34	0x3d097d38	0.033566684
35	0x3d20c074	0.039246038
36	0xbdd1a0ec	-0.102357715
37	0x3d6d4792	0.057929583
38	0xbdc57710	-0.0964185
39	0xbdaa2b14	-0.08308998
40	0xbd8902f2	-0.06690015
41	0x3db4883d	0.08815048
42	0x3cae3932	0.021267507
43	0xbcc166f1	-0.023608657
44	0xbcc10164	-0.023560233
45	0xbdd59b34	-0.10429993
46	0x3d75eda8	0.0600411
47	0xbcfde820	-0.030994475
48	0xbc576b93	-0.013148206
49	0x3d6a1bbf	0.057155367
50	0x3d4f462c	0.05060403
51	0xbd980157	-0.074221306
52	0x3d2a1fc0	0.041534185
53	0x3c5e02e1	0.013550491
54	0xbcb6e2cd	-0.022324944
55	0x3cef0532	0.029177282
56	0xbd8e54a3	-0.06949737
57	0xbcedb3ff	-0.029016493
58	0xbd68e5e5	-0.05685987
59	0xbd0dacbf	-0.03458857
60	0x3d0d52f1	0.034502927
61	0x3d47fd4f	0.04882556
62	0x3c5c463e	0.013444481
63	0xbce471c6	-0.027886283
64	0xbdcb6de1	-0.09933067
65	0xbda55be7	-0.080741696
66	0x3d3882b2	0.045046516
67	0x3d526430	0.051365077
68	0x3d607503	0.05479909
69	0xbda1f546	-0.0790811
70	0xbd35d121	-0.044388894
71	0xbdb206f6	-0.08692734
72	0xbd86905e	-0.065705046
73	0x3d18c12f	0.03729361
74	0x3d65d7e7	0.056114104
75	0xbd7e3149	-0.06205872
76	0x3cd1e881	0.025623562
77	0xbd3e6c20	-0.046489835
78	0x3d54f519	0.051991556
79	0xbd85965f	-0.06522822
80	0x3d5e793b	0.054314833
81	0xbd468910	-0.048470557
82	0xbd7ce67a	-0.061743237
83	0x3d606ad5	0.054789383
84	0x3d88b36f	0.06674849
85	0xbcc5bc3f	-0.024137614
86	0x3c94e19c	0.018173985
87	0x3b0de32a	0.0021650293
88	0xbda2ef13	-0.07955756
89	0xbdf8203d	-0.12115524
90	0x3d567545	0.05235793
91	0xbdbafa22	-0.0912974
92	0x3d23f350	0.040026963
93	0x3d4c0623	0.04981054
94	0xbda97e85	-0.08276085
95	0xbd576f75	-0.052596528
96	0xbda69611	-0.08134092
97	0xbd6709d1	-0.056405846
98	0xbb89340d	-0.004187113
99	0x3c5ee6c5	0.013604824
100	0xbd63e738	-0.05564043
101	0x3cbe51d6	0.023232382
102	0x3c085b16	0.008322498
103	0xbdcd2cec	-0.10018334
104	0x3c6b7b6b	0.014372687
105	0x3cb8298a	0.022480745
106	0xbd811a6d	-0.063038684
107	0xbcb313d4	-0.02186004
108	0xbdb484f4	-0.08814421
109	0xbd1fee61	-0.039045695
110	0xbda17a13	-0.07884612
111	0x3da57a6f	0.08079993
112	0xbda1f81f	-0.079086535
113	0x3d5afaac	0.053461716
114	0xbd1df358	-0.03856215
115	0xbcb07330	-0.0215393
116	0xbdbf7649	-0.09348733
117	0x3d600bf3	0.054698896
118	0xbca6cb6b	-0.02036067
119	0xbc6a04cb	-0.014283369
120	0xbd2ec1c6	-0.042665266
121	0xbd3a7374	-0.04552026
122	0x3d9e44f5	0.07727996
123	0x3ceca306	0.02888633
124	0x3ceaae77	0.028647644
125	0x3cb9c7e0	0.022678316
126	0xbddeba28	-0.1087535
127	0xbd9fe546	-0.07807402

model.4.weight f4 [1, 128]
0	0x4055d2d7	3.3409936
1	0x402812de	2.6261516
2	0xbd7a9e04	-0.06118585
3	0x3ff216c4	1.8913198
4	0x3c11516d	0.008869511
5	0x3f8d50be	1.1040266
6	0x3c951d40	0.018202424
7	0xbd0af25a	-0.03392253
8	0x40503c3d	3.2536767
9	0xbcf0d8f7	-0.029400332
10	0x3f9abbe2	1.2088587
11	0x407c2d6c	3.9402723
12	0xbd7b9791	-0.061423842
13	0x3c725c8f	0.0147925755
14	0x408d67c4	4.4189167
15	0x3b4f133b	0.0031597156
16	0xbd006ae6	-0.031351946
17	0x4037e466	2.8733153
18	0x3f6023bc	0.87554526
19	0xbd80346b	-0.06259998
20	0xbd059cbf	-0.032620188
21	0x4054c8aa	3.3247476
22	0x3fd84d19	1.6898528
23	0xbd4c3eb1	-0.049864475
24	0x3ff10525	1.8829695
25	0xbd3d7056	-0.04624971
26	0x3f8796a1	1.0592843
27	0xbc3ccbbc	-0.011523183
28	0x403ce009	2.951174
29	0x3f787d63	0.97066325
30	0xbd1b8df5	-0.037977178
31	0x3c8ae3e6	0.016954374
32	0xbcbd225c	-0.023087673
33	0x3f8acefe	1.0844419
34	0xbc44da3a	-0.01201492
35	0xbc90c242	-0.017670754
36	0xbc78b927	-0.0151808625
37	0x3f9974ab	1.1988729
38	0xbd241aa6	-0.040064476
39	0x3b79217d	0.0038014345
40	0xbba48edd	-0.0050219134
41	0x3f9a454a	1.2052395
42	0x405e5891	3.4741557
43	0x405b12df	3.4230268
44	0xbd3a130e	-0.04542833
45	0x3c4ba414	0.012429256
46	0x406c5bc6	3.6931014
47	0x40adf99a	5.436719
48	0xbd4df61e	-0.050283544
49	0xbc53c89e	-0.012926249
50	0x3f866baf	1.0501612
51	0xbcf3d812	-0.029766116
52	0xbcdc756a	-0.026911456
53	0x3fd61136	1.6724002
54	0x401013fa	2.2512193
55	0x3f489a7a	0.7836071
56	0x402b391e	2.6753612
57	0x3fb8a451	1.4425145
58	0x4029c91a	2.6528993
59	0x3ff31b85	1.8992773
60	0x3f90c6b1	1.1310636
61	0x40958375	4.672297
62	0xbd00eb06	-0.031474136
63	0x40062d3f	2.0965116
64	0x3c511503	0.012761357
65	0xbbdade7d	-0.0066793547
66	0x40d68055	6.7031655
67	0x3f9af00b	1.2104505
68	0x3c2f2e8d	0.010692251
69	0xbc392fd4	-0.011302907
70	0xbcb25db0	-0.02177319
71	0xbc69747c	-0.014248963
72	0x40b46b35	5.638087
73	0x3c2ab24d	0.010418487
74	0xbcd32eac	-0.02577909
75	0x3fefb364	1.8726621
76	0x4034b30e	2.8234286
77	0xbd81a5da	-0.06330462
78	0x4085416f	4.1642375
79	0x409ee3ab	4.9652915
80	0xbb36dce5	-0.002790266
81	0xbd63595e	-0.05550515
82	0xbcd23dfa	-0.025664318
83	0x408c4229	4.383076
84	0x40858161	4.1720433
85	0x4094e795	4.6532693
86	0xbd8af56d	-0.067850925
87	0xbc6a4df8	-0.014300816
88	0xbb87665e	-0.004132076
89	0x3fd40a30	1.6565609
90	0x40113075	2.2685826
91	0x3c771a15	0.015081902
92	0x3f31425f	0.692419
93	0xbd542f74	-0.051803067
94	0x402e3bab	2.7223918
95	0x407e2eba	3.971602
96	0xbc73bd03	-0.014876607
97	0xbc81a9d8	-0.015828058
98	0xbcea003e	-0.028564569
99	0x3bcb978a	0.006213133
100	0xbd81d318	-0.06339091
101	0x3f973d03	1.1815494
102	0xbd5a4647	-0.053289678
103	0xbb5b7d6a	-0.00334915
104	0x40d2f6c1	6.5926213
105	0x3f85a404	1.0440679
106	0x40a6b606	5.2097197
107	0x3f65d54c	0.8977859
108	0xbbf4ac69	-0.007466842
109	0xbd7a8947	-0.061166074
110	0x408133e5	4.037585
111	0x406f55f2	3.7396207
112	0xbcfa3457	-0.030542536
113	0xbd68d593	-0.056844305
114	0x3f987c33	1.1912903
115	0x3f70abd9	0.9401222
116	0xbd59bd4e	-0.05315905
117	0xbce874b5	-0.028375963
118	0x401dfe85	2.4686596
119	0x401ad371	2.4191554
120	0x3c0e9f5a	0.008704985
121	0xbcaf2d20	-0.021383822
122	0x40b42afd	5.6302476
123	0xbba71c3b	-0.005099801
124	0x3f8cd915	1.1003748
125	0xbd56baa4	-0.052424088
126	0xbd0fee4c	-0.035139367
127	0x3d1cee56	0.038313232
