models/2024-12-11_11-34-24/rosenbrock_model.pt (torch, 70882 bytes, 5 tensors)

model.0.weight f4 [128, 2]
-1.1923306 -0.23917784 -1.853331 -1.4592494 1.7893666 -0.40472883 0.9877674 -0.26537147
-1.3164605 -0.05276628 0.80718654 -0.05163431 -1.2451003 -0.046195846 1.1926782 -0.11888072
0.85438865 -0.08112417 1.0701358 -0.24116555 1.053201 -0.21462624 1.6118392 -1.4397548
1.0456709 -0.07354406 1.0420319 -0.09242034 1.1375717 -0.17115873 0.8914998 -0.05822645
1.0640494 -0.10794661 1.1967303 -0.223531 1.5596377 -0.2939537 1.798728 -0.59346294
-1.375195 -0.2873453 0.9130901 -0.059571236 1.9132125 0.1079328 -1.1632011 -0.04866749
0.93490994 -0.06289349 1.2870034 -0.104921475 -1.258446 -0.048963655 -1.079812 -0.22174338
0.8793115 -0.056501243 1.7316334 -0.23243412 -1.1181372 -0.03957349 0.83692396 -0.050412375
-1.3140625 -0.03966054 1.030925 -0.1391653 0.91327196 -0.04560785 -1.6359723 -0.48104408
-2.0923035 -0.61773276 -1.1366452 -0.25316623 -1.1678251 -0.04583674 -1.3926857 -0.14868888
-0.9723192 -0.042717237 -1.0060948 -0.054420732 -1.2409921 -0.114384435 1.0504398 -0.043395456
1.5282882 -0.43679634 1.0789905 -0.039897285 1.2118583 -0.10733386 1.150447 -0.06073935
-1.3313051 -0.11995759 1.6307492 -0.41327304 -0.9450473 -0.040063154 1.1324517 -0.04846052
1.63963 -0.3653924 -1.8669772 -0.6034697 1.1934248 -0.15554203 -1.2670633 -0.016841192
-1.062568 -0.2554847 0.8861681 -0.036833618 2.0215838 -0.7242877 1.1720881 -0.055791404
1.9746709 -0.65317386 1.1661888 -0.24489313 0.0029550965 -0.0069256336 1.339022 -0.045479506
1.0963643 -0.05315456 0.8031487 -0.29018494 0.9439928 -0.2953859 1.7301587 0.7559032
-1.4724722 -0.21576893 0.9940711 -0.067774944 -0.873387 -0.04309783 -1.6834041 -0.4624509
-0.97797704 -0.040996246 1.1408623 -0.04862716 0.890758 -0.05840638 -1.267506 -0.20950064
-1.3655603 -0.23802412 0.8063743 -0.05130835 1.2662494 -0.30983198 -2.041493 -0.7864506
0.78259724 -0.049553182 -1.3135732 -0.13731205 -1.1066171 -0.05065706 -1.3601408 -0.23271789
1.1330333 -0.104833856 2.1850977 -0.11516701 1.2995284 -0.17791666 -0.91885424 -0.04248858
-1.588786 -0.2759891 -1.0863218 -0.2268504 -1.2581556 -0.04423578 1.219659 -0.3419084
-1.2693973 -0.1808668 1.1648705 -0.023081599 -0.8577019 -0.16397195 1.6872901 -0.26475412
1.1629299 -0.04849126 1.7854366 -0.70863575 -1.8262872 -0.5163777 -1.0476203 -0.22413827
1.0814162 -0.06759843 1.0509621 -0.11475017 -2.0641763 -0.90331846 -1.1788963 -0.053359192
-1.6266063 -0.52438205 -1.3010644 -0.24229735 0.8882228 -0.05748186 1.7254617 0.076966755
-1.0440347 -0.099000365 -1.1089087 -0.099746995 0.9655465 -0.054222792 1.3954217 -0.3639699
1.9114388 -0.0200964 -1.1330199 -0.15137458 -1.3246546 -0.15216629 -1.3293965 -0.033259556
0.9895696 -0.1125683 1.2176448 -0.214971 -1.1633048 -0.039706077 -1.6185647 -0.2060082
-1.0961331 -0.05130679 -0.98872733 -0.038749736 0.90606666 -0.05894113 1.8198729 -0.6438698
-1.6689354 -0.53983796 -1.3044903 -0.14569518 -1.115325 -0.048119325 -1.1182972 -0.10191951
00000000: 4a9e 98bf 09eb 74be f339 edbf afc8 babf
00000010: f709 e53f 9e38 cfbe 53de 7c3f c5de 87be
00000020: c781 a8bf 7421 58bd c7a3 4e3f 807e 53bd
00000030: 725f 9fbf db37 3dbd aea9 983f bc77 f3bd
00000040: 37b9 5a3f 6e24 a6bd 36fa 883f 1af4 76be
00000050: 4acf 863f fbc6 5bbe bf50 ce3f e349 b8bf
00000060: 8bd8 853f 459e 96bd 4d61 853f e046 bdbd
00000070: f39b 913f 3c44 2fbe 5539 643f dc7e 6ebd
00000080: c532 883f 1d13 ddbd 752e 993f 4fe5 64be
00000090: 35a2 c73f 1981 96be b83c e63f 30ed 17bf
000000a0: 6406 b0bf ec1e 93be 46c0 693f f800 74bd
000000b0: 26e4 f43f df0b dd3d c6e3 94bf 9057 47bd
000000c0: 4256 6f3f 4dce 80bd 87bc a43f 12e1 d6bd
000000d0: c214 a1bf 1d8e 48bd 4837 8abf b210 63be
000000e0: 8f1a 613f d96d 67bd 2aa6 dd3f 3603 6ebe
000000f0: 1f1f 8fbf d017 22bd a640 563f 357d 4ebd
00000100: 3333 a8bf 1773 22bd 5af5 833f 5981 0ebe
00000110: 31cc 693f 4ccf 3abd 8a67 d1bf 694b f6be
00000120: 4de8 05c0 bc23 1ebf 977d 91bf 019f 81be
00000130: 4b7b 95bf 4ebf 3bbd 8643 b2bf e641 18be
00000140: e9e9 78bf 45f8 2ebd b7c7 80bf 46e8 5ebd
00000150: d4d8 9ebf 6342 eabd d074 863f 6fbf 31bd
00000160: f39e c33f c5a3 dfbe 5c1c 8a3f 566b 23bd
00000170: 2c1e 9b3f dbd1 dbbd d941 933f d3c9 78bd
00000180: 3568 aabf 53ac f5bd 64bc d03f 8698 d3be
00000190: 9fee 71bf 4319 24bd 2df4 903f 8a7e 46bd
000001a0: 65df d13f b614 bbbe 1cf9 eebf fe7c 1abf
000001b0: 25c2 983f 6946 1fbe 212f a2bf 8af6 89bc
000001c0: 3a02 88bf e4ce 82be eadb 623f d9de 16bd
000001d0: a161 0140 eb6a 39bf fc06 963f 8785 64bd
000001e0: 04c2 fc3f 6736 27bf ad45 953f 44c5 7abe
000001f0: 4baa 413b 6df0 e2bb 1365 ab3f b848 3abd
00000200: aa55 8c3f 99b8 59bd 279b 4d3f 1f93 94be
00000210: 83a9 713f d23c 97be d775 dd3f df82 413f
00000220: f879 bcbf 88f2 5cbe 727b 7e3f 97cd 8abd
00000230: 4a96 5fbf 5a87 30bd c979 d7bf 5dc6 ecbe
00000240: b45c 7abf aeeb 27bd c707 923f 462d 47bd
00000250: b708 643f 873b 6fbd a33d a2bf 5687 56be
00000260: aeca aebf 98bc 73be 8c6e 4e3f b428 52bd
00000270: 7614 a23f 4ca2 9ebe d2a7 02c0 d454 49bf
00000280: 4b58 483f 47f8 4abd 2b23 a8bf 889b 0cbe
00000290: a1a5 8dbf c77d 4fbd 1819 aebf 994d 6ebe
000002a0: 3c07 913f 22b3 d6bd a4d8 0b40 aedc ebbd
000002b0: f256 a63f c92f 36be 083a 6bbf 8108 2ebd
000002c0: 575d cbbf 714e 8dbe 980c 8bbf 794b 68be
000002d0: 3e0b a1bf 9430 35bd c91d 9c3f 9e0e afbe
000002e0: 9c7b a2bf 2535 39be 7a1a 953f 9f15 bdbc
000002f0: 5a92 5bbf 43e8 27be 1ff9 d73f da8d 87be
00000300: e3da 943f c59e 46bd 3089 e43f 2769 35bf
00000310: c7c3 e9bf 5431 04bf 6c18 86bf 8184 65be
00000320: d96b 8a3f 0c71 8abd ed85 863f 2302 ebbd
00000330: 771b 04c0 e13f 67bf 13e6 96bf 2b8f 5abd
00000340: a334 d0bf e73d 06bf 4789 a6bf cc1c 78be
00000350: 9262 633f 1972 6bbd eedb dc3f bfa0 9d3d
00000360: eea2 85bf b4c0 cabd b8f0 8dbf 2748 ccbd
00000370: 0e2e 773f b818 5ebd 2e9d b23f 435a babe
00000380: 07aa f43f 35a1 a4bc cc06 91bf f001 1bbe
00000390: 488e a9bf 7bd1 1bbe aa29 aabf 2c3b 08bd
000003a0: 6f54 7d3f 358a e6bd c9db 9b3f 5c21 5cbe
000003b0: 2ce7 94bf d7a2 22bd 212d cfbf d0f3 52be
000003c0: 174e 8cbf 1227 52bd 3c1d 7dbf 0bb8 1ebd
000003d0: fcf3 673f 416c 71bd 98f1 e83f a7d4 24bf
000003e0: ad9f d5bf d232 0abf 8af9 a6bf 1e31 15be
000003f0: f8c2 8ebf c518 45bd 5d24 8fbf 2dbb d0bd

model.0.bias f4 [128]
-4.014395 -1.4076949 -2.0860984 -4.08836 -4.923108 -3.6990705 -5.2022843 -4.570279
-4.5526567 -2.9135585 -3.9072273 -1.2100326 -4.587771 -4.440216 -2.3728232 -4.304198
-3.9024742 -4.064117 -1.2615396 -1.9279759 -2.8898702 -4.1502023 -1.026166 -2.1753964
-4.2000494 -3.8851533 -4.4952655 -4.4229746 -4.0645504 -1.3668778 -5.6242595 -4.070466
-3.7276797 -5.5248504 -3.8392508 -1.0137353 0.11688819 -3.3819165 -5.024986 -4.696949
-4.699733 -4.9497104 -5.4509697 -4.3057847 -2.1518207 -5.41311 -4.998817 -4.0439005
-5.372156 -1.4096127 -4.508802 -4.497773 -2.1573806 -1.6907246 -3.9662557 -3.2278054
-5.3506026 -4.397084 0.1842641 -3.930675 -0.46261668 -3.485362 -0.10644164 -3.61082
-3.5096636 -4.2460704 -4.3882475 -1.2230997 -2.0446846 -4.417184 -4.324472 -2.618524
-4.60831 -4.3805194 -4.225979 -3.012914 -2.3191054 -3.8590686 -1.3358784 -0.36728117
-3.6785104 -5.036553 -5.0347795 -1.8902755 -4.516005 0.8279122 -3.424429 -4.5894613
-2.4820297 -4.0482383 -5.0775423 -2.7535756 -3.7284124 -3.4543622 -4.6018667 -0.68709975
-4.2983756 0.90002966 -2.2222736 -4.6973667 -4.656399 -2.9892902 1.4411628 -3.609865
-1.9312216 -3.4439657 -4.4174232 -1.3148013 -4.821948 -5.3499007 -4.7348614 -2.6479526
1.8693984 -6.138177 -4.187406 -4.451746 -3.4720304 -2.8445926 -4.524026 -1.2432042
-5.0794096 -4.3362684 -4.2269764 -1.3117145 -2.44576 -4.7078633 -4.9906507 -4.7092633
00000000: ed75 80c0 592f b4bf a382 05c0 d8d3 82c0
00000010: 1a8a 9dc0 92bd 6cc0 1d79 a6c0 ba3f 92c0
00000020: 5daf 91c0 be77 3ac0 0310 7ac0 59e2 9abf
00000030: 05cf 92c0 4016 8ec0 56dc 17c0 fdbb 89c0
00000040: 23c2 79c0 3f0d 82c0 217a a1bf eac7 f6bf
00000050: a2f3 38c0 75ce 84c0 6859 83bf b239 0bc0
00000060: ce66 86c0 5aa6 78c0 37d9 8fc0 0289 8dc0
00000070: cc10 82c0 daf5 aebf eff9 b3c0 4241 82c0
00000080: 4e92 6ec0 93cb b0c0 49b6 75c0 14c2 81bf
00000090: 1363 ef3d 5271 58c0 afcc a0c0 684d 96c0
000000a0: 3664 96c0 0764 9ec0 586e aec0 fdc8 89c0
000000b0: 6eb7 09c0 3238 adc0 4ff6 9fc0 a267 81c0
000000c0: b4e8 abc0 306e b4bf 1b48 90c0 c2ed 8fc0
000000d0: 8612 0ac0 aa69 d8bf 22d7 7dc0 5d94 4ec0
000000e0: 2338 abc0 eab4 8cc0 baaf 3c3e 2e90 7bc0
000000f0: 18dc ecbe 2c10 5fc0 13fe d9bd ad17 67c0
00000100: 549e 60c0 cfdf 87c0 866c 8cc0 888e 9cbf
00000110: 1ddc 02c0 9259 8dc0 1362 8ac0 e695 27c0
00000120: 4777 93c0 372d 8cc0 383b 87c0 95d3 40c0
00000130: 396c 14c0 fbfa 76c0 10fe aabf 470c bcbe
00000140: b76c 6bc0 712b a1c0 ea1c a1c0 8cf4 f1bf
00000150: 1d83 90c0 0ef2 533f d829 5bc0 dedc 92c0
00000160: 93d9 1ec0 2b8b 81c0 3a7b a2c0 953a 30c0
00000170: 4f9e 6ec0 4514 5dc0 7e42 93c0 c5e5 2fbf
00000180: 4b8c 89c0 5868 663f bb39 0ec0 d450 96c0
00000190: 3801 95c0 8850 3fc0 0678 b83f 0708 67c0
000001a0: 4532 f7bf ef69 5cc0 885b 8dc0 694b a8bf
000001b0: 664d 9ac0 6332 abc0 fc83 97c0 0e78 29c0
000001c0: 7248 ef3f f26b c4c0 3bff 85c0 b474 8ec0
000001d0: bf35 5ec0 ce0d 36c0 d2c4 90c0 5121 9fbf
000001e0: 868a a2c0 b6c2 8ac0 6443 87c0 43e6 a7bf
000001f0: 5587 1cc0 d1a6 96c0 69b3 9fc0 49b2 96c0

model.2.weight f4 [128, 128]
2.4568512 1.0545853 1.2824848 2.5120711 2.8713944 2.8852296 3.1479743 3.0761316
3.4883819 2.0198894 2.1525612 0.93880117 3.4858236 3.0466914 1.6338208 3.4592342
2.23246 2.079943 1.1020794 1.2819103 1.6584774 3.01145 1.1198117 1.7560642
2.8297584 2.0660892 2.8506525 2.5284398 2.9963644 1.0438884 4.7903166 2.9608028
1.9425439 4.5874934 2.5141249 1.0167918 0.5741384 1.8921832 3.2406843 2.756468
4.2262025 4.1025953 4.1166973 2.7858152 1.3795489 4.914051 3.5547945 2.4247434
3.6790822 1.0255932 3.1448488 2.908963 1.3169842 1.2106124 2.1107426 1.7481381
3.8435504 3.7477443 0.35217318 2.245739 0.55173975 2.1342878 -0.027676204 2.0234852
2.1200914 2.546019 2.6877975 1.1286819 1.5333725 3.1247187 3.4464655 1.5230814
3.5796971 2.5136464 3.3634682 1.7695137 1.416242 2.8432882 1.1063787 0.81320184
2.6298995 2.979965 3.253016 1.3418664 2.9206421 0.02194775 1.9073515 3.6147637
1.584746 2.5495455 2.9535398 1.6019055 1.9935372 2.1107998 3.5907478 0.73891914
2.5134234 0.11834859 1.3318107 2.6870298 3.5488045 2.032505 0.31327656 2.1739554
1.2931532 1.830203 3.1950893 1.0900375 3.3622131 4.3155785 3.8749237 1.53504
-0.0066718236 5.7257986 2.3655286 2.6034622 2.4587946 1.7695941 2.6405308 1.0736883
4.3133426 2.7634792 3.0852628 1.0251477 1.4530027 2.6672132 3.1249642 3.2225974
2.6421506 1.2210116 1.3807737 2.6647093 3.0695393 3.0345469 3.2217114 3.199853
3.660394 2.0557103 2.3344748 1.0967643 3.5410864 3.0729387 1.6179992 3.5049264
2.393358 2.2747924 1.1015922 1.3189338 1.7464032 3.112496 1.141952 1.808158
2.9305613 2.1397943 2.865963 2.62978 3.1434915 1.1879035 4.876516 3.086193
2.118032 4.698738 2.549657 0.96321106 0.54791313 2.020864 3.4636319 2.9107537
4.3989434 4.257212 4.3351693 2.8832123 1.4210845 5.117445 3.7687497 2.4222147
3.761159 1.1629695 3.1455219 2.9998949 1.5311583 1.3000373 2.2135215 1.8828648
3.8827887 3.7871056 0.49577716 2.4161181 0.5612008 2.1712177 -0.00043037976 2.0878303
2.2126012 2.7592015 2.9650328 1.1409968 1.5984918 3.2263064 3.560811 1.5673267
3.6279068 2.636183 3.5880952 1.8717349 1.6444159 2.9748645 1.2486694 0.7325062
2.7809312 3.1555786 3.3320296 1.4393349 3.1228638 0.15114123 1.9255072 3.7369015
1.5684891 2.721311 3.0637214 1.809108 2.2366138 2.0699463 3.7481012 0.77792174
2.623004 0.25033125 1.45585 2.84365 3.7676697 2.2288778 0.3124296 2.320692
1.3617635 1.9422326 3.3366241 1.1753933 3.4920714 4.4135933 4.00751 1.6141316
0.08402938 5.744674 2.3616054 2.642739 2.4862747 1.7550142 2.8293278 1.1033264
4.3907056 2.7956479 3.1823914 1.1094844 1.4340385 2.704226 3.3879316 3.1963367
00000000: 0d3d 1d40 a7fc 863f 7628 a43f c6c5 2040
00000010: edc4 3740 9aa7 3840 6978 4940 57df 4440
00000020: a641 5f40 de45 0140 90c3 0940 4655 703f
00000030: bc17 5f40 fefc 4240 0a21 d13f 1864 5d40
00000040: a0e0 0e40 c91d 0540 f010 8d3f a315 a43f
00000050: fd48 d43f 99bb 4040 fd55 8f3f b6c6 e03f
00000060: c31a 3540 ce3a 0440 1771 3640 f5d1 2140
00000070: 6fc4 3f40 239e 853f 464a 9940 cb7d 3d40
00000080: 47a5 f83f bfcc 9240 6ce7 2040 3c26 823f
00000090: bcfa 123f 0f33 f23f 5f67 4f40 f969 3040
000000a0: 0d3d 8740 7648 8340 fcbb 8340 cc4a 3240
000000b0: 0f95 b03f e83f 9d40 c181 6340 ff2e 1b40
000000c0: 1576 6b40 a346 833f 3445 4940 732c 3a40
000000d0: f092 a83f 59f5 9a3f 6816 0740 fdc2 df3f
000000e0: bbfc 7540 0bdb 6f40 0b50 b43e 30ba 0f40
000000f0: d13e 0d3f 2c98 0840 35b9 e2bc c880 0140
00000100: 94af 0740 faf1 2240 e004 2c40 a678 903f
00000110: 8d45 c43f 64fb 4740 e492 5c40 55f4 c23f
00000120: c219 6540 95df 2040 1043 5740 6d7f e23f
00000130: 6b47 b53f 6ff8 3540 d19d 8d3f ff2d 503f
00000140: 4650 2840 bfb7 3e40 6a31 5040 47c2 ab3f
00000150: cdeb 3a40 c5cb b33c 1824 f43f 4a58 6740
00000160: f5d8 ca3f c12b 2340 cc06 3d40 3d0b cd3f
00000170: 3a2c ff3f 5817 0740 d0ce 6540 ce29 3d3f
00000180: eedb 2040 bf60 f23d c678 aa3f 4cf8 2b40
00000190: 9d1f 6340 9014 0240 c965 a03e 1622 0b40
000001a0: 0b86 a53f 1844 ea3f 587c 4c40 5986 8b3f
000001b0: 802e 5740 3819 8a40 c0fe 7740 317c c43f
000001c0: 509f dabb be39 b740 d264 1740 209f 2640
000001d0: e45c 1d40 0f82 e23f 75fe 2840 9e6e 893f
000001e0: e706 8a40 d8dc 3040 f274 4540 0a38 833f
000001f0: fefb b93f 9fb3 2a40 6aff 4740 093f 4e40
00000200: ff18 2940 1c4a 9c3f 31bd b03f 998a 2a40
00000210: 5573 4440 0436 4240 8530 4e40 64ca 4c40
00000220: e543 6a40 c290 0340 0968 1540 c662 8c3f
00000230: 29a1 6240 07ab 4440 991a cf3f b750 6040
00000240: c72c 1940 3396 1140 f900 8d3f d3d2 a83f
00000250: 248a df3f 2233 4740 7c2b 923f b971 e73f
00000260: 518e 3b40 64f2 0840 f06b 3740 514e 2840
00000270: f72e 4940 390d 983f 6b0c 9c40 3084 4540
00000280: d68d 0740 105c 9640 952d 2340 0095 763f
00000290: 0944 0c3f d655 0140 25ac 5d40 ca49 3a40
000002a0: 25c4 8c40 153b 8840 b5b9 8a40 8d86 3840
000002b0: 19e6 b53f 1cc2 a340 3233 7140 9105 1b40
000002c0: d4b6 7040 2fdc 943f 3b50 4940 47fe 3f40
000002d0: fffc c33f 9f67 a63f 56aa 0d40 b701 f13f
000002e0: 9c7f 7840 f05f 7240 81d6 fd3e aea1 1a40
000002f0: dbaa 0f3f 3bf5 0a40 98a4 e1b9 039f 0540
00000300: 429b 0d40 c296 3040 19c3 3d40 2f0c 923f
00000310: 619b cc3f ce7b 4e40 54e4 6340 299e c83f
00000320: a02f 6840 39b7 2840 5aa3 6540 0295 ef3f
00000330: 387c d23f 2e64 3e40 66d4 9f3f 8785 3b3f
00000340: c7fa 3140 00f5 4940 f93f 5540 203c b83f
00000350: 00dd 4740 c4c4 1a3e 0577 f63f 6529 6f40
00000360: 40c4 c83f f629 2e40 0314 4440 da90 e73f
00000370: ae24 0f40 007a 0440 e4e0 6f40 e125 473f
00000380: 4cdf 2740 6b2b 803e 4b59 ba3f 5dfe 3540
00000390: 8021 7140 efa5 0e40 c6f6 9f3e 3886 1440
000003a0: 444e ae3f 149b f83f 408b 5540 4a73 963f
000003b0: 197e 5f40 283c 8d40 863d 8040 dd9b ce3f
000003c0: 9817 ac3d 5fd4 b740 8b24 1740 a322 2940
000003d0: 201f 1f40 4ea4 e03f b513 3540 cd39 8d3f
000003e0: a980 8c40 e5eb 3240 4dac 4b40 9603 8e3f
000003f0: 938e b73f 0a12 2d40 dfd3 5840 c890 4c40

model.2.bias f4 [128]
-2.4673917 -2.5409846 -4.3038363 -0.10299698 -2.9125578 4.95035 -1.9414814 11.315497
-2.711846 -2.2565331 -2.5304296 -2.5952137 -2.5116467 10.194153 7.6676693 -2.3149457
-0.11045772 -2.5185008 -0.0124735255 -2.6538832 -2.314632 -2.2141998 3.450314 -1.8881543
-0.024770675 -2.0987542 -0.088088244 -2.891923 -2.0755675 -4.58784 -2.1023319 -2.2412493
4.5125856 -2.0334458 -2.2479546 -1.9492534 -0.022389023 -2.6198347 -1.9876697 -2.4090893
-2.7211328 -2.1140482 -1.9926134 -2.5272098 -2.021268 -2.374888 -0.03981105 -2.4899468
4.7544065 1.3430693 -2.2416039 -2.6980143 4.5742297 -2.4695525 -2.4663022 -0.108515345
-2.1604397 12.2625 -2.6170475 -2.2671719 -2.4727557 -5.998071 -0.042176444 11.570463
4.2774863 -2.3190293 -2.4363832 -2.773538 -2.2619429 -2.5484953 5.6607594 -0.019188462
-2.6365905 -0.11315949 -2.4776573 -0.008125317 -1.9751554 -2.8636475 9.191594 -0.11719735
11.911154 -2.3087044 -2.568041 -2.5639434 -2.0729067 -0.091520935 -2.6772163 11.523763
8.067108 0.02499493 12.9807 -2.5042987 -0.054161154 -0.13427457 -2.041715 -0.08482939
4.4830565 -2.10884 -2.674807 -0.00014495436 -2.3712754 -0.06554698 -3.765559 6.376836
-2.3366475 -2.6984177 -0.008234847 -1.9970919 -4.5463114 -2.6957498 -2.2896764 -2.2221835
6.2501154 0.28819752 -2.2091649 -2.2786198 -2.4346125 -2.3851895 11.910527 10.513901
-0.064920336 -2.6816916 -8.811176 6.646125 11.629528 -2.7649066 1.7602407 -2.6985054
00000000: bfe9 1dc0 7e9f 22c0 07b9 89c0 15f0 d2bd
00000010: 5967 3ac0 4469 9e40 7682 f8bf 470c 3541
00000020: e38e 2dc0 0a6b 10c0 8ff2 21c0 fb17 26c0
00000030: d2be 20c0 401b 2341 8c5d f540 1228 14c0
00000040: a837 e2bd 1e2f 21c0 c25d 4cbc 39d9 29c0
00000050: ee22 14c0 73b5 0dc0 f2d1 5c40 0aaf f1bf
00000060: dfeb cabc fd51 06c0 9c67 b4bd 4415 39c0
00000070: 19d6 04c0 96cf 92c0 9b8c 06c0 a170 0fc0
00000080: 1a67 9040 fa23 02c0 7dde 0fc0 2381 f9bf
00000090: 2f69 b7bc 5fab 27c0 f66b febf 852e 1ac0
000000a0: 0a27 2ec0 914c 07c0 f50d ffbf cebd 21c0
000000b0: 745c 01c0 2afe 17c0 e910 23bd 4a5b 1fc0
000000c0: 1924 9840 b2e9 ab3f 7076 0fc0 44ac 2cc0
000000d0: 1760 9240 260d 1ec0 e5d7 1dc0 4b3d debd
000000e0: a544 0ac0 3333 4441 b57d 27c0 5819 11c0
000000f0: a141 1ec0 33f0 bfc0 35c1 2cbd 9e20 3941
00000100: 2be1 8840 fa6a 14c0 b4ed 1bc0 a681 31c0
00000110: acc3 10c0 8c1a 23c0 f124 b540 1f31 9dbc
00000120: e6bd 28c0 2ac0 e7bd f091 1ec0 0d20 05bc
00000130: e4d1 fcbf 0046 37c0 c510 1341 2a05 f0bd
00000140: 1694 3e41 d0c1 13c0 c95a 24c0 a617 24c0
00000150: 81aa 04c0 546f bbbd 8357 2bc0 5561 3841
00000160: e012 0141 2bc2 cc3c f2b0 4f41 6e46 20c0
00000170: 16d8 5dbd 467f 09be 75ab 02c0 08bb adbd
00000180: 3375 8f40 3cf7 06c0 0a30 2bc0 e4fe 17b9
00000190: fac2 17c0 7f3d 86bd ebfe 70c0 0a0f cc40
000001a0: a28b 15c0 e0b2 2cc0 74eb 06bc b5a0 ffbf
000001b0: 627b 91c0 2a87 2cc0 0f8a 12c0 4138 0ec0
000001c0: f200 c840 a08e 933e f562 0dc0 e8d4 11c0
000001d0: b1d0 1bc0 f2a6 18c0 8591 3e41 f038 2841
000001e0: f4f4 84bd d6a0 2bc0 94fa 0cc1 0ead d440
000001f0: 8c12 3a41 3bf4 30c0 914f e13f 50b4 2cc0

model.4.weight f4 [1, 128]
2.658206 2.6117754 -5.7374725 -0.05028166 2.6904051 -7.863425 2.618274 14.92903
2.600149 2.606233 2.5741172 2.6216214 2.6693738 8.759099 12.251154 2.6378384
-0.046125583 2.640417 -0.06643897 2.6335106 2.666334 2.5679033 -7.800449 2.6483154
-0.02559074 2.6447213 0.0016582797 2.6743681 2.5683417 -13.636853 2.6622007 2.67354
-7.100086 2.5832014 2.5967433 2.6592734 -0.014918112 2.596924 2.6221251 2.6123228
2.6040235 2.6438878 2.645508 2.6263359 2.6273465 2.6214156 -0.030854596 2.6244948
-7.835833 -7.8852634 2.63171 2.5970585 -9.369686 2.6426375 2.6761854 -0.04504845
2.5711272 10.016881 2.5784743 2.6044545 2.587344 -10.073236 -0.012028597 9.333362
-7.513663 2.660241 2.6520119 2.6285007 2.641473 2.6125638 -8.243323 -0.012627568
2.605866 -0.052253384 2.6515663 -10.851008 2.666082 2.6132987 -12.7151785 -0.02523156
11.956561 2.6284504 2.63992 2.621937 2.669419 -0.0050279293 2.5823638 10.578146
-11.215538 -5.5249214 8.587789 2.6419773 0.00081004266 -0.074418895 2.5634153 -0.051815838
-7.702661 2.6466832 2.6031082 -6.5639353 2.6441965 -0.009471919 -10.49025 -12.113912
2.5844393 2.5849943 -0.0473532 2.6593726 4.8487267 2.6576757 2.6335924 2.6135776
7.3999 -7.607801 2.6474915 2.5920322 2.642716 2.5999482 10.10098 12.261849
-0.054785084 2.644253 10.145151 9.147509 7.5198507 2.6819851 8.634239 2.6040213
00000000: 0c20 2a40 5427 2740 6099 b7c0 24f4 4dbd
00000010: 992f 2c40 2da1 fbc0 cd91 2740 4fdd 6e41
00000020: d768 2640 85cc 2640 56be 2440 a5c8 2740
00000030: 05d7 2a40 4525 0c41 ba04 4441 58d2 2840
00000040: 2eee 3cbd 98fc 2840 2811 88bd 708b 2840
00000050: 37a5 2a40 8758 2440 479d f9c0 007e 2940
00000060: aca3 d1bc 1d43 2940 a25a d93a d928 2b40
00000070: b65f 2440 8d30 5ac1 7f61 2a40 481b 2b40
00000080: e833 e3c0 2c53 2540 0b31 2640 8931 2a40
00000090: 196b 74bc 0134 2640 e6d0 2740 4c30 2740
000000a0: 52a8 2640 7535 2940 0150 2940 e315 2840
000000b0: 7226 2840 46c5 2740 c7c2 fcbc b9f7 2740
000000c0: 25bf fac0 1454 fcc0 f06d 2840 3536 2640
000000d0: 3cea 15c1 f920 2940 9f46 2b40 b984 38bd
000000e0: 598d 2440 2545 2041 b905 2540 62af 2640
000000f0: 0b97 2540 fa2b 21c1 9813 45bc 7355 1541
00000100: ed6f f0c0 6341 2a40 90ba 2940 5b39 2840
00000110: e50d 2940 3f34 2740 a7e4 03c1 dce3 4ebc
00000120: 82c6 2640 a507 56bd 43b3 2940 bb9d 2dc1
00000130: 16a1 2a40 4940 2740 5f71 4bc1 6bb2 cebc
00000140: 134e 3f41 8838 2840 73f4 2840 d1cd 2740
00000150: c3d7 2a40 54c1 a4bb 7345 2540 1640 2941
00000160: d872 33c1 28cc b0c0 9567 0941 2816 2940
00000170: 0b59 543a ef68 98bd ff0e 2440 d83c 54bd
00000180: 337c f6c0 4263 2940 5399 2640 c20b d2c0
00000190: 843a 2940 1c30 1bbc 10d8 27c1 95d2 41c1
000001a0: 7467 2540 8c70 2540 6ef5 41bd 2933 2a40
000001b0: c528 9b40 5c17 2a40 c78c 2840 db44 2740
000001c0: fbcb ec40 1b73 f3c0 8070 2940 dbe3 2540
000001d0: 4222 2940 8d65 2640 9d9d 2141 8930 4441
000001e0: 5366 60bd 713b 2940 8a52 2241 325c 1241
000001f0: 9ea2 f040 a5a5 2b40 d825 0a41 49a8 2640
