models/ackley_model.pt (torch, 70842 bytes, 5 tensors)

model.0.weight f4 [128, 2]
0	0xbf13122c	-0.57449603
1	0x3e2239a1	0.15842296
2	0x3eb73b29	0.35787323
3	0xbf2a5fab	-0.6655223
4	0xbe94d842	-0.29071242
5	0x3dff132a	0.12454827
6	0x3ebb4c27	0.36581537
7	0x3f21aaf5	0.63151485
8	0xbe51fa15	-0.20505555
9	0xbf290f45	-0.66038924
10	0x3e382f07	0.1798669
11	0x3f202a35	0.625644
12	0x3cb79e70	0.022414416
13	0xbe2c5f72	-0.16833284
14	0xbe8845dd	-0.266158
15	0x3e5f06ba	0.2177991
16	0xbf0e597d	-0.556053
17	0xbf2c5b87	-0.6732716
18	0xbf134fc7	-0.57543606
19	0xbeea3ffb	-0.45751938
20	0x3f21055e	0.62898815
21	0xbe9872f1	-0.29775193
22	0xbeb88ca2	-0.36044794
23	0x3e9f8b7a	0.311611
24	0x3ec55288	0.3853953
25	0x3d617905	0.055047054
26	0xbaa1ae8f	-0.0012335348
27	0xbed5321a	-0.41639787
28	0xbf15796a	-0.5838839
29	0x3ebf5d43	0.3737584
30	0xbeebf04e	-0.46081775
31	0xbe205e34	-0.15660936
32	0xbf0c53cb	-0.5481536
33	0x3e5e7841	0.2172556
34	0x3f174f66	0.5910553
35	0xbef2c10b	-0.47412905
36	0xbef575a0	-0.47941303
37	0x3ec519c2	0.38496214
38	0xbef739d0	-0.48286295
39	0x3e59fc19	0.21287574
40	0xbee3c161	-0.44483474
41	0x3ec74bd9	0.38925055
42	0x3f1ad3bc	0.6047933
43	0x3ea2f209	0.31825283
44	0xbf2aadd5	-0.66671497
45	0xbe1523d2	-0.14564446
46	0x3eeda089	0.4641154
47	0xbb1a87e1	-0.0023579525
48	0xbe780e71	-0.24224259
49	0xbf353eeb	-0.7079913
50	0xbe1b55f5	-0.15169509
51	0xbe72ecca	-0.2372314
52	0xbf3dafa0	-0.7409611
53	0x3eaa967d	0.33317938
54	0x3b91376a	0.0044316547
55	0xbf5d55da	-0.86459124
56	0xbe39bcfb	-0.18138497
57	0xbf047c15	-0.51751834
58	0x3f0f4596	0.55965555
59	0x3f2bba00	0.6708069
60	0xbf36a2b8	-0.7134204
61	0x3e0afa80	0.1357212
62	0x3f27166c	0.6526859
63	0x3ef850f5	0.48499265
64	0xbea21a5e	-0.31660742
65	0xbe28203c	-0.16418546
66	0x3ead798e	0.338818
67	0x3db053fd	0.086097695
68	0xbeef7f28	-0.467767
69	0x3de6c103	0.11267283
70	0x3f133244	0.57498574
71	0xbf29bfa6	-0.6630806
72	0x3d9af460	0.07566142
73	0x3f0ec442	0.55768216
74	0x3ed7c96d	0.42145863
75	0xbf0277bb	-0.50963944
76	0xbe1e2276	-0.15442833
77	0xbe939e61	-0.2883177
78	0x3f1006bd	0.5626028
79	0x3dfe7e5d	0.12426446
80	0xbeee6a52	-0.4656549
81	0x3f1cadff	0.61202997
82	0x3e9b3b2d	0.30318585
83	0xbf165874	-0.5872872
84	0xbee011e3	-0.43763646
85	0xbf2b5380	-0.66924286
86	0x3f360922	0.71107686
87	0x3b581796	0.0032973043
88	0xbba00c04	-0.004884245
89	0x3f1524b2	0.5825912
90	0x3efb34ef	0.49063823
91	0x3e4ec5ce	0.20192644
92	0xbf05b0ea	-0.52223074
93	0x3ecfa69f	0.4055681
94	0x3e80342b	0.250398
95	0xbf3405b2	-0.7032119
96	0xbad1ff21	-0.0016021469
97	0x3e8f04c0	0.2793331
98	0x3dca07e2	0.09864785
99	0x3cb85e14	0.022505797
100	0x3f90dedd	1.1318012
101	0x39890a2d	0.00026138258
102	0xbf11a7e1	-0.5689679
103	0x3e830f4f	0.25597617
104	0xbede1f39	-0.43383196
105	0xbf1dbdec	-0.6161792
106	0xbe6eba84	-0.23313338
107	0xbf11cbdc	-0.5695169
108	0x3f0bb9a1	0.5458012
109	0x3e2d9ab2	0.16953543
110	0xbee2e899	-0.44318083
111	0xbea4492e	-0.32087082
112	0xbec6dca7	-0.3884022
113	0x3ec7dabc	0.3903407
114	0xbece7890	-0.40326357
115	0x3f2081fd	0.62698346
116	0x3f1c6747	0.6109509
117	0x3f1e03f8	0.61724806
118	0xbeb5bc7f	-0.35495374
119	0x3d69c082	0.057068355
120	0x3f1b29ef	0.6061086
121	0xbf09ceb7	-0.53831047
122	0xbf476d5b	-0.7790124
123	0xbf46c59c	-0.7764528
124	0xbd3c702d	-0.046005417
125	0x3d9dfa55	0.07713763
126	0xbee1bea3	-0.44090757
127	0xbe70453c	-0.23463911
128	0xbeaf7a52	-0.3427301
129	0xbf344312	-0.7041484
130	0x3f2789d2	0.6544467
131	0x3dbafe6c	0.09130558
132	0xbf2712ce	-0.6526307
133	0x3f25636f	0.6460485
134	0x3e842a5b	0.25813565
135	0xbe8329b4	-0.25617754
136	0xbf0d85ac	-0.5528209
137	0xbe329b20	-0.17441988
138	0xbbaf6fe4	-0.0053539146
139	0xbf1ae3b5	-0.60503703
140	0x3eb1de9e	0.34740156
141	0x3e9bae95	0.30406633
142	0x3bbef8b4	0.0058279876
143	0x3f2d2ee5	0.6764968
144	0x3e9f4316	0.3110587
145	0xbef237ae	-0.47308105
146	0xbe82e1b3	-0.2556282
147	0xbece2c44	-0.40268147
148	0x3e094ebe	0.13408944
149	0x3998b35d	0.00029125335
150	0x3f363f0c	0.7118995
151	0xbaeacdb8	-0.0017914092
152	0x3efb87ea	0.49127132
153	0xbe94a6a3	-0.29033384
154	0xbe8eddc8	-0.2790358
155	0x3f1c8216	0.61135995
156	0x3e06af90	0.1315291
157	0x3bbc443c	0.005745439
158	0xbf0b7117	-0.54469436
159	0xbb009633	-0.0019620776
160	0xbe60e4bc	-0.21962255
161	0x3f49a8d3	0.7877323
162	0xb9fcb29b	-0.00048198257
163	0x3e27abd0	0.16374135
164	0xbd2490c9	-0.04017714
165	0x3e2ba691	0.16762759
166	0x3e53f44e	0.20698664
167	0x3e8aad25	0.27085224
168	0xbeb49cb6	-0.3527581
169	0xba85eb25	-0.0010217173
170	0xbeb15d06	-0.34641284
171	0xbeb03331	-0.34414056
172	0xbe6c746e	-0.2309129
173	0xbee94a54	-0.4556452
174	0x3e182b4f	0.14860271
175	0xbe8da69a	-0.2766617
176	0xbf0d696f	-0.55239004
177	0x3ec2eedc	0.3807286
178	0x3e525dd1	0.205436
179	0xbe9af693	-0.30266246
180	0x3e5094d2	0.2036927
181	0xbee6c6c2	-0.45073515
182	0xbf1d8b42	-0.61540616
183	0x3e322a58	0.17398965
184	0xbbce3351	-0.0062927385
185	0xbf402223	-0.7505209
186	0xba2a46f4	-0.0006495558
187	0xbe159216	-0.14606509
188	0x3b958113	0.004562506
189	0x3f0b91f7	0.545196
190	0x3ee82fbb	0.45348915
191	0x3ed23cd3	0.4106203
192	0x3e9b3be5	0.30319133
193	0x3f13bb56	0.57707727
194	0x3eba8048	0.36425996
195	0xbdb45ace	-0.08806382
196	0x3f320b75	0.6954873
197	0x3f11e9f6	0.5699762
198	0xbf27ecf5	-0.6559594
199	0xbf29a975	-0.66274196
200	0xbf18807f	-0.5957107
201	0x3f194581	0.5987168
202	0x3f1a3b8e	0.60247123
203	0x3dc2fcba	0.0952086
204	0x3eec5aec	0.46163118
205	0xbde2fcfa	-0.11083408
206	0x3f2e5763	0.6810209
207	0xbf2f2e07	-0.6842961
208	0x3efd6ea9	0.4949849
209	0x3f13afff	0.57690424
210	0x3eadc40d	0.33938637
211	0xbaa8f3da	-0.0012890056
212	0xbdd63d96	-0.10460965
213	0x3e30a742	0.17251304
214	0x3f1f2bf1	0.62176424
215	0x3e81fd52	0.2538858
216	0x3f188b5f	0.59587663
217	0x3e86000d	0.26171914
218	0xbea4cb33	-0.3218628
219	0xbf3ac000	-0.7294922
220	0xbf811ae2	-1.0086329
221	0xb906e59c	-0.00012864772
222	0xbe1e04c6	-0.15431508
223	0x3ee8c237	0.45460674
224	0xbf0f494a	-0.55971205
225	0x3ece2b5e	0.40267462
226	0x3f39c394	0.72564054
227	0x3f17460a	0.59091246
228	0x3e1426ea	0.1446797
229	0x3ea79bd4	0.32736075
230	0xbe37192f	-0.178807
231	0xbf36bd71	-0.71382815
232	0xbf30baa5	-0.69034797
233	0x3f30ea81	0.69107825
234	0x3e9ae8d2	0.30255753
235	0xbf280b72	-0.65642464
236	0x3f225993	0.6341793
237	0xbecb40ab	-0.39697775
238	0xbf1360b2	-0.5756942
239	0xbefed70e	-0.4977345
240	0x3f1b9b30	0.6078367
241	0x3ae864ad	0.0017730199
242	0x3ecc0c73	0.39853248
243	0x3f0230c3	0.50855654
244	0xbe49bdcd	-0.1970131
245	0x3f46f58b	0.7771842
246	0x3f0e8722	0.55674946
247	0xbe7ea241	-0.24866582
248	0x3f100266	0.5625366
249	0xbe08a323	-0.13343482
250	0xbf277c18	-0.6542373
251	0xbdb86ab8	-0.0900473
252	0xbefd98bc	-0.4953059
253	0xbe7dc12d	-0.24780722
254	0xbe531f48	-0.20617402
255	0xbf195af0	-0.59904385

model.0.bias f4 [128]
0	0xbf00122d	-0.50027734
1	0xbeb1bcb3	-0.3471428
2	0xbc60d79c	-0.01372328
3	0xbf54c235	-0.83108836
4	0xbf3a3741	-0.7274056
5	0x3e5d57a6	0.21615466
6	0x3f2f5d39	0.6850162
7	0x3f76d007	0.96411175
8	0x3ccb352d	0.02480563
9	0x3ea9d44e	0.33169788
10	0x3f0ba741	0.54552084
11	0xbe81d2be	-0.25356096
12	0xbc90c07c	-0.017669909
13	0xbf845374	-1.0337968
14	0xbf221286	-0.63309515
15	0xbee4c0c6	-0.44678324
16	0x3ec752d9	0.38930395
17	0xbdc39747	-0.09550338
18	0x3f1aa359	0.604055
19	0xbc034924	-0.008013044
20	0xbecdffb2	-0.40234143
21	0x3ec088e5	0.37604442
22	0x3f452da6	0.7702278
23	0x3ee62349	0.44948795
24	0xbebd3bc5	-0.36959663
25	0xbcaa8d12	-0.02081922
26	0xbedb3a26	-0.428178
27	0x3ebdb3bd	0.37051192
28	0x3f4c7ceb	0.7987811
29	0x3edd0e62	0.43175036
30	0xbf0c82ca	-0.5488707
31	0x3e75c8e5	0.24002416
32	0x3e5cf2c1	0.21576978
33	0x3f06289a	0.52405703
34	0xbf34a2ff	-0.7056121
35	0x3f1b0c07	0.6056523
36	0x3f1b779a	0.6072937
37	0xbd804d67	-0.06264763
38	0x3f37cda9	0.7179819
39	0x3bbe7ce1	0.0058132266
40	0x3f3cad7c	0.73702216
41	0x3e9239c8	0.2855971
42	0x3f03e015	0.515138
43	0xbcf06deb	-0.029349288
44	0xbe89b142	-0.2689305
45	0x3f0c8a42	0.54898465
46	0xbee8e7e0	-0.45489407
47	0xbaea312c	-0.0017867438
48	0xbf3560a7	-0.70850605
49	0x3f19a92a	0.6002375
50	0xbf12711b	-0.57203835
51	0x3cf50a78	0.029912218
52	0xbea8b82c	-0.32953012
53	0x3eee0fba	0.46496373
54	0x3d5e5e2c	0.054289028
55	0xbf0d49ab	-0.55190533
56	0xbc237fbf	-0.0099791875
57	0x3e9ce63f	0.30644414
58	0x3c4decc9	0.012568661
59	0xbea76d71	-0.32700685
60	0xbedc9630	-0.43083334
61	0xbeb896fa	-0.36052686
62	0x3c5282b9	0.0128485495
63	0x3e867d63	0.26267537
64	0xbf09e7f6	-0.5386957
65	0x3ea549e8	0.32282948
66	0x3f1fe109	0.6245275
67	0x3e78d198	0.24298704
68	0xbf1f3ca6	-0.6220192
69	0xbb6c0b6a	-0.0036017545
70	0xbf80e71d	-1.007053
71	0x3b5bbcef	0.0033529361
72	0xbe3f1073	-0.18658619
73	0xbc32c20f	-0.010910525
74	0x3f2bc1c0	0.67092514
75	0x3ea0f940	0.31440163
76	0xbe604be2	-0.21903947
77	0xbeadf293	-0.33974132
78	0x3f3589be	0.709133
79	0x3cbab408	0.022790924
80	0x3f199303	0.5998995
81	0x3f3b6fd5	0.7321752
82	0xba107f04	-0.0005512091
83	0xbf40c697	-0.75303024
84	0xbf9e9d72	-1.2391798
85	0x3e21f4aa	0.15815988
86	0x3f42d1d9	0.7610145
87	0xbe113707	-0.14181148
88	0xbf53242a	-0.82477057
89	0x3f06fc32	0.5272857
90	0x3c59b61b	0.013288046
91	0xbf0cf5ec	-0.55062747
92	0xbb54fcfe	-0.0032499428
93	0xbeba0d38	-0.3633821
94	0x3b07f09a	0.0020742775
95	0x3e3eef47	0.18645965
96	0x3e9933ac	0.29922235
97	0x3f0b0533	0.5430481
98	0xbe6c885e	-0.23098895
99	0xbf20bc6a	-0.627875
100	0xbe900f5f	-0.28136727
101	0xbee2bb7b	-0.4428366
102	0x3d015ead	0.03158443
103	0x3c9410f7	0.018074496
104	0xbef204fb	-0.47269425
105	0xbf5e1c4b	-0.8676192
106	0x3cae38be	0.021267291
107	0x3f28a3bc	0.6587484
108	0x3d806e3a	0.06271024
109	0x3ba326f3	0.0049790083
110	0x3f791e84	0.9731219
111	0x3e84bd3a	0.25925618
112	0xbe8aec46	-0.27133387
113	0x3f1f3b5d	0.62199956
114	0xbeab93f1	-0.33511308
115	0x3ecf1768	0.40447545
116	0xbf283aa7	-0.65714496
117	0x3ec37e1b	0.38182148
118	0x3cdbaf71	0.026817055
119	0xbf15441f	-0.5830707
120	0xbf56db85	-0.8392871
121	0xbeb1144a	-0.34585792
122	0xbeba92d8	-0.36440158
123	0xbd30522f	-0.043047126
124	0xbe797408	-0.24360669
125	0x3f0ed4d8	0.55793524
126	0x3eb570cd	0.35437623
127	0x3f1adc5e	0.60492504

model.2.weight f4 [128, 128]
0	0x3d2317f9	0.039817784
1	0xbc1d0582	-0.009583833
2	0xbbc735c6	-0.0060794083
3	0x3d591c59	0.05300555
4	0xbdaac9bd	-0.0833926
5	0xbd179423	-0.03700651
6	0x3d88cbc1	0.06679488
7	0x3d81b276	0.06332867
8	0xbc038806	-0.008028036
9	0xbdc15094	-0.09439197
10	0x3cc7cfc7	0.024391068
11	0x3d4a83ee	0.049442224
12	0xbb960615	-0.0045783618
13	0xbd466b06	-0.04844191
14	0xbd8b40ba	-0.06799455
15	0xbbc77a7d	-0.0060876
16	0x3b2c7fca	0.0026321285
17	0x3c25c6a5	0.010118161
18	0xbd3ec9ed	-0.04657929
19	0x3d7b467b	0.061346512
20	0x3cc3dc3b	0.023908725
21	0xbda72f97	-0.08163374
22	0xbd1157f5	-0.035484273
23	0x3d05bc55	0.03265031
24	0xbd61af33	-0.055098724
25	0x3d4bb68f	0.04973465
26	0x3d76df4a	0.06027154
27	0x3cf26e1d	0.029593522
28	0x3b5186c2	0.003197119
29	0xbce3c28d	-0.02780273
30	0xbd99d371	-0.075110324
31	0x3d05a3c6	0.03262689
32	0x3d755a7a	0.05990074
33	0x3ca23f2b	0.019805511
34	0xbd8e74e8	-0.06955892
35	0x3cdc3f0e	0.026885536
36	0xbc4767b3	-0.01217072
37	0xbcdc2631	-0.02687368
38	0x3d819c14	0.06328598
39	0xbcf10dba	-0.02942549
40	0xbd25d73f	-0.040488478
41	0x3ca12bcb	0.019674202
42	0xbdb1eef5	-0.086881556
43	0x3c62e712	0.013849037
44	0x3bed9ab6	0.007251109
45	0x3cf46790	0.029834539
46	0xbd4acdc1	-0.04951263
47	0x3c441e62	0.011970134
48	0xbd8c6865	-0.06855849
49	0xbd5a00ba	-0.05322335
50	0xbd4d1685	-0.050070304
51	0xbd8148ea	-0.063127354
52	0x3d935342	0.071936145
53	0xbd3dd197	-0.04634246
54	0xbd97a2d6	-0.07404105
55	0xbcc876ca	-0.024470706
56	0xbd98767c	-0.07444474
57	0x3cb4a3f2	0.022050831
58	0xbda40f9c	-0.0801079
59	0xbd9cd8ed	-0.07658563
60	0x3d275db8	0.04086086
61	0x3d13bc73	0.03606839
62	0x3d70659a	0.058690645
63	0xbd27fdd4	-0.041013554
64	0x3c904dfc	0.01761531
65	0xbc3a67c6	-0.011377281
66	0x3d289297	0.041155424
67	0xbcf4b30d	-0.029870534
68	0xbd845e9f	-0.0646336
69	0xbd08f203	-0.033433925
70	0xbd52f31a	-0.05150137
71	0xbc8f0398	-0.017457768
72	0xbd34922b	-0.04408471
73	0x3d894201	0.06702042
74	0xbd78ddb6	-0.060758315
75	0x3c541c6b	0.0129462285
76	0xbda9d298	-0.08292121
77	0xbcca0900	-0.024662495
78	0xbd60c14a	-0.054871835
79	0x3d0caef4	0.034346536
80	0xbdc7b5f5	-0.097515024
81	0x3c98b894	0.018642701
82	0x3d4783a4	0.048709527
83	0x3d3b24ef	0.04568952
84	0xbbf23508	-0.0073915757
85	0xbda3744e	-0.07981168
86	0xbd555886	-0.052086376
87	0xbda7c254	-0.08191362
88	0xbb0193c7	-0.001977192
89	0x3d040f43	0.032241117
90	0xbd1dac2e	-0.03849428
91	0x3d7b0734	0.061286166
92	0xbd3c74f1	-0.04600996
93	0xbb96b9c8	-0.0045997836
94	0x3ca9ccf8	0.02072762
95	0xbdc92f2e	-0.09823452
96	0x3c59e44a	0.013299057
97	0xbc57087e	-0.013124583
98	0xbd3c486d	-0.045967508
99	0x3c40b6cc	0.011762332
100	0xbdb83b98	-0.089957416
101	0x3cdd450b	0.027010461
102	0xbdd35176	-0.10318272
103	0x3c59ae2d	0.013286156
104	0x3c3abb5e	0.011397211
105	0xbd7a1d58	-0.06106314
106	0x3d93d86d	0.07219014
107	0x3cb974a2	0.022638623
108	0x3cab7ef1	0.020934554
109	0xbd0ac5d9	-0.03388009
110	0x3be989ac	0.0071270075
111	0xbd807aa0	-0.06273389
112	0x3cb8f7ac	0.022579037
113	0x3d454c25	0.04816832
114	0xbd6796fb	-0.05654047
115	0x3d292b36	0.041300975
116	0x3d9a9e85	0.075497665
117	0xbdcd30ac	-0.10019049
118	0x3d819242	0.063267246
119	0x3d91d013	0.07119765
120	0x3d7b3754	0.061332062
121	0xbc7bcc67	-0.015368558
122	0xbd87ff48	-0.06640488
123	0xbd5f0335	-0.054446418
124	0x3d5d9945	0.054101247
125	0xbc9b3b16	-0.018949073
126	0x3d9586cc	0.07301101
127	0xbd819acf	-0.063283555
128	0xbd119550	-0.035542786
129	0x3d7b38b2	0.061333366
130	0x3d2d6ed7	0.042342033
131	0x3cb73cdd	0.022367889
132	0xbce79ac0	-0.028272033
133	0xbcf5a150	-0.029984146
134	0xbd52079f	-0.0512768
135	0xbcfa2c8c	-0.03053882
136	0x3d2ac27f	0.041689392
137	0x3db42228	0.08795577
138	0x3d896a94	0.06709781
139	0xbce9f215	-0.028557817
140	0xbdc0fb8a	-0.09422977
141	0xbd669764	-0.05629672
142	0x3d23889d	0.039925206
143	0x3da19d44	0.07891324
144	0x3d2dd1c0	0.04243636
145	0xbc6487a0	-0.013948351
146	0x3cbcb508	0.023035541
147	0x3d821026	0.06350736
148	0xbcfefcb8	-0.031126365
149	0x3df4e81b	0.11958333
150	0x3d8df533	0.06931534
151	0x3e3f8f4b	0.18707006
152	0x3ad11297	0.0015950975
153	0x3dab85cc	0.08375129
154	0x3d972ab5	0.073811926
155	0x3a89129a	0.0010457814
156	0xbcd9467c	-0.026522867
157	0xbd37f42b	-0.04491059
158	0x3cd12a8b	0.025532981
159	0x3dab28d6	0.08357398
160	0x3da4b58c	0.0804244
161	0x3cf64359	0.03006141
162	0x3d4266d3	0.047461342
163	0xbd1ca5b9	-0.038243983
164	0xbd7e55dd	-0.062093604
165	0x3d347d06	0.044064544
166	0xbd6cef40	-0.057845354
167	0xbca04446	-0.019563805
168	0xbcab8f8f	-0.020942478
169	0xbd7a606a	-0.061127104
170	0xbca82bc6	-0.020528685
171	0x3e1eb05c	0.15496963
172	0x3d2a1f97	0.041534033
173	0x3de3f2dd	0.11130307
174	0xbd205046	-0.039139055
175	0xbdbf42cf	-0.093389146
176	0xbe3cd199	-0.1843933
177	0xbd1206d8	-0.035651058
178	0xbe2adeb1	-0.16686513
179	0x3ccc801c	0.024963431
180	0xbd814282	-0.063115135
181	0x3c1f2b14	0.0097148605
182	0xbccb07c6	-0.02478398
183	0x3d417e7c	0.047239766
184	0xbb8ea5b8	-0.0043532513
185	0x3cfac343	0.030610686
186	0x3d130508	0.03589347
187	0xbc23faf3	-0.010008561
188	0x3da1024b	0.078617655
189	0x3cc17952	0.02361742
190	0x3d361c5d	0.044460643
191	0xbd739dd3	-0.059476685
192	0x3cfcdbd4	0.030866541
193	0xbdcb0182	-0.09912397
194	0x3ba0cebc	0.004907457
195	0x3c4c8d7a	0.0124849025
196	0xbda2c655	-0.07947985
197	0xbd0ff335	-0.03514405
198	0xbcf55c7d	-0.029951328
199	0x3df7f9c9	0.121081896
200	0xbd40d63f	-0.04707932
201	0xbc6fd24c	-0.014637541
202	0xbc80ee5d	-0.01573866
203	0xbe7ba277	-0.24573694
204	0x3cc77a22	0.02435023
205	0x3d464351	0.04840404
206	0xbc696870	-0.014246091
207	0x3dd102a9	0.102055855
208	0xbd43c083	-0.047791015
209	0xbddf593e	-0.109056935
210	0x3d8d9ef0	0.069150805
211	0x3d8e3927	0.06944495
212	0xbc653d49	-0.013991662
213	0xbc21e11f	-0.009880333
214	0xbd4720bd	-0.048615206
215	0xbc514d61	-0.012774796
216	0x3af0a875	0.0018360751
217	0x3d87f8d3	0.06639256
218	0x3d645618	0.055746168
219	0xbcbe102c	-0.02320107
220	0xbcab284f	-0.020893244
221	0x3c089757	0.0083368635
222	0x3d938d44	0.07204679
223	0xbd2a61a4	-0.041597024
224	0xbd6adcdb	-0.05733953
225	0x3c67813d	0.014129934
226	0x3df31809	0.11869819
227	0x3d704695	0.058661062
228	0xbda53493	-0.08066668
229	0xbd01e483	-0.031712066
230	0x3d2c6aba	0.04209397
231	0x3d869de5	0.06573085
232	0xbd677a6e	-0.056513242
233	0x3d2c794e	0.042107873
234	0x3cab3097	0.020897193
235	0x3d069a71	0.03286213
236	0x3d2a1cf5	0.04153152
237	0xbbec390a	-0.007208948
238	0x3e0870eb	0.13324325
239	0x3d5558c5	0.05208661
240	0x3dc26a23	0.094929
241	0xbd249a93	-0.040186476
242	0x3da39fa8	0.079894364
243	0xbd46e2df	-0.048556205
244	0xbd123670	-0.035696447
245	0x3daa377d	0.08311365
246	0x3dac4433	0.084114455
247	0x3d8a3d63	0.0674999
248	0xbe605159	-0.21906032
249	0xbafab6af	-0.001912793
250	0xbd1254a0	-0.035725236
251	0xbc4f5f6b	-0.012657027
252	0xbd095f3d	-0.033538092
253	0x3c07aaf8	0.008280508
254	0xbd442b10	-0.04789263
255	0x3d5f6c68	0.054546744

model.2.bias f4 [128]
0	0x3c271385	0.010197525
1	0xbcab50f9	-0.020912634
2	0x3d595b9f	0.053065892
3	0xbcf12d78	-0.029440627
4	0x3d1946d1	0.03742105
5	0xbd91be5e	-0.07116388
6	0x3e00b020	0.12567186
7	0xbd962415	-0.07331101
8	0x3d330649	0.043707166
9	0xb9ef8e5e	-0.00045691704
10	0xbdbb4911	-0.09144796
11	0x3d6f7a04	0.058465973
12	0xbc51ddbe	-0.012809215
13	0xbcc08aa7	-0.023503615
14	0xbd18de24	-0.037321225
15	0x3d810a3b	0.063007794
16	0x3d6a3f4c	0.05718927
17	0xbd8e486d	-0.06947408
18	0xbd02cb77	-0.03193232
19	0xbcf681c8	-0.030091181
20	0xbd6c2601	-0.05765343
21	0xbd189998	-0.037255853
22	0x3bdcbc5f	0.006736323
23	0xbdc1d173	-0.094637774
24	0xbd5a0110	-0.05322367
25	0x3c9edcec	0.019392453
26	0x3d0fe997	0.035134878
27	0x3ec25e24	0.3796245
28	0x3d51ab77	0.051188912
29	0x3cda7059	0.0266649
30	0x3c9917ca	0.018688101
31	0x3d321b3b	0.043483
32	0xbd66f887	-0.056389358
33	0xbdcd7c9d	-0.10033534
34	0x3d9cffdb	0.07665988
35	0xbc90bda2	-0.017668549
36	0x3d3962e2	0.045260318
37	0x3ccf6e27	0.02532108
38	0xbda52328	-0.08063346
39	0x3a8250d5	0.0009942303
40	0xbd2cecf3	-0.04221816
41	0xbd634038	-0.055481166
42	0xbd49a82e	-0.049232654
43	0xbcd3885f	-0.025821863
44	0xbd3ba67d	-0.045813072
45	0x3d893aca	0.06700666
46	0xbd22567b	-0.039633255
47	0x3ceb5866	0.028728675
48	0xbda6aedd	-0.08138821
49	0xbd69bdb7	-0.05706569
50	0xbc027ce0	-0.007964343
51	0x3d90de23	0.07073619
52	0xbcfe3f4d	-0.031036044
53	0xbc2e7512	-0.010648029
54	0xbda7b95a	-0.0818965
55	0xbd8b9ca1	-0.06816984
56	0xbd54dcbb	-0.051968317
57	0x3c6c6ff6	0.01443099
58	0x3c53f70d	0.012937319
59	0x3d2bca2e	0.04194086
60	0xbd962163	-0.07330587
61	0xbdcb995e	-0.09941362
62	0xbd7f0f62	-0.06227053
63	0xbca2d549	-0.019877093
64	0x3d736bc0	0.05942893
65	0x3d29a649	0.041418348
66	0x3cab6601	0.020922663
67	0x3d69def4	0.05709739
68	0xbca23086	-0.019798528
69	0x3c78ba20	0.015181094
70	0xbce27cfe	-0.027647492
71	0xbb38112c	-0.0028086407
72	0x3c823cb2	0.015898082
73	0x3d55eddf	0.052228805
74	0x3d1ee043	0.03878809
75	0xbd9b1f50	-0.07574332
76	0xbe75d62e	-0.24007484
77	0xbd22eae1	-0.03977478
78	0x3c10bdbf	0.0088343015
79	0x3d2e428c	0.042543933
80	0xbd83ae9c	-0.064297885
81	0xbd9a3caf	-0.07531106
82	0xbd1095d2	-0.03529913
83	0x3d03aac1	0.032145265
84	0xbd087494	-0.033314303
85	0x3d804e1c	0.06264898
86	0x3ce9782f	0.02849969
87	0xbc75eaf3	-0.01500963
88	0x3d9c634a	0.076361254
89	0xbdb52262	-0.088444486
90	0xbd0bef49	-0.034163747
91	0xbc41f9d0	-0.011839345
92	0xb9ec3631	-0.00045053803
93	0xbd5114fd	-0.051045407
94	0x3d865fbb	0.06561228
95	0xbc7a7909	-0.015287646
96	0xbdb6ef8d	-0.089324094
97	0x3b72fee6	0.00370782
98	0x3d5a824e	0.053346924
99	0x3cdfdcf2	0.027327035
100	0xbdc4255a	-0.09577437
101	0xbbbe4808	-0.0058069266
102	0x3b84042e	0.0040288186
103	0xbdafc82c	-0.08583102
104	0xbd96c1da	-0.07361193
105	0xbd04ae90	-0.03239304
106	0x3d83c582	0.06434156
107	0x3d2e38f6	0.04253479
108	0x3d6eb729	0.058280144
109	0xbc746529	-0.014916697
110	0x3d48adfd	0.048994053
111	0xbdbb0836	-0.091324255
112	0xbcc56fc8	-0.024101153
113	0x3d9e57c8	0.07731587
114	0xbcec3c76	-0.028837424
115	0xbbdd16a9	-0.006747086
116	0xbd633eb4	-0.05547972
117	0xbdb61143	-0.08890011
118	0xbdd1071d	-0.10206435
119	0x3d8d6d9f	0.06905674
120	0xbd486d33	-0.048932265
121	0x3cbba766	0.02290697
122	0x3b2e5973	0.002660361
123	0xbd54c1f7	-0.05194279
124	0xbdc84923	-0.09779575
125	0x3c747d40	0.01492244
126	0xbda2808e	-0.07934676
127	0xbd923205	-0.07138447

model.4.weight f4 [1, 128]
0	0xbc92ed2b	-0.017935356
1	0x3e16a40c	0.14711016
2	0x3d2342a6	0.039858483
3	0xbcbc8da1	-0.023016753
4	0xbd0cbf09	-0.034361873
5	0xbd00c45d	-0.031437267
6	0x3fa9cea4	1.3266187
7	0x3d88484b	0.06654414
8	0xbd8d17aa	-0.06889279
9	0x3d13bfcb	0.03607158
10	0xbc5207fd	-0.012819287
11	0xbd5e5b06	-0.054286025
12	0xbd261a5e	-0.04055249
13	0xbd3935b2	-0.045217223
14	0x3d5ef88a	0.054436244
15	0x3dedb925	0.11607579
16	0x3d2d750c	0.042347953
17	0x3dceb9ec	0.100940555
18	0x3d7033e9	0.058643255
19	0xbd252123	-0.040314805
20	0x3c796118	0.015220903
21	0xbd52df98	-0.051482767
22	0x3d9d09a8	0.076678574
23	0xbd5fb070	-0.054611623
24	0x3e7eafb3	0.24871711
25	0xbcd05363	-0.025430387
26	0x3dbc60a5	0.09198121
27	0x3f471b63	0.77776164
28	0xbcf0c44b	-0.029390475
29	0x3e0a889b	0.13528673
30	0x3d3dd98e	0.046350054
31	0xbca1881a	-0.019718219
32	0xbd082929	-0.03324238
33	0xbd46e9a0	-0.048562646
34	0x3d9d9a98	0.07695502
35	0x3d479ec6	0.048735403
36	0x3d6746fe	0.056464188
37	0x3dbd964e	0.09257184
38	0xbd8fe1a3	-0.07025459
39	0xbcd1f2ba	-0.025628436
40	0x3d6a749c	0.057240114
41	0x3d61a6a4	0.05509056
42	0x3da9bd44	0.08288053
43	0x3db3d670	0.08781135
44	0x3ce49284	0.027901895
45	0xbc4e37b5	-0.012586524
46	0x3d498e22	0.049207814
47	0x3df5d15b	0.12002822
48	0x3da7d0e3	0.08194139
49	0x3dda8e00	0.106716156
50	0x3d9ad128	0.07559425
51	0x3d449d2f	0.048001464
52	0xbb675243	-0.0035296835
53	0x3d4270c3	0.04747082
54	0xbd9c0461	-0.07618023
55	0xbc83429b	-0.01602297
56	0x3d9f1bab	0.07768949
57	0xbd224b32	-0.039622493
58	0xbd7ece03	-0.062208187
59	0xbd50e06f	-0.050995287
60	0xbd3f8bb1	-0.04676408
61	0xbc92d4ae	-0.01792368
62	0x3de07bb2	0.10961093
63	0x3d9ee4ea	0.07758506
64	0x3df1ba67	0.118031316
65	0xbccc533f	-0.024942039
66	0x3e9f0f3f	0.3106632
67	0x3d5e7098	0.054306597
68	0x3df82299	0.12115974
69	0xbd44ab0d	-0.04801469
70	0xbd70b709	-0.058768306
71	0xbd4931b2	-0.04911966
72	0x3d7ab66c	0.061209127
73	0xbd7159f6	-0.058923684
74	0xbcbe1f71	-0.023208352
75	0x3dc518c3	0.096238635
76	0x3f21aad2	0.63151276
77	0x3d5cf0a9	0.05394045
78	0x3db2d932	0.08732833
79	0xbce4c07b	-0.027923813
80	0x3d25c7f2	0.040473886
81	0xbac66211	-0.0015135427
82	0x3dbad5b9	0.091227956
83	0xbbc561d6	-0.006023626
84	0xbd36b120	-0.044602513
85	0x3d2064df	0.0391587
86	0x3d34c7d7	0.044135895
87	0x3d2c5846	0.04207637
88	0x3d9f93d2	0.07791866
89	0xbb95a5b2	-0.0045668716
90	0x3d266bfe	0.040630333
91	0x3de07615	0.10960022
92	0x3dae7149	0.08517701
93	0xbb11b7ef	-0.0022234877
94	0xbd27ee02	-0.040998466
95	0x3da4d29a	0.080479816
96	0x3dddf236	0.10837214
97	0x3d4c8f32	0.04994125
98	0xbccb5e38	-0.0248252
99	0x3d2562f7	0.040377583
100	0xbd239743	-0.039939176
101	0x3da155ff	0.078777306
102	0xbbb54f1b	-0.0055331117
103	0x3d967624	0.07346752
104	0x3e3be898	0.18350446
105	0x3d9c6e8d	0.076382734
106	0xbd06d5ff	-0.032918926
107	0xbd15bc5b	-0.036556583
108	0x3d1d859d	0.0384575
109	0xbb449a04	-0.0029999027
110	0xbcf108d3	-0.029423153
111	0xbc0b2ea5	-0.008495008
112	0x3da16205	0.07880024
113	0x3d5a1cfc	0.053250298
114	0xbd829fbf	-0.063781254
115	0x3dbe8dc5	0.09304384
116	0x3db998df	0.09062361
117	0x3de04597	0.10950773
118	0xbd20282c	-0.03910081
119	0xbd90d474	-0.07071772
120	0xbd3c8372	-0.046023794
121	0x3d6639a4	0.056207314
122	0x3e035c70	0.12828231
123	0xbc9b27f4	-0.01893995
124	0x3dc44a13	0.09584441
125	0x3d943405	0.072364844
126	0xbd0a2821	-0.033729676
127	0x3e9a16fb	0.30095658
