models/2024-12-10_22-58-18/ackley_model.pt (torch, 70842 bytes, 5 tensors)

model.0.weight f4 [128, 2]
-0.47773826 0.005225763 -0.002533065 -0.4502091 -0.86929095 0.003006709 -0.5443964 -0.5476826
-0.09519369 0.15909098 0.8379103 7.048473e-05 0.44303203 -0.44860318 -0.041912004 -0.0022813512
0.22494656 -0.096206285 -0.00497318 0.3805998 0.0018692244 -0.9609624 0.35374674 0.3555661
0.45414445 0.46301228 -0.6176086 -0.22659943 0.09282122 0.041324474 0.33143523 -0.0012545198
-0.3266934 -0.52900094 -0.0013698534 0.32745868 -0.0042538983 0.64467883 -0.5739029 -0.0018057667
-0.26441196 0.41951826 0.006393499 -0.5504069 0.14966615 -0.6306858 0.6856268 -0.00029828213
0.33130983 0.33886525 -0.7958222 -0.0036114259 -0.09740352 0.0062567517 -0.30659184 -0.3455455
-0.0723487 -0.010995681 0.18410146 0.51975673 -0.29702058 0.2761164 0.4345355 -0.24920864
0.2997974 -0.12816393 -0.066212565 -0.058566198 0.13611077 -0.5663816 -0.032097127 0.06331577
-0.29307088 -0.2907589 0.027654067 0.0018666134 0.17202906 0.32432657 0.10830795 -0.028717585
-0.2862766 -0.14995235 0.22229479 -0.5949614 0.43555713 0.4241193 -0.47848636 -0.48119965
-0.89225274 -0.0043514795 0.35592782 -0.2297981 0.45301422 0.21090327 -0.26266825 -0.54554725
-0.44806644 0.19022647 0.46515933 0.0008208748 0.3660957 -0.47110513 0.0080400985 -0.08964828
0.14412169 -0.5914957 -0.08628016 0.013091498 0.00144078 0.6129317 -0.096301585 0.0009274108
0.55971 -0.32448542 -0.04030606 0.05392515 -0.019338528 -0.81909597 -0.0030825546 0.0044477247
0.0088854795 0.10521086 -0.20275658 0.20817587 -0.10822149 0.00080889807 -0.0044711977 0.7611099
-0.45309395 -0.4571841 0.23976408 -0.14448586 0.2866647 0.53575736 -0.40424785 0.40295038
0.24456577 0.32159603 0.26940897 0.268328 -0.024566831 0.5923347 0.46838954 -0.48877186
-0.33425543 0.55751693 -0.33599794 0.33148113 0.20425959 -0.2036935 -0.0086452635 0.05949965
-0.4813208 -0.36470145 0.3868408 -0.37583822 0.36493877 0.37471893 -0.6693835 0.058275394
0.28249967 0.51031977 -0.38311407 0.3768378 -7.169862e-05 0.2471574 -0.763018 -0.0059509715
0.25105152 -0.5121454 0.5838993 0.00027864813 -0.22188103 -0.5365195 0.0006340839 -0.47041214
-0.14406042 -0.14151144 -0.003076975 -0.68998426 -0.0060682017 0.49782115 -0.5069665 -0.5136793
0.18281634 -0.24231917 -0.00064636284 -0.72224367 -0.87014675 -0.12041982 0.004034263 -0.5197291
0.025892437 -0.06651145 0.8557545 -0.006532717 0.24802019 -0.5777387 -0.540091 -0.0014628584
-0.15706597 0.2992261 0.113915995 0.015873363 -0.34217766 -0.16458328 -0.6868246 0.4164333
-0.52839404 -0.21016958 -0.60335165 -0.32867184 0.0035334183 0.3414538 -0.45393282 0.1433629
0.003221895 0.36412436 -0.62005514 0.0049994024 0.27800712 0.118755706 0.12952746 0.63663614
-0.48110536 0.48231754 -0.97523654 0.0057938984 -0.20463304 0.45300782 -0.60668415 0.60482436
0.42672306 -0.15506066 -0.012950506 -0.76232785 0.31871033 0.6333046 -0.6942112 -0.41474646
-0.193775 0.62585324 -0.31897923 0.5411748 0.43738675 -0.11677123 0.66923934 0.3616172
0.006945266 -0.7451807 0.12122724 0.05446836 -0.16323458 0.07690865 0.46644998 -0.15741327
00000000: 1c9a f4be e13c ab3b c701 26bb cf81 e6be
00000010: da89 5ebf 350c 453b 905d 0bbf ed34 0cbf
00000020: e9f4 c2bd bfe8 223e 4a81 563f 34d1 9338
00000030: 18d5 e23e 51af e5be ecab 2bbd b982 15bb
00000040: 6458 663e cd07 c5bd 0ff6 a2bb fadd c23e
00000050: c300 f53a a201 76bf 4b1e b53e c30c b63e
00000060: 9f85 e83e f20f ed3e 991b 1ebf ae09 68be
00000070: 0d19 be3d da43 293d e1b1 a93e b36e a4ba
00000080: 5b44 a7be 9b6c 07bf a78c b3ba aaa8 a73e
00000090: 4964 8bbb ac09 253f 4deb 12bf 7aaf ecba
000000a0: 0161 87be 19cb d63e 8f80 d13b 77e7 0cbf
000000b0: 1542 193e a074 21bf 3d85 2f3f c062 9cb9
000000c0: 71a1 a93e bf7f ad3e 01bb 4bbf acad 6cbb
000000d0: 7f7b c7bd 7005 cd3b 9bf9 9cbe 57eb b0be
000000e0: 8e2b 94bd 3b27 34bc 1885 3c3e c70e 053f
000000f0: 1513 98be 215f 8d3e 707b de3e 8d30 7fbe
00000100: 0b7f 993e 683d 03be 749a 87bd 1ce3 6fbd
00000110: 9f60 0b3e 62fe 10bf 4778 03bd b3ab 813d
00000120: 630d 96be 5ade 94be c88a e23c 27a9 f43a
00000130: 6328 303e 220e a63e 8fd0 dd3d 2441 ebbc
00000140: d992 92be 1c8d 19be 3fa1 633e 644f 18bf
00000150: 5801 df3e 2a26 d93e 2afc f4be cd5f f6be
00000160: ad6a 64bf db96 8ebb 2c3c b63e 3150 6bbe
00000170: 7bf1 e73e 07f7 573e 747c 86be fca8 0bbf
00000180: f768 e5be baca 423e 5d29 ee3e fa2f 573a
00000190: e570 bb3e b134 f1be 9eba 033c 8499 b7bd
000001a0: a394 133e 436c 17bf a7b3 b0bd b97d 563c
000001b0: 8ed8 bc3a 18e9 1c3f c439 c5bd 7c1d 733a
000001c0: 2849 0f3f f422 a6be f817 25bd 9ee0 5c3d
000001d0: d56b 9ebc 46b0 51bf af04 4abb 38be 913b
000001e0: 6794 113c cb78 d73d 6c9f 4fbe 0e2c 553e
000001f0: 3ba3 ddbd 3b0c 543a 2083 92bb 19d8 423f
00000200: eefb e7be 0914 eabe b784 753e 1af4 13be
00000210: b7c5 923e 6527 093f 93f9 cebe 834f ce3e
00000220: 736f 7a3e 3ca8 a43e f9ef 893e 4a62 893e
00000230: 6140 c9bc 3fa3 173f c1d0 ef3e 4e40 fabe
00000240: 8723 abbe 6eb9 0e3f ec07 acbe e5b7 a93e
00000250: 6d29 513e 0795 50be dda4 0dbc e8b5 733d
00000260: ae6f f6be 26ba babe ff0f c63e de6d c0be
00000270: 41d9 ba3e 29db bf3e b85c 2bbf 2eb2 6e3d
00000280: cca3 903e 51a4 023f 8727 c4be e2f0 c03e
00000290: e75c 96b8 d416 7d3e 2655 43bf 5e00 c3bb
000002a0: d389 803e f61b 03bf 6d7a 153f 8517 9239
000002b0: c834 63be 5859 09bf a638 263a dcd9 f0be
000002c0: 9384 13be 60e8 10be 13a7 49bb cfa2 30bf
000002d0: c4d7 c6bb 6ae2 fe3e 8ec8 01bf 7d80 03bf
000002e0: 3534 3b3e 8422 78be ad70 29ba f6e4 38bf
000002f0: f0c1 5ebf ab9e f6bd da31 843b f70c 05bf
00000300: 601c d43c 2837 88bd ba12 5b3f 6710 d6bb
00000310: 01f9 7d3e afe6 13bf 6743 0abf 62bd bfba
00000320: e7d5 20be 2a34 993e ca4c e93d db08 823c
00000330: e931 afbe 8588 28be bdd3 2fbf bf36 d53e
00000340: d544 07bf b236 57be 4175 1abf ad47 a8be
00000350: ec90 673b 08d3 ae3e e269 e8be b9cd 123e
00000360: 6e26 533b 826e ba3e efbb 1ebf 07d2 a33b
00000370: f356 8e3e 3136 f33d d9a2 043e 96fa 223f
00000380: 7153 f6be 53f2 f63e 1aa9 79bf beda bd3b
00000390: 538b 51be a4f0 e73e a74f 1bbf c5d5 1a3f
000003a0: 727b da3e 39c8 1ebe 5c2e 54bc eb27 43bf
000003b0: 002e a33e 4020 223f d3b7 31bf a659 d4be
000003c0: f46c 46be eb37 203f 3f51 a3be 6f8a 0a3f
000003d0: 28f1 df3e c125 efbd 4553 2b3f e425 b93e
000003e0: 1d95 e33b 2ac4 3ebf fd45 f83d 371a 5f3d
000003f0: f726 27be 4882 9d3d 88d2 ee3e f230 21be

model.0.bias f4 [128]
0.3024952 -0.6356318 -0.46575293 -0.015385245 0.13780703 -0.8056807 -0.012416814 0.31008205
-0.05990275 -0.3948683 -0.3903495 0.32168666 -0.027934588 0.52838385 0.21365668 0.32120383
0.041974425 -0.014564591 -0.95774347 0.5614044 -0.7026411 0.5386786 -0.067635946 -1.0041027
-0.740565 -0.0290627 0.55576634 -0.30225578 0.36988062 -0.6983682 0.3373306 0.13820805
-0.07734821 0.59468275 -0.055329032 0.47365934 -0.1511828 0.48532853 -0.2122015 0.015507797
-0.26433814 -1.6274915 -0.2192315 -0.45871356 0.33203575 -0.0020481248 -0.87222904 -0.9729696
-0.22350341 -1.1740382 0.11663834 -0.15636341 -0.049854748 0.5019839 0.85905445 0.4705332
0.09829692 0.48484513 -0.49996638 0.016784985 -0.5686945 0.10579139 0.52868634 0.73052657
-0.020219572 0.25095382 -0.3055676 -0.41350082 -1.0216763 0.24470411 -0.46578255 -0.5291872
-0.014052031 -0.47279423 -0.5089929 0.50612396 -0.5309027 -0.5667975 -0.35916197 -0.93039733
-0.22647908 0.36472297 -1.1533604 -1.1819725 -0.32200953 -1.1746174 -1.2476006 -2.177665
0.2940574 0.2229574 -0.2631556 -0.011443729 -0.79617274 -0.012568566 -0.8999345 -1.3303145
-0.6790674 0.30978334 -0.09206618 -1.3799558 -0.14583817 -0.042557135 0.01162029 -0.09741661
-0.0853152 -0.15446413 -0.84907854 -0.3581385 -0.9030454 -0.0051826844 -0.03260524 -0.04055512
-0.0047276863 0.49722645 -0.5443142 -0.6166615 -1.303348 -0.029435778 -0.67422116 -0.081531666
-0.1979139 -0.04444789 0.037112027 -0.07460649 0.01357616 0.28240582 0.12182923 -0.48120642
00000000: a7e0 9a3e c4b8 22bf 2b77 eebe 6512 7cbc
00000010: 491d 0d3e 1741 4ebf e56f 4bbc 13c3 9e3e
00000020: 965c 75bd 2e2c cabe e4db c7be 1db4 a43e
00000030: 14d7 e4bc 2a44 073f d1c8 5a3e d474 a43e
00000040: 60ed 2b3d 53a0 6ebc ad2e 75bf 33b8 0f3f
00000050: 4ae0 33bf d7e6 093f b784 8abd 7086 80bf
00000060: ab95 3dbf e614 eebc b446 0e3f 45c1 9abe
00000070: fe60 bd3e 42c8 32bf 99b6 ac3e 6986 0d3e
00000080: bd68 9ebd 213d 183f b2a0 62bd 7a83 f23e
00000090: aacf 1abe fb7c f83e 5a4b 59be 6a14 7e3c
000000a0: 5457 87be a451 d0bf 397e 60be 81dc eabe
000000b0: 9700 aa3e d539 06bb 674a 5fbf 8914 79bf
000000c0: 14de 64be e246 96bf 15e0 ee3d bb1d 20be
000000d0: 7e34 4cbd 0482 003f feea 5b3f bae9 f03e
000000e0: e54f c93d 9f3d f83e 98fb ffbe aa80 893c
000000f0: f695 11bf 28a9 d83d fd57 073f ca03 3b3f
00000100: 84a3 a5bc 057d 803e 5b73 9cbe 61b6 d3be
00000110: 4ac6 82bf b793 7a3e 0d7b eebe d078 07bf
00000120: 7d3a 66bc 1612 f2be 5c4d 02bf 5791 013f
00000130: 3de9 07bf a419 11bf 14e4 b7be 852e 6ebf
00000140: 22ea 67be f8bc ba3e 50a1 93bf e04a 97bf
00000150: 6fde a4be dd59 96bf 60b1 9fbf dd5e 0bc0
00000160: b18e 963e f24e 643e 55bc 86be 7a7e 3bbc
00000170: fad1 4bbf 63ec 4dbc 1b62 66bf bf47 aabf
00000180: 5cd7 2dbf ec9b 9e3e 328d bcbd 64a2 b0bf
00000190: 9a56 15be 6450 2ebd 0763 3e3c 5c82 c7bd
000001a0: bcb9 aebd d82b 1ebe 365d 59bf ee5d b7be
000001b0: fc2d 67bf 82d3 a9bb 128d 05bd 201d 26bd
000001c0: b5ea 9abb 7794 fe3e 2d58 0bbf 87dd 1dbf
000001d0: 1bd4 a6bf 4d23 f1bc c299 2cbf 13fa a6bd
000001e0: f1a9 4abe fe0e 36bd c802 183d 4acb 98bd
000001f0: 8b6e 5e3c 7f97 903e 9a81 f93d b060 f6be

model.2.weight f4 [128, 128]
0.03909414 -0.026609624 -0.08039845 0.04940768 -0.003918294 -0.09982681 0.033253342 0.035424504
-0.0072853253 -0.093593195 -0.008301141 -0.033441365 -0.056760017 0.008333889 -0.11172573 -0.057950493
-0.031388316 -0.06250261 -0.056284912 -0.108990006 0.018126108 -0.04173172 0.038913663 -0.083777174
0.01886971 -0.07180519 -0.051703572 0.024462 -0.057044555 -0.087342665 0.05289207 -0.09481002
-0.09695342 0.05129041 -0.00033150142 0.0034070946 -0.08964875 0.006430669 -0.07883244 -0.117698394
-0.08094976 -0.09755489 0.006343496 -0.019296488 0.030108286 -0.09191172 0.01892052 -0.033450875
-0.091629975 -0.0549469 -0.020258939 0.025843143 -0.10810198 0.05401119 -0.116507664 -0.036236323
-0.09099882 -0.038629115 -0.08756189 -0.012624694 -0.016187025 -0.008086851 0.025131471 -0.09714269
0.045004506 -0.0041457294 -0.06773221 -0.06432026 -0.075410165 -0.030691577 -0.0560807 -0.07177507
-0.08769151 -0.047416158 0.015792232 -0.011209817 -0.024678433 -0.058318492 -0.01984813 -0.089962766
-0.036998797 -0.0382296 -0.07957929 -0.0470445 -0.07114417 -0.039104912 -0.10413674 -0.11259839
-0.012250759 -0.056362163 0.0074500353 -0.005303329 -0.11962048 -0.049799167 -0.0149932355 0.046998106
-0.08243318 0.037465807 -0.04259378 0.0056912373 -0.054709204 -0.13230874 0.04233307 -0.06503848
-0.035488553 -0.025036711 -0.14130405 -0.09907476 -0.13542096 -0.09161279 -0.08218306 -0.13359301
0.008173034 0.049685653 -0.050037026 -0.006802669 -0.098737255 0.039692424 -0.06325685 -0.04292353
-0.05217555 0.013254142 -0.033876434 0.036946956 -0.07346139 -0.09762295 0.04735419 -0.028952142
0.047556095 -0.051411156 -0.11833594 0.036489822 0.029806234 -0.11010303 -0.10909704 -0.10004094
-0.10108141 0.03441503 -0.026995242 -0.08709232 0.023372876 0.025971567 -0.027354203 -0.035868697
-0.054279335 -0.017114447 0.0085026845 -0.09885818 -0.10460242 -0.07931612 -0.09176869 -0.091477685
-0.014613342 0.009645343 0.05252201 0.004824508 -0.07723924 -0.08206833 -0.04425887 -0.05179196
-0.038419902 -0.0672108 -0.08627708 -0.031165777 0.035711773 -0.11251123 -0.0028294413 -0.10652762
-0.049950656 -0.110773906 -0.06057474 0.043230496 -0.09048087 0.01689534 -0.037023224 -0.012304291
0.03739368 -0.053754054 0.031786624 0.0019902384 -0.00281836 -0.057408508 0.032388385 -0.045725465
-0.06812776 0.03882091 0.034709807 -0.026250103 -0.03020489 -0.041141324 -0.09452259 0.04164903
-0.071678005 -0.007326127 -0.051896263 0.042378057 0.024797145 -0.13073406 -0.09714819 -0.09136829
-0.058943905 0.015353652 -0.057977647 0.020249706 0.019570617 -0.0216906 -0.05085756 -0.0040702457
0.009644125 -0.074771814 -0.04134807 -0.0044159475 -0.112057015 -0.086396776 -0.045285597 -0.05444836
-0.02451879 -0.09051133 0.042512123 -0.09000531 0.0011732366 0.02989576 -0.0016645135 -0.07554929
0.068586014 -0.0555285 -0.017100535 -0.072946176 -0.039732315 -0.117662765 0.0010881465 0.013397091
-0.012098688 -0.082363345 0.025662243 -0.12147285 -0.06996778 0.0037916487 0.026263831 0.02983965
-0.08621915 0.0017667091 -0.01038312 -0.09380687 0.03671528 -0.057832234 0.03231509 -0.020179626
-0.105041556 -0.09301871 -0.091785386 -0.08530227 -0.062711395 -0.026188321 -0.045164227 0.027638655
00000000: 2d21 203d 6dfc d9bc f1a7 a4bd b55f 4a3d
00000010: 0865 80bb 0072 ccbd a834 083d 4919 113d
00000020: bdb9 eebb caad bfbd 8201 08bc d0f9 08bd
00000030: 317d 68bd dd8a 083c 76d0 e4bd 7f5d 6dbd
00000040: 0991 00bd 5e01 80bd 028b 66bd 2736 dfbd
00000050: 347d 943c e1ee 2abd ef63 1f3d 5e93 abbd
00000060: a694 9a3c 990e 93bd 20c7 53bd 8864 c83c
00000070: 8da7 69bd b6e0 b2bd 5ba5 583d c12b c2bd
00000080: 848f c6bd e515 523d 5ecd adb9 9049 5f3b
00000090: c499 b7bd 5db8 d23b e772 a1bd db0b f1bd
000000a0: fdc8 a5bd dcca c7bd 1add cf3b ab13 9ebc
000000b0: a7a5 f63c 363c bcbd 35ff 9a3c c903 09bd
000000c0: 7fa8 bbbd 0010 61bd 13f6 a5bc 00b5 d33c
000000d0: 9264 ddbd d63a 5d3d 929b eebd 8a6c 14bd
000000e0: 975d babd 9039 1ebd a653 b3bd ced7 4ebc
000000f0: a79a 84bc b67e 04bc 84e0 cd3c bff2 c6bd
00000100: a556 383d e6d8 87bb 2fb7 8abd 57ba 83bd
00000110: a570 9abd e76c fbbc e0b4 65bd cffe 92bd
00000120: 9b97 b3bd 7237 42bd b65e 813c 61a9 37bc
00000130: 6d2a cabc 5fdf 6ebd 8c98 a2bc 663e b8bd
00000140: 0d8c 17bd a496 1cbd 77fa a2bd bcb1 40bd
00000150: 09b4 91bd 792c 20bd a545 d5bd fc99 e6bd
00000160: 68b7 48bc 03dc 66bd 6d1f f43b 8cc7 adbb
00000170: 95fb f4bd 36fa 4bbd 30a6 75bc 1681 403d
00000180: bad2 a8bd bf75 193d d176 2ebd 8f7d ba3b
00000190: c216 60bd f17b 07be 7165 2d3d e532 85bd
000001a0: 725c 11bd ca19 cdbc 02b2 10be b5e7 cabd
000001b0: cbab 0abe 7d9f bbbd 984f a8bd 9bcc 08be
000001c0: 30e8 053c 2f83 4b3d a0f3 4cbd ece8 debb
000001d0: c236 cabd 8694 223d cf8c 81bd 95d0 2fbd
000001e0: 08b6 55bd e727 593c 04c2 0abd b155 173d
000001f0: ed72 96bd 8bee c7bd 78f6 413d 0b2d edbc
00000200: 2eca 423d 8194 52bd 1d5a f2bd 5a76 153d
00000210: 342c f43c b37d e1bd 456e dfbd 44e2 ccbd
00000220: c503 cfbd c6f6 0c3d 2025 ddbc 755d b2bd
00000230: 7978 bf3c 53c2 d43c ec15 e0bc 0eeb 12bd
00000240: 0254 5ebd 9933 8cbc d84e 0b3c 2876 cabd
00000250: cb39 d6bd 7d70 a2bd 39f1 bbbd a758 bbbd
00000260: cc6c 6fbc 8007 1e3c 5221 573d e816 9e3b
00000270: 9b2f 9ebd 7113 a8bd ca48 35bd ce23 54bd
00000280: 305e 1dbd d1a5 89bd 0ab2 b0bd 5f4f ffbc
00000290: 8246 123d 4a6c e6bd 266e 39bb 272b dabd
000002a0: 0f99 4cbd 6edd e2bd 381d 78bd 7612 313d
000002b0: 094e b9bd 1968 8a3c aaa5 17bd f097 49bc
000002c0: 1e2a 193d 362d 5cbd b132 023d a96e 023b
000002d0: 3cb4 38bb 2f25 6bbd afa9 043d a04a 3bbd
000002e0: 9186 8bbd ad02 1f3d df2b 0e3d 750a d7bc
000002f0: 3f70 f7bc ce83 28bd 0f95 c1bd 2c98 2a3d
00000300: ebcb 92bd 0210 f0bb 2d91 54bd 9d94 2d3d
00000310: 6223 cb3c 26df 05be a1f5 c6bd 4c1f bbbd
00000320: 2a6f 71bd e28d 7b3c f879 6dbd b6e2 a53c
00000330: 8f52 a03c 7cb0 b1bc 0450 50bd b25f 85bb
00000340: 6402 1e3c f721 99bd 985c 29bd a7b3 90bb
00000350: 267e e5bd cbf0 b0bd 647d 39bd 3e05 5fbd
00000360: a1db c8bc 015e b9bd 3121 2e3d b454 b8bd
00000370: 4ac7 993a f4e7 f43c ce2b daba 96b9 9abd
00000380: d376 8c3d da71 63bd 6c16 8cbc ce64 95bd
00000390: 5abe 22bd 2df9 f0bd 23a0 8e3a 797f 5b3c
000003a0: 9339 46bc 1dae a8bd a039 d23c c2c6 f8bd
000003b0: 444b 8fbd 4f7d 783b 3f27 d73c 4872 f43c
000003c0: aa93 b0bd ec90 e73a f61d 2abc d11d c0bd
000003d0: c362 163d 7ee1 6cbd d45c 043d be4f a5bc
000003e0: 0720 d7bd 9880 bebd faf9 bbbd f5b2 aebd
000003f0: d56e 80bd e488 d6bc 20fe 38bd 766a e23c

model.2.bias f4 [128]
0.061768733 -0.06752267 -0.02779246 -0.010263862 -0.016096486 -0.07013723 -0.06483494 -0.11991489
-0.08190007 0.005468428 0.06609339 -0.04650852 0.011676921 -0.11864736 0.042772155 0.1751316
-0.010786933 0.105555676 -0.012354791 0.11226407 0.16729905 -0.10039178 -0.0008178342 -0.11267602
-0.8290879 0.01888142 -0.07654665 -0.1111272 -0.10912624 -0.070550956 0.04973071 -0.10266397
-0.12655558 -0.047470953 -0.03438371 -0.0567226 -0.015034964 -0.0242326 -0.0995718 -0.025992015
-0.03254673 -0.101213336 -0.07289443 0.010794839 0.044056147 -0.04790669 0.113939695 -0.042382974
-0.06485872 -0.051291093 0.05735299 -0.10128119 -0.12137393 0.007656118 -0.044527408 -0.015597387
0.028185017 -0.022379113 0.036192264 -0.024545338 -0.06683145 -0.0851692 -0.013764099 0.05784384
0.04663544 -0.13327087 0.0052575907 -0.036701918 0.028941605 -0.07762748 0.0015869671 -0.042814158
-0.121617064 0.011257759 -0.021685792 -0.108417496 -0.045948874 -0.100518264 0.03419688 -0.07961364
0.024246907 -0.07244717 0.048970625 0.06818299 0.019961998 -0.06356472 -0.1068801 -0.100958735
0.0371645 -0.095276244 -0.005613206 -0.09407279 -0.0823814 0.053980246 -0.07194284 0.029515594
0.019122226 0.046924833 0.034919877 -0.07652677 -0.010068076 -0.035755128 0.14649814 -0.06264792
-0.0434179 -0.03916522 -0.18759489 0.06670972 0.034278072 -0.022771897 -0.023699718 -0.100744635
0.03226014 -0.11047159 -0.059274077 0.05347706 -0.089870825 0.04372987 -0.06089524 0.017308086
-0.013703053 0.037667595 -0.022249289 0.02220914 0.047337398 -0.06154427 0.05228813 -0.09457935
00000000: 3601 7d3d 5349 8abd 03ad e3bc c229 28bc
00000010: c7dc 83bc 1ca4 8fbd 2ec8 84bd f095 f5bd
00000020: 39bb a7bd 8030 b33b f95b 873d b87f 3ebd
00000030: 8e50 3f3c 63fd f2bd db31 2f3d b355 333e
00000040: adbb 30bc 932d d83d c06b 4abc b4ea e53d
00000050: 7150 2b3e 359a cdbd ed63 56ba afc2 e6bd
00000060: 1b3f 54bf 35ad 9a3c 7dc4 9cbd a896 e3bd
00000070: 947d dfbd 057d 90bd 6eb2 4b3d 7d41 d2bd
00000080: c997 01be e770 42bd efd5 0cbd f555 68bd
00000090: 3655 76bc 7283 c6bc 4dec cbbd 35ed d4bc
000000a0: b84f 05bd f048 cfbd ad49 95bd d6dc 303c
000000b0: 3874 343d ce39 44bd 3759 e93d c599 2dbd
000000c0: a6d4 84bd 9c16 52bd f8ea 6a3d 836c cfbd
000000d0: e592 f8bd 2ce0 fa3b 5f62 36bd 2f8c 7fbc
000000e0: 44e4 e63c 6754 b7bc 573e 143d 4e13 c9bc
000000f0: edde 88bd 316d aebd d182 61bc aaed 6c3d
00000100: ce04 3f3d 2978 08be de47 ac3b c054 16bd
00000110: f216 ed3c 28fb 9ebd c801 d03a e65d 2fbd
00000120: 5e12 f9bd 7772 383c 67a6 b1bc fe09 debd
00000130: e334 3cbd 85dc cdbd 0712 0c3d 7a0c a3bd
00000140: 73a1 c63c 2f5f 94bd 6c95 483d 86a3 8b3d
00000150: 5887 a33c 382e 82bd f4e3 dabd 74c3 cebd
00000160: ce39 183d 3120 c3bd fcee b7bb 3ca9 c0bd
00000170: 94b7 a8bd 641a 5d3d c556 93bd b0ca f13c
00000180: 37a6 9c3c 4134 403d 2508 0f3d 11ba 9cbd
00000190: 92f4 24bc f873 12bd 9c03 163e 8d4d 80bd
000001a0: f8d6 31bd b66b 20bd e018 40be 1b9f 883d
000001b0: 2a67 0c3d 218c babc e925 c2bc 3453 cebd
000001c0: 3523 043d ee3e e2bd 60c9 72bd c30a 5b3d
000001d0: 320e b8bd 181e 333d 4a6d 79bd b0c9 8d3c
000001e0: c582 60bc 5649 1a3d 2444 b6bc f1ef b53c
000001f0: dce4 413d d815 7cbd 142c 563d d1b2 c1bd

model.4.weight f4 [1, 128]
-0.0083569735 -0.034596294 0.0008354911 0.55338395 0.0064951507 0.10817899 0.010489484 -0.032904
-0.021397738 0.105611324 0.093106814 0.012846287 -0.010135148 0.0063728658 0.024985295 0.51281685
0.077690676 0.22018018 -0.04883589 0.61300975 1.231259 0.034641623 -0.014562195 -0.05542061
-1.1675205 0.12869252 -0.053653598 -0.009700696 -0.032725275 0.4281741 0.20296772 0.08637688
-0.033344913 -0.053057525 0.078606926 -0.038395684 -0.022882588 0.09636236 -0.038417105 -0.02202462
0.08173441 0.025533859 -0.04174202 -0.044479188 0.08757535 -0.027084334 0.5838587 0.09383879
-0.001171098 0.09931088 0.080914445 -0.012442158 0.0062595936 -0.054983843 -0.0577054 0.14550246
0.06627794 -0.009101028 -0.03234064 0.081738934 -0.021193305 0.4902448 0.086052395 0.18017532
0.089093536 0.13389431 0.11150296 0.35965082 0.46079403 -0.0073337057 0.015335559 0.009899157
0.0028529952 0.023898445 0.019408505 -0.02587195 0.19816981 -0.028531723 0.099436685 -0.020315416
0.1630036 0.43286532 0.054546945 0.26576763 0.05858602 0.087755986 0.24541597 -0.016096948
0.09728992 -0.044803187 0.1331913 0.14375661 0.105438024 0.10784027 -0.037429415 -0.0043935818
0.1855896 0.04842158 0.03785587 0.062431164 0.008658842 0.015534882 0.37026405 -0.013935298
0.13693097 0.122123115 -0.12167635 0.20828529 0.002162392 0.004448125 0.38953096 0.029571064
0.001113329 -0.025505535 0.006321266 -0.046197023 0.005755093 0.09527827 0.07316041 -0.01327446
-0.02993995 0.121267535 0.07081344 0.014987322 0.020590026 0.09341252 0.15217628 -0.040575303
00000000: b0eb 08bc d8b4 0dbd dc04 5b3a 92aa 0d3f
00000010: 46d5 d43b f28c dd3d 16dc 2b3c 58c6 06bd
00000020: 4f4a afbc c04a d83d c9ae be3d 3c79 523c
00000030: e40d 26bc 79d3 d03b f6ad cc3c f747 033f
00000040: 4a1c 9f3d ea76 613e 2408 48bd 35ee 1c3f
00000050: e599 9d3f 60e4 0d3d 4696 6ebc b900 63bd
00000060: 5071 95bf f9c7 033e e0c3 5bbd abef 1ebc
00000070: f00a 06bd a339 db3e c5d6 4f3e 5de6 b03d
00000080: ad94 08bd d952 59bd abfc a03d cb44 1dbd
00000090: 4474 bbbc a159 c53d 415b 1dbd fa6c b4bc
000000a0: 5f64 a73d 622c d13c aef9 2abd cf2f 36bd
000000b0: b55a b33d f7df ddbc c477 153f 8d2e c03d
000000c0: 877f 99ba 8163 cb3d 79b6 a53d 31da 4bbc
000000d0: 471d cd3b bd36 61bd 7f5c 6cbd 99fe 143e
000000e0: bbbc 873d 7a1c 15bc 9e77 04bd be66 a73d
000000f0: 959d adbc 5e01 fb3e 3d3c b03d e17f 383e
00000100: ac76 b63d 971b 093e aa5b e43d 2724 b83e
00000110: 32ed eb3e 954f f0bb ff41 7b3c 1330 223c
00000120: 51f9 3a3b acc6 c33c 96fe 9e3c 69f1 d3bc
00000130: 07ed 4a3e 5cbb e9bc 76a5 cb3d 846c a6bc
00000140: 6aea 263e 86a0 dd3e 9e6c 5f3d b212 883e
00000150: e5f7 6f3d 69b9 b33d 534e 7b3e bfdd 83bc
00000160: f03f c73d 8c83 37bd 4d63 083e ef34 133e
00000170: e4ef d73d 5cdb dc3d 964f 19bd 09f8 8fbb
00000180: 330b 3e3e b555 463d c20e 1b3d d2b7 7f3d
00000190: d1dd 0d3c 0586 7e3c 4093 bd3e e050 64bc
000001a0: a237 0c3e af1b fa3d 7331 f9bd bd48 553e
000001b0: ebb6 0d3b 94c1 913b 9a70 c73e 043f f23c
000001c0: 1fed 913a fcf0 d0bc 9f22 cf3b 1739 3dbd
000001d0: 3895 bc3b 4121 c33d 20d5 953d 1f7d 59bc
000001e0: a044 f5bc 1d5b f83d a306 913d 628d 753c
000001f0: 6aac a83c 104f bf3d 19d4 1b3e 4a32 26bd
