models/2024-12-10_22-58-18/rastrigin_model.pt (torch, 70872 bytes, 5 tensors)

model.0.weight f4 [128, 2]
000000 8c 03 bf 3e 9c 5e c0 bd 7f 4f 52 bc 29 25 25 3d
       0.37307394 -0.09393045 -0.012836336 0.04031864
000010 14 b8 37 3e 2c 4b 00 be ba 49 3b ba c7 66 5c 3f
       0.17941314 -0.12528676 -0.000714447 0.86094326
000020 2a 67 80 bc b6 ee ae bf ef f8 4c bf df 95 9f bb
       -0.015674192 -1.3666599 -0.8006734 -0.004870161
000030 ba d2 d6 3e 7c eb ba 3e 85 cc 05 3f 29 db 34 be
       0.41957647 0.36507785 0.522652 -0.17661728
000040 41 61 44 bf 7b 0a fb bd 0d 0d 1c bd 32 69 6e be
       -0.767109 -0.12257858 -0.038098384 -0.23282316
000050 89 31 cc 3e 6e d0 2f be 41 5f 28 bf 5d 13 46 3c
       0.39881542 -0.17169353 -0.65770346 0.0120895775
000060 ee 70 ba 3e e2 0b b8 bd 78 e0 03 3f 3c c5 cc 3d
       0.36414284 -0.089866415 0.5151439 0.09998557
000070 90 6b f5 b9 35 11 a4 3e f5 c2 88 be 4c 17 2d bf
       -0.00046810182 0.32044378 -0.2671124 -0.67613673
000080 5d 12 2d 3f 11 01 01 3f de 75 4e bd 6e c2 54 3e
       0.67606145 0.5039225 -0.050405376 0.20777294
000090 f1 59 ff 3e 89 99 01 bf 74 d4 86 ba e4 de fc be
       0.49873307 -0.506249 -0.0010286705 -0.49388802
0000a0 a1 b1 9f bf bf a1 05 3c 5d d2 38 3b 56 8d 0f 3f
       -1.2476083 0.008156239 0.0028201558 0.56075037
0000b0 94 c1 d1 3e 45 4b 4e 3b 7e bb 61 be 84 e6 94 3a
       0.40968 0.003147797 -0.22044179 0.0011360203
0000c0 d7 33 00 3f 5c 9c a4 be 28 17 7f 3e 56 8e e2 3e
       0.500791 -0.32150543 0.24911177 0.4424922
0000d0 76 56 01 3e f6 4a ac bd 29 1e f5 bf 9f c8 ea bc
       0.12630638 -0.08412735 -1.9149829 -0.028660117
0000e0 b3 ba 1b be 03 11 c3 3e 74 5b c0 bb 37 cb a9 bf
       -0.15207939 0.38098916 -0.005870277 -1.3265141
0000f0 d6 e2 2d 3d 16 8c b4 be 68 99 86 be da 38 17 bf
       0.042452656 -0.35263127 -0.26288915 -0.59071124
000100 27 25 c5 bd 15 83 c8 3e 71 55 46 3d db 0a 11 3e
       -0.09626227 0.39162508 0.048421327 0.14164297
000110 22 3f 20 3f 01 47 52 3e 1f 89 98 3e 45 2b 5d 3d
       0.62596333 0.20534898 0.29792115 0.053996343
000120 81 cf da ba b2 6b 82 be 1c b6 15 3f ef 0b 02 3f
       -0.0016693921 -0.2547279 0.58481 0.5079946
000130 e3 e9 30 3c 65 b7 92 bf 7d a1 b7 3c e5 06 83 3e
       0.01079795 -1.1462218 0.02241587 0.25591198
000140 d1 25 89 3f 10 45 4b bc 74 4b 4d 3f 24 30 9d bb
       1.0714666 -0.0124066025 0.8019326 -0.0047969986
000150 a2 85 fe 3e 44 27 9c bd 76 28 9f bf fa c9 08 bd
       0.4971133 -0.07624677 -1.2434223 -0.033395745
000160 b2 d4 b7 ba a0 09 19 3e 26 56 e1 3e 6f e5 ca bd
       -0.001402518 0.14945078 0.4401104 -0.09907042
000170 81 cf 8b bf 1f 42 2d bc 3f 2d d3 3e f7 2e 02 3f
       -1.09227 -0.0105748465 0.41245458 0.5085291
000180 f6 da a0 3e 05 2c cb be 5e ed 43 3e 63 f1 25 3f
       0.31417054 -0.39682022 0.19133517 0.6482145
000190 8e b8 01 3f 06 f7 56 3e 80 eb c7 be 3e aa d0 bd
       0.50672233 0.2099267 -0.3904686 -0.10188721
0001a0 60 3e bf 3d 04 7e 8a 3e 0a 2e 33 3e 95 3a c7 bc
       0.09338069 0.27049267 0.17498031 -0.024319926
0001b0 58 5b 82 bf 81 33 50 3d b2 8c 8d 3a c1 33 39 3f
       -1.0184126 0.050830368 0.0010799377 0.72344595
0001c0 ed d5 fc 3c 3e 69 73 3e 56 d5 1f bf 2e 28 40 3c
       0.030863727 0.23770615 -0.624349 0.01172833
0001d0 92 26 90 be 4c 39 b5 3a d4 e3 27 3f 1d 50 6e ba
       -0.28154427 0.001382628 0.65582013 -0.00090909173
0001e0 d7 f2 6c 3e 5b b2 03 bd c7 2a 15 be 19 02 31 3a
       0.23139511 -0.032152515 -0.145671 0.0006752327
0001f0 66 ee 20 3f 01 39 14 bb db 09 aa be c1 14 39 3d
       0.6286377 -0.0022616985 -0.33210644 0.045185808
000200 58 03 2b 3e c5 92 f2 be ae e0 0e 3f 1c 2e e5 3e
       0.16700494 -0.473776 0.55811584 0.4476174
000210 dc b2 83 ba 7f 80 a1 bf 75 a0 16 3f 86 3c 6e ba
       -0.0010047811 -1.2617339 0.5883859 -0.0009087998
000220 b1 6b 6c 3d a5 dd ae 3d c4 41 44 3f 23 77 0e 3d
       0.05771989 0.08538369 0.7666285 0.034781586
000230 90 e0 b3 ba 3f e9 1d bf ea aa a8 ba 8f bc 0c bf
       -0.0013723541 -0.6168403 -0.0012868319 -0.5497522
000240 e1 70 d8 3a 07 e9 46 3e e4 be 8d bf e4 5f ed 3c
       0.0016513133 0.1942483 -1.107388 0.028976388
000250 4b 4c af 3e c4 47 91 3e 26 62 98 ba 7e c0 9b bf
       0.34237894 0.28375065 -0.001162593 -1.2168119
000260 91 a0 2d 3e a3 8d b3 be 85 f5 d5 be 4d e3 83 3e
       0.16955782 -0.35068998 -0.4178888 0.25759354
000270 2a db 1f bf 3f 31 8c be e7 8d c9 3c 93 a3 95 3d
       -0.6244379 -0.27381322 0.024603797 0.0730659
000280 e8 19 35 3e 5a d3 c9 3e 13 d8 36 3f 15 9e e5 3b
       0.17685664 0.3941906 0.71423453 0.0070073702
000290 bd e2 8f 3b 13 d9 14 3f 86 b1 a7 39 7d 50 e2 3d
       0.004391043 0.5814373 0.00031984987 0.11050508
0002a0 5e 31 f3 3d b3 55 09 3f 1c 29 28 3a 42 f9 e4 be
       0.118746504 0.5364639 0.0006414817 -0.4472142
0002b0 e7 9e 64 3e 2f 4c f0 be cf 87 40 3f a3 e6 78 be
       0.22326241 -0.46933123 0.7520723 -0.24306731
0002c0 ef d8 58 bf 80 89 40 3c af a1 1b 3f 2e 2d 18 3b
       -0.84706014 0.011751533 0.60793585 0.0023220289
0002d0 af da 70 3f a8 af f4 3a bc 5b 4c 3d 9e 8e b7 3e
       0.94083685 0.0018668072 0.049892172 0.35850996
0002e0 c6 1d c7 be c0 8e 1b bf 7c 46 39 bf 4a 9f 10 bf
       -0.38889903 -0.60764694 -0.72373176 -0.56493056
0002f0 c9 40 d2 b9 47 23 1b bf 36 0a c7 be 3f 38 fd be
       -0.0004010259 -0.60600704 -0.38874978 -0.49456975
000300 e5 07 0b 3f c8 68 2d 3f 9c 3b 38 ba 21 2c 4a bf
       0.5430892 0.6773801 -0.00070279255 -0.78973585
000310 c5 93 ab 3a e8 76 31 3f 59 b1 35 3d f6 21 13 be
       0.0013090303 0.6932206 0.044358585 -0.14368424
000320 fc 81 2b 3f 3d b4 34 bb 60 b3 93 3f b9 ca aa 3c
       0.66995215 -0.002757325 1.1539116 0.020848619
000330 11 e4 80 bf ca 1c b1 3e 51 b2 72 3e a5 9b 35 bf
       -1.00696 0.34592277 0.23700835 -0.7094062
000340 0b 85 45 3f e7 c7 ff 3d b7 b3 9a be 9c 30 af 3a
       0.7715613 0.124893 -0.30215237 0.0013365927
000350 e7 31 ac 3e 7c 61 f1 39 f9 1b 00 3c cb 9f 7c bf
       0.33631822 0.00046039734 0.007819169 -0.98681325
000360 b0 b5 84 bb b1 bf be 3f 07 d9 82 3f 98 1d 17 3c
       -0.004049979 1.490225 1.0222481 0.009223364
000370 d6 49 97 3a 25 f0 3a 3f 77 3b 6c be 2f b4 00 bf
       0.001154239 0.7302268 -0.23069559 -0.5027494
000380 77 72 e4 3c 0f 77 3d bf 7e fc c6 be b8 c1 e7 3a
       0.027886612 -0.74009794 -0.3886451 0.0017681634
000390 18 e8 1b 3b 76 56 0d 3f 21 5e d6 3a 8c a8 6e 3f
       0.0023789462 0.55210054 0.0016354957 0.9322593
0003a0 16 ba d4 3e a6 c2 07 be 2f db 66 3e 22 26 8e 3e
       0.41548222 -0.13257846 0.2254455 0.27763468
0003b0 9f ed 5b 3e 3a 80 d0 3d 78 4d 8f 3d ec ff 9d 3e
       0.21477364 0.10180707 0.06997198 0.30859315
0003c0 6c 10 b8 3b bb 63 16 bf f6 22 a7 3e 0a 9e 83 3d
       0.005617192 -0.58745927 0.3264386 0.06426628
0003d0 8f 39 86 be 00 76 96 3e b2 7a 5f 3e af 1f 8a be
       -0.2621579 0.29386902 0.21824148 -0.26977298
0003e0 88 ce fe 3a e9 8a 14 3f ba df c0 3a e4 2e 6a 3f
       0.0019440213 0.5802446 0.0014715113 0.914778
0003f0 d5 bd a3 3e d4 ed c9 bd d6 74 95 b9 26 77 3f bf
       0.31980768 -0.09859815 -0.00028506544 -0.7479118

model.0.bias f4 [128]
000000 9b 1b 3d bd b9 6a 19 3d 08 a4 7c bf 9b e3 9e bf
       -0.046168905 0.037455294 -0.9868779 -1.241321
000010 b6 23 47 3f 74 78 c7 bf 0e f0 70 bd d1 d7 0d 3f
       0.77788866 -1.5583634 -0.058822684 0.55407435
000020 09 1d b5 bf 1e b7 6c 3f 61 75 5e 3e a1 eb 23 3f
       -1.4149486 0.92466915 0.21724464 0.64031416
000030 b2 9d 58 bd 89 e9 aa bf c8 68 4a 3f 5e 68 fd be
       -0.052884765 -1.3352519 0.79066133 -0.49493688
000040 b4 0b e2 3e 2f cf 5c be 38 c6 b1 3e 86 75 0a 3f
       0.44149554 -0.2156341 0.3472154 0.54085577
000050 f8 3f ba 3b 43 a1 8a 3f 38 04 4c 3f 03 54 df 3e
       0.005683895 1.0830463 0.7969394 0.43618783
000060 d5 b0 93 bc 8b 43 64 be 99 00 b8 3e 0d bb 59 bf
       -0.018028656 -0.2229139 0.35937956 -0.8505104
000070 99 6a cb 3e 30 a8 15 3d 01 ef 87 bf ac 17 49 3e
       0.39729765 0.03653735 -1.0619813 0.19637936
000080 47 ba cb 3e df 4d 17 3f d6 b3 14 bf 46 27 a2 be
       0.39790556 0.59103197 -0.5808691 -0.31670588
000090 54 99 16 be 4d da 40 bd 02 76 53 3c 23 91 07 be
       -0.14706928 -0.047083188 0.012906553 -0.13238959
0000a0 5b 29 85 3f c5 ee 47 bf 79 02 84 bf a3 57 bf bd
       1.0403246 -0.7809871 -1.0313255 -0.09342887
0000b0 47 c0 e1 3e 25 2c 29 bf d1 47 48 bf bc 53 5c bf
       0.44092008 -0.66082984 -0.78234583 -0.8606527
0000c0 86 46 2f bf 43 ab 06 3f 1f 96 ed bd 1e ee b0 3f
       -0.68466985 0.52605075 -0.11600899 1.3822668
0000d0 e4 f2 51 bf b3 36 1d 3f 79 f5 d9 bd bd 85 b5 3e
       -0.82011247 0.6141159 -0.10642523 0.35453597
0000e0 da f6 77 be c6 75 1b 3f 89 d7 0e 3f 03 a0 a6 bf
       -0.2421526 0.60726583 0.5579763 -1.3017582
0000f0 63 99 4f 3f b1 ac 93 3e ad 0d 9f be 60 fc 75 3f
       0.81093425 0.2884269 -0.3106512 0.9608822
000100 8c 27 f8 3e 3b f5 8f 3e d8 7f a6 bf 7d 7d 95 bf
       0.48467672 0.28116783 -1.3007765 -1.1678921
000110 15 46 36 3f 51 2e cf 3e d3 d6 2c 3f 8d 2d 1a 3f
       0.71200687 0.40465024 0.67515296 0.60225755
000120 5f fd 2b 3f 01 fb 71 bf 7f 7a 44 bf 83 ab e6 bf
       0.6718349 -0.94523627 -0.76749414 -1.8021091
000130 c6 64 dd be 94 9d 2e bf 9d 9c af be 53 3e 9a 3e
       -0.43240947 -0.68209195 -0.34299174 0.30125675
000140 41 91 08 3d 82 94 83 bf ae 98 5c bf 66 b8 35 bf
       0.03334165 -1.0279696 -0.8617047 -0.70984495
000150 ed dd 7f bc b1 47 8d bf f4 5b f0 bd 7c 1b 2f bf
       -0.015616876 -1.1037503 -0.11736289 -0.6840131
000160 f3 8a 52 3f 1c 66 e7 bf b6 f1 af 3f 7a 45 8b 3f
       0.8224327 -1.8078036 1.3745639 1.0880578
000170 17 ee a9 3e 58 6a 84 be 2a 0c 9a 3f 96 82 1f 3f
       0.3318946 -0.25862384 1.2034962 0.62308633
000180 b2 3f 1c bf 90 cf c8 3f c6 42 00 c0 19 e6 93 be
       -0.6103469 1.5688343 -2.0040755 -0.28886488
000190 85 34 aa be a4 e9 0c bf 10 85 8f 3d 1b d5 3d bf
       -0.33243194 -0.5504401 0.070078015 -0.741533
0001a0 09 43 b8 bf ab 2f 41 3f 76 6d 81 3f 88 87 cb 3e
       -1.4395458 0.7546336 1.011153 0.3975184
0001b0 f2 a2 ac bf 3c 94 70 3f 82 44 b7 3e 6b 3b 42 3f
       -1.3487227 0.9397619 0.35794455 0.75871915
0001c0 6f 14 0a 3f 7b 18 45 3f 99 08 b3 bf f1 20 ea 3e
       0.5393743 0.7699048 -1.3986999 0.45728257
0001d0 ca ec 06 3f 9a 24 61 bf 94 00 51 3f 06 b3 5d be
       0.5270506 -0.87946475 0.8164151 -0.21650323
0001e0 95 88 dd bf 14 22 5c 3f 48 af 98 3e 15 fa 9a 3f
       -1.7307307 0.859895 0.2982123 1.2107569
0001f0 f4 0d 90 3f 83 6d e5 3e 68 ae 7f bf 01 87 bb bf
       1.1254258 0.44810113 -0.998755 -1.4650575

model.2.weight f4 [128, 128]
000000 3f 02 d5 bc 0a 80 2c 3d c1 21 95 3c a3 91 5e bd
       -0.026002048 0.042114295 0.018204572 -0.05433811
000010 14 59 c8 bd 04 f9 a0 3c 79 85 1d 3d 77 4e 36 bd
       -0.09782615 0.01964999 0.038457368 -0.044508424
000020 22 a6 94 bd b1 ca 9b bd 02 70 c7 3c 6b cb bf bd
       -0.0725825 -0.0760702 0.024345402 -0.09364971
000030 c4 7c 56 bd 1f 89 93 bd 40 78 e9 bd 5d 2d 3d 3c
       -0.05236508 -0.07203888 -0.11399889 0.01154646
000040 c9 9a a4 bd 0a 62 a1 bd 14 05 c7 39 56 06 35 bd
       -0.080373354 -0.078800276 0.0003796002 -0.044195496
000050 96 ff 5d bd ce 5e dd bd d5 da 0a bd 01 9b af 3d
       -0.054198824 -0.10809098 -0.0339001 0.085744865
000060 ba a7 39 bd 7b 62 45 3d 25 fb e2 bd ce bc 49 bd
       -0.045325972 0.04818962 -0.11083058 -0.049252324
000070 be 17 31 bd 46 9b d7 bc 20 75 1b 3d 43 62 66 3d
       -0.043235533 -0.026319157 0.037953496 0.056246053
000080 68 9b 62 3c d4 37 a9 bd bd 51 37 3d 2f 27 db 3c
       0.013830997 -0.082626015 0.044755686 0.026752083
000090 2b 90 aa bd 0c ad 9e 3c 02 e3 d6 3c 31 e8 9d bd
       -0.08328279 0.019369625 0.026231293 -0.077103026
0000a0 cd cc 1b bd a3 2f a3 3c 1d c0 04 3d 20 5e 61 3c
       -0.03803711 0.019920176 0.032409776 0.013755351
0000b0 2e 1e 0b bd 12 36 e8 bd 00 45 28 bd e7 24 d2 bd
       -0.03396433 -0.11338438 -0.04108143 -0.10260945
0000c0 2a 38 d4 bd be 1e 91 3b e7 73 39 3c fd 63 3d bd
       -0.10362275 0.0044287136 0.011319137 -0.046237934
0000d0 97 6b f8 bc ee 0b 52 bd eb db a1 bc 4d 1a e4 bd
       -0.03032474 -0.05128091 -0.019758185 -0.11137829
0000e0 88 dc a5 bc 93 e6 8a 3d cd d7 e1 bd 2d 8c a4 bd
       -0.020246759 0.0678226 -0.11027489 -0.08034549
0000f0 98 40 36 bc e0 be da bc bc a5 9e bd 74 66 ed bc
       -0.011123799 -0.026702344 -0.07746455 -0.028979518
000100 ac a7 f7 3c 29 9c b9 bd 73 c6 3d bd f5 77 01 3d
       0.03023132 -0.09062988 -0.046331834 0.03160854
000110 0b 53 c6 bd cf 70 48 bd f4 e5 ec bd 13 c4 a6 bd
       -0.09683808 -0.048935708 -0.115672976 -0.08142867
000120 50 05 8d bc a9 49 21 bc 13 25 72 bd 61 48 61 3b
       -0.017214447 -0.009844222 -0.059117388 0.0034375417
000130 6d a8 02 3c b4 df 86 bd f5 3b a4 bd 80 5c 87 3c
       0.007974726 -0.06585637 -0.080192484 0.0165236
000140 ba 58 c5 bd 1a 97 0e bb 2a dc fa bc 80 18 0c 3a
       -0.09636064 -0.0021757544 -0.03062256 0.0005344227
000150 69 4d 02 3d 97 84 8c bd 00 12 d2 bd fc 09 30 3d
       0.031812105 -0.06861227 -0.102573395 0.04297827
000160 12 cc 89 bd 0d e2 bc bc 93 7e 6c 3d 74 75 51 bc
       -0.067283764 -0.023057008 0.057737898 -0.012784351
000170 03 5d 85 3c 5d f1 2f bd 56 55 2c 3c 1d ef 8c ba
       0.016279703 -0.04295479 0.010518393 -0.0010752414
000180 ba 10 e4 bd 4e 5f cb bd d6 e6 4c bd 50 87 31 bd
       -0.11136003 -0.09930287 -0.05002483 -0.043341935
000190 a6 e8 9a 3c d3 b0 ae 3c 09 16 6f bd 80 3f 28 bd
       0.018909764 0.02132455 -0.058370624 -0.041076183
0001a0 0a bf 7c bd 9f 83 bd bd d3 25 2e bd 1d 28 41 bd
       -0.061705627 -0.0925362 -0.04251654 -0.047157396
0001b0 80 84 88 ba 80 3f b1 bd 20 7a 46 bc 82 3e d0 3c
       -0.0010415465 -0.0865469 -0.012114078 0.025420431
0001c0 d6 d4 2a bc 63 68 e4 bd 3c 36 6c bd f5 88 2c bd
       -0.010426721 -0.11152723 -0.05766891 -0.0421228
0001d0 30 d7 9c bc 28 6f ab bd e7 e2 8a bc c6 a4 cd bd
       -0.019145578 -0.08370811 -0.016953899 -0.10041194
0001e0 ce af 87 bd cb 68 46 3c 72 35 fe bc f3 81 d5 bc
       -0.06625329 0.0121099455 -0.031031344 -0.026062941
0001f0 11 87 ed bd 6b 04 43 bd 31 05 40 3c f4 cf 5b 3c
       -0.115980275 -0.047611635 0.011719988 0.013416279
000200 90 1b 41 bc ee 1c cc bd 14 84 c6 bc 0c 55 42 3d
       -0.011786357 -0.099664554 -0.024232902 0.04744439
000210 e4 82 c1 bc 09 ba 1c bd 2c 48 59 3d 68 31 ec 3c
       -0.023621984 -0.038263354 0.053047344 0.028832152
000220 ed b8 d5 bd 35 cb ab bd 55 73 9a 3d d0 90 4c bd
       -0.104356624 -0.08388368 0.07541529 -0.04994279
000230 30 6d 07 3d da da b0 bd 6a b3 98 3a ec 3d 14 3d
       0.033063114 -0.086354926 0.0011650149 0.036191866
000240 12 60 b3 bd 97 33 9a 3c f9 e3 2b bd 18 49 dc bc
       -0.08758558 0.018823428 -0.04196546 -0.026890323
000250 b4 b7 28 bc 77 9e 11 bd be 2e 4a bc 25 2b b4 bd
       -0.0102977045 -0.035551514 -0.012340246 -0.08797292
000260 28 9c 07 3d 7a ad 12 bd e0 73 be bb 0a 23 aa bc
       0.033107907 -0.03580997 -0.005812153 -0.020768661
000270 20 4a 34 bd 47 f7 a7 bd 99 74 28 bd de 76 cf bd
       -0.044016004 -0.08201461 -0.04112682 -0.10130094
000280 00 66 8d 3c 81 b3 34 bd cf 0f 1e bd b4 f2 02 bd
       0.017260551 -0.0441165 -0.038589295 -0.03196974
000290 67 45 ac 3d ca f2 1c 3d 6a ef 5f 3d 1a 6e 2b bd
       0.08411675 0.03831748 0.054671682 -0.041853048
0002a0 6e 39 85 bd 20 c9 5a bc a0 4d 05 3b aa 32 4d 3c
       -0.065050945 -0.013353616 0.0020340458 0.012524286
0002b0 9a fe 51 3d 46 27 29 3d da 00 08 3d b1 20 1e bd
       0.051268198 0.04129722 0.033203937 -0.038605396
0002c0 14 a0 8c bd 79 97 88 bd 1b 28 86 bd 90 d1 c2 bd
       -0.0686647 -0.06669516 -0.06550618 -0.09512627
0002d0 d5 3a a2 bd 0f 2b b2 bd 39 df d5 bc 6e fe 47 bd
       -0.079213776 -0.08699619 -0.026107417 -0.048826627
0002e0 02 dd 59 bd f9 ae 70 bd 14 aa c0 bd ed 20 4e bd
       -0.053189285 -0.058760617 -0.0940744 -0.05032437
0002f0 a0 14 68 bd 82 d7 18 bd 63 cf a7 bc 68 67 ea 3c
       -0.056660295 -0.0373149 -0.020484632 0.028613761
000300 fe 02 0d bd e2 e4 fc bc ec 89 d0 3c 62 c5 64 3d
       -0.03442668 -0.030870859 0.025456391 0.0558523
000310 b6 30 94 bc bd 96 82 bd 6c 21 4e bd a0 6d 1f bb
       -0.018089633 -0.06376407 -0.050324842 -0.0024326816
000320 6a 4c 29 3d 38 64 60 3d 52 6b de bd 61 4d 8c bd
       0.04133264 0.054783076 -0.108603135 -0.06850696
000330 bc 9b c3 3c 2d c4 31 bd b4 3c 60 bd 97 50 aa bd
       0.02387797 -0.04339998 -0.05474539 -0.083161525
000340 16 cc 8e bd 86 e5 ef bc de c1 f4 bc c6 e1 a4 bd
       -0.0697252 -0.02928425 -0.0298776 -0.08050875
000350 f2 cf 5a bd ec 44 8b bc 55 95 a0 bd c8 77 98 bd
       -0.05342097 -0.017000638 -0.07840983 -0.074447215
000360 ba 13 33 bd 1a 03 31 3d 10 f3 b2 bd 09 ce cc bd
       -0.043719985 0.04321585 -0.08737767 -0.100002356
000370 2b 87 41 bd 57 9c cb bb bc ae 0f 3d fb dd f1 bd
       -0.047248047 -0.0062137055 0.03507875 -0.118099175
000380 c0 0c 9d 3a 2a 6a 57 3a 27 87 c3 3c 48 ec 99 bd
       0.0011981949 0.0008217419 0.023868157 -0.0751577
000390 4a 19 6b bd 08 d5 94 3c eb 31 c0 3a ad dc 96 3d
       -0.057397164 0.018167987 0.0014663314 0.07366309
0003a0 3f d4 a8 3d e0 8e e4 bd 81 ae 93 3d fe 03 17 bd
       0.08243608 -0.11160064 0.07211018 -0.03686904
0003b0 79 af 87 bc ce c1 9d bd a1 68 26 bd bc 53 8f bd
       -0.016563164 -0.07702981 -0.040627126 -0.06998393
0003c0 60 e7 bb 3c 5d 41 14 3d d3 6e ad bd 42 db b8 bd
       0.022937477 0.036195148 -0.08468404 -0.09026195
0003d0 d6 19 39 3d 02 0f 02 3c 33 b6 07 bd b7 f5 db 3c
       0.045190655 0.007938148 -0.033132743 0.026850564
0003e0 50 da 66 3c 7f 78 1f 3d 40 37 eb 3c 25 bb 8c bd
       0.014090136 0.038933273 0.028712869 -0.068716325
0003f0 0b 6b 3f bd 7e 0e 12 3d 44 ae fe 3c d0 83 b0 bc
       -0.046732944 0.035658352 0.031088956 -0.021547228

model.2.bias f4 [128]
000000 2c c0 27 3d 8e 83 e5 bd 3e 32 67 3d 1d 17 04 3e
       0.040954754 -0.11206733 0.0564444 0.12899442
000010 2d 1a 97 bc 74 94 65 bd f0 0f 8d bc 84 08 5e 3d
       -0.018445099 -0.05604978 -0.017219514 0.05420734
000020 5d b3 75 bc de 42 32 bb c3 f4 bb bd f5 c8 09 bd
       -0.014996377 -0.00272005 -0.09177544 -0.033638913
000030 c9 d4 b1 bc 93 6e 92 3d c4 48 b5 bd 3a 65 c4 3c
       -0.02170791 0.071499966 -0.088517696 0.02397405
000040 b9 ae 09 3d c4 32 8f 3c 77 f5 31 bd a4 67 a7 bc
       0.033613894 0.017480262 -0.043446984 -0.020435162
000050 c7 b8 a2 3c a0 fd 05 3c 19 f1 bb bd cb cd c9 bd
       0.0198635 0.008178145 -0.09176845 -0.09853705
000060 ee d0 8a bc c3 e8 b4 bd 99 10 8b 3b 27 5e a4 3c
       -0.016945329 -0.08833458 0.004243922 0.020064427
000070 e7 47 d0 3d e2 67 87 bd 18 1e ae 3d 65 a7 4d be
       0.10169964 -0.06611611 0.08501834 -0.20083387
000080 db 71 ef 3d dd 97 f9 3c d8 35 6a bd 46 5a cf 3c
       0.11691638 0.030467922 -0.057180256 0.0253116
000090 5d 02 25 3d af 66 15 bd 72 33 4c 3d 92 4e 05 be
       0.040285457 -0.03647488 0.04985375 -0.13018253
0000a0 fb 22 df bc 8a d5 02 3d 32 06 14 bd c5 3a b9 bb
       -0.02723836 0.031941928 -0.03613872 -0.005652758
0000b0 ca 10 72 bc 80 20 4c 3d 1e 0d 8c bb ec 75 a0 bc
       -0.014774511 0.049835682 -0.0042740246 -0.01958748
0000c0 b5 3e 9d bd 50 d0 40 3d 07 78 4d bc e0 46 c3 3d
       -0.07677976 0.047073662 -0.012540824 0.09535003
0000d0 5f cb ab bc db e6 ce 3d 27 ab 65 3c 85 d1 b0 3c
       -0.020970998 0.10102626 0.014017857 0.021584282
0000e0 60 1d 93 3d bf 2c a6 3d c1 b0 a8 bc 28 1e 4d bc
       0.07183337 0.081140034 -0.020592095 -0.012519397
0000f0 51 dc b9 3d 52 90 dc 3d 98 77 9f 3d dd 9e 4d 3d
       0.09075225 0.107697144 0.077864826 0.050200332
000100 ff 6c c0 bc 2b a3 d6 3a a5 89 47 3d 36 a7 ff bd
       -0.023489473 0.0016375532 0.048715252 -0.12483065
000110 fe cf c5 bc 03 16 9f bd 7c b1 a0 bd f1 e6 42 bd
       -0.02414703 -0.0776787 -0.078463525 -0.047583524
000120 b5 2f 63 bd b7 44 96 bc 02 38 b8 bc bc ed e1 3b
       -0.05546542 -0.018343313 -0.022487644 0.006894795
000130 8c 32 43 bd fa 85 a2 3c 36 1b d7 bd df 06 df bb
       -0.047655627 0.019839276 -0.10503237 -0.006806239
000140 69 dd 82 bd 93 81 2e 3d 9b e3 84 3c 7a 82 d5 bd
       -0.06389887 0.04260404 0.016221812 -0.10425277
000150 92 40 cb bd 41 55 20 3c cf c2 45 bd cf 3f 9c bd
       -0.09924425 0.009785951 -0.048281487 -0.07629358
000160 60 4a 46 bc 40 4f 7a 3c d2 fe 40 bd 05 87 f2 3d
       -0.012102693 0.015277684 -0.047118016 0.11842159
000170 36 59 f0 3d a6 24 d2 3b 55 7c 2d bc be 14 a9 3d
       0.11735766 0.0064130602 -0.010588725 0.082559094
000180 56 b4 31 3d f1 e6 2d bd d8 fa 8e 3d 91 be 6c bd
       0.043384872 -0.04245657 0.069814384 -0.057798926
000190 b3 32 af bd 2f 92 82 3d 30 fb af bd 1a 72 1d 3d
       -0.08554592 0.063755386 -0.08592832 0.038438894
0001a0 47 4b f5 bd fc ed 72 bd 48 98 29 3d fd 91 80 ba
       -0.11977249 -0.05930899 0.041404992 -0.0009809133
0001b0 26 56 8b bd ea 9a 52 bd c7 c9 8e 3b 43 0f fb bd
       -0.06803541 -0.05141727 0.00435755 -0.1225877
0001c0 36 3b bc bd 2a cc 65 bd 6c 5e 44 39 44 3d 05 3d
       -0.09190981 -0.05610291 0.00018727191 0.03252913
0001d0 83 43 f8 3c 29 bf 1c 3b a2 a7 a7 bd 7a dc 89 bd
       0.03030563 0.0023917651 -0.0818627 -0.06731506
0001e0 32 6b a9 bd d3 05 86 bd 7a 80 31 3c c2 25 5b 3d
       -0.08272399 -0.0654408 0.010833854 0.053502806
0001f0 b7 d7 05 be d0 74 42 bd c6 d7 02 bd 05 0d 45 3d
       -0.1307057 -0.047474682 -0.03194406 0.04810812

model.4.weight f4 [1, 128]
000000 0e c9 e2 3c 64 6b 09 bd 2f 14 a2 3f af 8b 15 40
       0.027683761 -0.03354968 1.266241 2.3366506
000010 f8 2f 38 bd 08 6d 02 bb 45 02 66 3f 47 e1 4c 3f
       -0.04496762 -0.0019901413 0.89847213 0.80031246
000020 03 a5 38 bc 5e d4 18 40 88 5b fe 3a 10 3d a2 3c
       -0.011269811 2.3879619 0.001940594 0.019804507
000030 7f d3 ee 3c 44 e7 54 40 e7 89 4f bc d4 cb bb ba
       0.029153584 3.3266153 -0.012667156 -0.0014327713
000040 02 1d 39 40 70 0c 20 bd 64 69 16 40 c5 88 d5 3b
       2.8923955 -0.03907436 2.3501825 0.0065165483
000050 a2 16 b1 3c f6 d5 20 40 47 c1 71 bc 54 1f 8a 3c
       0.021617237 2.5130591 -0.014755554 0.016860642
000060 e7 14 26 bb 8e b9 08 bc e5 9c ba 3f 3a c2 80 bc
       -0.0025342049 -0.008345021 1.457913 -0.015717614
000070 cc 72 dc 3f b0 a3 4a bd f5 cc bf 3f fc 65 2b 3c
       1.7222533 -0.04947251 1.4984423 0.010461327
000080 5f 6c a3 3f c3 ff a9 3f 8a c8 26 bd 62 fc aa 3f
       1.2767447 1.3281177 -0.040718593 1.3358271
000090 59 ff 5f 3f 77 82 3f bd aa 7d 76 3f 41 1b 85 3a
       0.87499005 -0.04675528 0.962855 0.0010155217
0000a0 19 40 77 bc 7d ba 85 3f 57 16 3a bd be 23 f9 bc
       -0.015090966 1.0447537 -0.04543146 -0.030412551
0000b0 b2 2d 10 bd 26 c4 e9 3f 69 e1 23 40 87 b4 a3 3f
       -0.03519983 1.8262985 2.560633 1.2789468
0000c0 52 f0 40 3c fa 18 e3 3f 0d 36 07 bd 9d a5 0f 40
       0.011776047 1.7741997 -0.03301053 2.2444832
0000d0 32 02 2b 40 1c 60 91 3f c3 b9 08 bd f3 4e ea 3f
       2.672009 1.1357455 -0.03338028 1.8305343
0000e0 19 94 f7 3f 69 15 0d 40 40 50 f7 bc 26 2e 2b 40
       1.9342071 2.2044318 -0.030189633 2.6746917
0000f0 39 ca 4f 40 c8 17 e4 3f 3f 48 7c 3f 07 44 d5 3c
       3.2467177 1.7819757 0.9854774 0.026033415
000100 dd f7 85 3f f1 ab 44 40 d9 9c 17 40 9e 36 f2 bc
       1.0466267 3.0729945 2.3689482 -0.02956706
000110 47 c1 61 3f 1a a4 1b bc d7 24 13 3c e5 6b 88 3f
       0.8818554 -0.009499574 0.008980951 1.0657927
000120 b6 ea 4c bc 3c 6d c7 3c 34 3e 64 3c 88 aa 67 bd
       -0.012507131 0.02434408 0.013930846 -0.056559116
000130 50 e9 2c bd 94 fc 14 3c 6c 61 81 3c e5 21 a0 3f
       -0.04221469 0.009093422 0.015793525 1.2510344
000140 3e bf 29 bd 3d 95 79 3f 37 a8 45 40 74 10 9e 3c
       -0.04144215 0.97493345 3.088392 0.019294955
000150 1d ff 0c bc 44 a5 11 bd 97 ea 7d 3f c8 77 0a bc
       -0.008605746 -0.035558 0.9918608 -0.00845141
000160 9f 70 66 3c 8f 0e 79 bd 70 21 ea bc 6f 59 51 40
       0.014064937 -0.0608049 -0.028580397 3.2710836
000170 fb 64 6c 40 34 85 83 3c c0 2b 78 bb e0 b4 2f 3f
       3.6936634 0.016054727 -0.0037867874 0.6863537
000180 e4 d1 2e 40 24 f9 a6 bc c5 1f 21 3f 6e db 2e bd
       2.7315607 -0.020382471 0.629391 -0.042689733
000190 c6 b6 5f bd 91 41 1f 40 c0 c1 71 3c 6d 75 02 40
       -0.054617666 2.4883769 0.014755666 2.038417
0001a0 9e 78 e6 bc 0b 93 b8 bb 9b 81 41 bc 32 9d 14 40
       -0.028133687 -0.0056327633 -0.0118106855 2.3220944
0001b0 46 a6 23 bd 8c 19 21 bd 2c 4a 15 bc 30 a2 b2 3c
       -0.039953493 -0.039331004 -0.009111922 0.021805853
0001c0 da e7 a6 bc 51 b1 2b 40 e4 4a cf 3c 79 54 c8 3a
       -0.020374227 2.6826975 0.025304265 0.0015283964
0001d0 84 eb 95 3f b2 6b bf 38 c1 9a 85 3c c1 94 3a bc
       1.1712499 9.1276495e-05 0.016309144 -0.011388005
0001e0 40 6c f7 3a 85 a3 b6 bc af 65 97 3f c3 17 c6 3c
       0.0018876866 -0.022294769 1.1827906 0.024181252
0001f0 32 2a ac 3c 21 f6 79 bc af 4d 4b bc b1 25 70 3f
       0.021016214 -0.015256436 -0.012408658 0.9380751
