models/2024-12-10_22-58-18/rosenbrock_model.pt (torch, 70882 bytes, 5 tensors)

model.0.weight f4 [128, 2]
1.6723744 -0.3440123 1.2549746 -0.12237716 -1.2562703 -0.12948886 1.369924 -0.035083503
-1.2128475 -0.07128201 1.4409751 0.06552722 -1.37055 -0.4059815 -1.2968582 -0.16024013
-0.9341839 -0.06172534 1.3246863 -0.07758809 -1.225063 -0.069257215 1.399691 -0.08436844
-1.2071398 -0.07425592 1.1345414 -0.06343803 1.1325815 -0.34977195 -1.1612821 -0.078577675
1.4488044 -0.046621475 -1.6722847 -0.41774172 2.144313 -1.3183334 -0.88613343 -0.04630903
-1.0672302 -0.059806515 -1.2522556 -0.05891238 -0.9473704 -0.041919086 -1.9323678 -0.6595711
-1.3156815 -0.111303076 1.5537083 -0.11099855 1.7901864 -0.13017415 -1.1538824 -0.09462134
1.8581872 -0.2521552 1.4120584 -0.07404311 -1.2737187 -0.08038181 -1.0053843 -0.11063824
1.6412181 0.22953506 -1.0964321 -0.21390006 1.2355726 -0.070087135 1.1949407 -0.07137664
1.1193471 -0.06328439 -2.2204545 -0.048684977 1.3389012 -0.083198704 1.5967673 -0.3275744
1.4822541 -0.151683 -1.2527673 -0.07808935 -1.0277492 -0.18565595 1.2322322 -0.35515487
-1.244473 -0.07125977 1.0341638 -0.31747627 1.1508993 -0.06423308 -1.068445 -0.05794746
-0.93988264 -0.04911161 -0.96919507 -0.19455692 -0.9153953 -0.22090271 -1.1926855 -0.117333926
-1.7494655 0.1032258 -1.0662682 -0.1459589 -1.0322187 -0.054290656 1.30386 -0.079645604
-1.4491699 1.0376109 -0.9566121 -0.05021073 1.364386 -0.086733386 -0.8899166 -0.03996235
-1.4784422 -0.18751097 -1.1976684 -0.24915694 1.1965607 -0.33783045 -2.1540573 -0.13805291
-1.437051 -0.38508236 -0.96692216 -0.27603272 -0.03984469 0.02889371 -1.3755041 -0.54530644
-1.252911 -0.9705312 -0.92726916 -0.0463509 -1.3321356 -0.08854799 -1.1806543 -0.10346047
1.4236485 -0.09035008 -0.98870295 -0.148407 -1.3129101 -0.11772714 -1.0133345 -0.055292323
1.4713076 -0.2878045 1.1844999 -0.075867385 1.8372331 -0.82113045 1.4622191 -0.12252794
1.3647096 -0.08086824 1.8397232 -0.16290112 -1.5879233 -0.16398314 0.9325941 -0.27754918
1.4595143 -0.16957445 1.3613149 -0.25665876 1.6706446 -0.3547418 1.5492188 -0.3266755
1.9284168 -0.54823714 1.2823194 -0.07557785 -1.7187638 -0.50700366 -1.1614064 -0.047160726
1.3851185 -0.13737363 -1.0615317 -0.061033297 1.2209994 -0.07539995 -0.9697568 -0.19483244
1.3794928 -0.038594935 -1.2516267 -0.24770516 1.2799097 -0.08061997 1.2952673 -0.12016936
-1.5540011 -0.4182638 -1.015379 -0.053740826 -1.1542124 -0.06375874 1.619459 -0.18442751
-0.9972372 -0.055831686 -1.1851091 -0.10034627 -1.8923739 -0.73742807 1.5985647 -0.16341564
-1.5055085 -0.15089628 1.5637598 -0.041395128 1.2789298 -0.0912862 -1.2867737 -0.1618134
-1.185285 -0.086162545 -0.9649928 -0.049201954 -0.9618072 -0.079590656 1.2566576 -0.11200791
-1.0883487 -0.057517804 -1.0373071 -0.0555496 -1.388683 -0.29807606 1.8442045 -0.39539737
-0.96280783 -0.21747859 -0.9986696 -0.0752496 1.3061512 -0.08044342 1.4560819 -0.086738914
1.3539405 -0.08564207 1.400462 -0.29326335 -1.2573458 -0.102172986 -1.2258607 -0.063351214
00000000: 5d10 d63f 6122 b0be 02a3 a03f e0a0 fabd
00000010: 77cd a0bf ba98 04be ab59 af3f b8b3 0fbd
00000020: 963e 9bbf 4dfc 91bd df71 b83f 2333 863d
00000030: 2f6e afbf cfdc cfbe 73ff a5bf fd15 24be
00000040: ad26 6fbf b6d3 7cbd 528f a93f 81e6 9ebd
00000050: ddce 9cbf bad6 8dbd 1329 b33f 5cc9 acbd
00000060: 8f83 9abf 7d13 98bd a738 913f cceb 81bd
00000070: 6ef8 903f 4f15 b3be e4a4 94bf 55ed a0bd
00000080: 6c72 b93f 29f6 3ebd 6d0d d6bf 3ee2 d5be
00000090: 6d3c 0940 26bf a8bf a4d9 62bf 8aae 3dbd
000000a0: 009b 88bf adf7 74bd e949 a0bf 1c4e 71bd
000000b0: de86 72bf 59b3 2bbd d457 f7bf a7d9 28bf
000000c0: 4068 a8bf def2 e3bd eadf c63f 3553 e3bd
000000d0: d424 e53f 5f4c 05be 6bb2 93bf d5c8 c1bd
000000e0: 14d9 ed3f 7d1a 81be 54be b43f eaa3 97bd
000000f0: 3709 a3bf 389f a4bd 6fb0 80bf 4d96 e2bd
00000100: 6f13 d23f 3d0b 6b3e e357 8cbf 9e08 5bbe
00000110: 3e27 9e3f d889 8fbd d1f3 983f ea2d 92bd
00000120: c446 8f3f 3f9b 81bd ed1b 0ec0 e669 47bd
00000130: 1d61 ab3f 1564 aabd df62 cc3f d5b7 a7be
00000140: 81ba bd3f ca52 1bbe ae5a a0bf 4fed 9fbd
00000150: 498d 83bf 981c 3ebe c9b9 9d3f dcd6 b5be
00000160: e44a 9fbf a4f0 91bd 7b5f 843f 408c a2be
00000170: ab50 933f a28c 83bd cec2 88bf 515a 6dbd
00000180: 269c 70bf 4129 49bd 2b1d 78bf ee39 47be
00000190: 5957 6abf 5234 62be eba9 98bf c54c f0bd
000001a0: 7cee dfbf 0c68 d33d 7a7b 88bf 4076 15be
000001b0: be1f 84bf e15f 5ebd e2e4 a63f 3c1d a3bd
000001c0: 667e b9bf 6fd0 843f 88e4 74bf c4a9 4dbd
000001d0: 33a4 ae3f 46a1 b1bd 93d1 63bf 90af 23bd
000001e0: 983d bdbf e002 40be 334d 99bf ff22 7fbe
000001f0: e728 993f 1df8 acbe 13dc 09c0 be5d 0dbe
00000200: 4af1 b7bf 8429 c5be 3688 77bf 2954 8dbe
00000210: 3034 23bd 80b2 ec3c 8510 b0bf 3499 0bbf
00000220: 635f a0bf bc74 78bf 8361 6dbf 71da 3dbd
00000230: 6b83 aabf a658 b5bd ae1f 97bf 15e3 d3bd
00000240: 1d3a b63f 7609 b9bd a31b 7dbf 01f8 17be
00000250: 700d a8bf ed1a f1bd f2b4 81bf 347a 62bd
00000260: cf53 bc3f 1d5b 93be b19d 973f 5c60 9bbd
00000270: 742a eb3f 9b35 52bf ff29 bb3f eeef fabd
00000280: ceae ae3f 3f9e a5bd 0d7c eb3f 8dcf 26be
00000290: 1241 cbbf 32eb 27be 7dbe 6e3f ed1a 8ebe
000002a0: 5dd1 ba3f eda4 2dbe 913f ae3f c768 83be
000002b0: afd7 d53f b8a0 b5be cd4c c63f 0342 a7be
000002c0: 5dd6 f63f 4559 0cbf 0b23 a43f 8fc8 9abd
000002d0: 7400 dcbf feca 01bf f7a8 94bf 9b2b 41bd
000002e0: 904b b13f acab 0cbe 45e0 87bf 0dfe 79bd
000002f0: b549 9c3f 4a6b 9abd fb41 78bf 2882 47be
00000300: 3893 b03f b915 1ebd 4e35 a0bf 6ca6 7dbe
00000310: 15d4 a33f 151c a5bd 52cb a53f 5a1b f6bd
00000320: 82e9 c6bf ac26 d6be f0f7 81bf 571f 5cbd
00000330: 3bbd 93bf f193 82bd 6f4a cf3f 91da 3cbe
00000340: f04a 7fbf c4af 64bd a8b1 97bf 5882 cdbd
00000350: 4f39 f2bf 16c8 3cbf c59d cc3f 6e56 27be
00000360: 81b4 c0bf 8e84 1abe 4829 c83f f08d 29bd
00000370: f9b3 a33f 42f4 babd 00b5 a4bf 69b2 25be
00000380: 6bb7 97bf fd75 b0bd c509 77bf fd87 49bd
00000390: ff38 76bf 6d00 a3bd 28da a03f 6764 e5bd
000003a0: 034f 8bbf ca97 6bbd 7bc6 84bf fa87 63bd
000003b0: 5dc0 b1bf 6d9d 98be e50e ec3f 8671 cabe
000003c0: 937a 76bf b5b2 5ebe d0a8 7fbf 761c 9abd
000003d0: f62f a73f 85bf a4bd e460 ba3f 2ca4 b1bd
000003e0: ec4d ad3f 1c65 afbd 5742 b33f 9d26 96be
000003f0: b5f0 a0bf 1240 d1bd 01e9 9cbf 48be 81bd

model.0.bias f4 [128]
-2.7534442 -6.4156203 -4.459327 -4.9462395 -5.085288 -3.0957649 -2.4603808 -4.3565226
-4.7120686 -6.2914248 -5.2749977 -6.4213047 -4.9877644 -5.4308434 -3.6435323 -3.7898176
-4.967195 -0.813342 -2.219232 -4.39281 -5.0567017 -4.307954 -4.481243 -1.1327423
-3.3645842 -4.0999794 -5.046406 -3.9177074 -3.2003353 -5.6432114 -5.0960755 -2.8532407
-2.5290358 -5.2267647 -5.960926 -5.827679 -5.4850616 0.94471836 -6.0791535 -3.9691436
-4.6224184 -5.098081 -2.4774337 -4.665686 -4.868181 -5.223999 -5.680215 -4.7599907
-4.263087 -2.5993757 -3.3782206 -3.604478 -1.6455402 -2.4454787 -5.039601 -5.846182
-0.79756963 -4.427097 -5.6909704 -4.294777 -2.4101114 -4.840207 -5.2606087 0.042542923
-2.2225885 -3.1805336 -0.68029135 -1.5578705 -0.29392222 -4.553445 -3.9925048 -3.174794
-6.0942883 -3.0903258 -4.826601 -4.5629582 -3.3319745 -5.0075026 -2.967927 -5.7495465
-6.3452554 -6.937818 -2.8240783 -5.26281 -4.7867537 -4.1731067 -2.870434 -2.3660274
-3.1336281 -6.028293 -2.0117624 -4.386485 -3.5325508 -4.5115795 -6.071469 -4.933986
-5.272329 -5.5297575 -5.678036 -3.0976226 -2.1113493 -4.878511 -5.0865703 -5.5613227
-4.348754 -4.59655 -0.9686081 -5.747835 -2.933676 -5.008571 -3.8017573 -3.064814
-3.7547607 -4.8056884 -4.9220815 -5.0854025 -4.987984 -4.839241 -2.291133 -2.10586
-5.302392 -2.8132172 -5.734759 -5.9601274 -5.8763733 -3.9198985 -4.752262 -4.4213877
00000000: 6e38 30c0 c34c cdc0 cfb2 8ec0 9847 9ec0
00000010: aeba a2c0 0321 46c0 e176 1dc0 a268 8bc0
00000020: 44c9 96c0 5a53 c9c0 c8cc a8c0 547b cdc0
00000030: c49b 9fc0 78c9 adc0 a22f 69c0 5f8c 72c0
00000040: 43f3 9ec0 2e37 50bf e607 0ec0 e691 8cc0
00000050: 80d0 a1c0 c2da 89c0 5866 8fc0 b3fd 90bf
00000060: 5955 57c0 0833 83c0 287c a1c0 b8bb 7ac0
00000070: 4bd2 4cc0 3095 b4c0 0d13 a3c0 7f9b 36c0
00000080: b9db 21c0 a841 a7c0 e8bf bec0 597c bac0
00000090: a085 afc0 10d9 713f 6d88 c2c0 7306 7ec0
000000a0: daea 93c0 7b23 a3c0 468e 1ec0 4d4d 95c0
000000b0: 24c8 9bc0 002b a7c0 52c4 b5c0 d851 98c0
000000c0: 356b 88c0 2c5c 26c0 c434 58c0 c4af 66c0
000000d0: 10a1 d2bf b982 1cc0 6944 a1c0 ec13 bbc0
000000e0: 862d 4cbf c7aa 8dc0 6e1c b6c0 d06e 89c0
000000f0: 443f 1ac0 fae2 9ac0 e856 a8c0 7d41 2e3d
00000100: e43e 0ec0 dd8d 4bc0 9327 2ebf 4d68 c7bf
00000110: f97c 96be d2b5 91c0 3385 7fc0 d32f 4bc0
00000120: 6904 c3c0 e6c7 45c0 8473 9ac0 c103 92c0
00000130: 123f 55c0 763d a0c0 84f2 3dc0 49fc b7c0
00000140: 550c cbc0 9b02 dec0 b3bd 34c0 f168 a8c0
00000150: 162d 99c0 178a 85c0 31b5 37c0 fe6c 17c0
00000160: 5d8d 48c0 c7e7 c0c0 b7c0 00c0 165e 8cc0
00000170: 5015 62c0 dc5e 90c0 7949 c2c0 37e3 9dc0
00000180: ebb6 a8c0 c6f3 b0c0 79b2 b5c0 733f 46c0
00000190: 5920 07c0 c31c 9cc0 2fc5 a2c0 5bf6 b1c0
000001a0: fe28 8bc0 f016 93c0 b3f6 77bf 44ee b7c0
000001b0: 59c1 3bc0 3746 a0c0 fe4f 73c0 ea25 44c0
000001c0: 004e 70c0 33c8 99c0 b181 9dc0 9ebb a2c0
000001d0: 919d 9fc0 10db 9ac0 eca1 12c0 69c6 06c0
000001e0: 32ad a9c0 c00b 34c0 2583 b7c0 5db9 bec0
000001f0: 400b bcc0 9edf 7ac0 8812 98c0 027c 8dc0

model.2.weight f4 [128, 128]
1.6701608 5.007605 2.7950678 3.01179 3.323178 2.059384 1.3223138 2.8156695
3.0962024 4.5888476 3.6385596 4.5229173 3.0604603 3.3232768 2.1058545 2.322258
3.013246 0.5773317 1.3806182 3.637175 3.6787906 2.3680353 3.1398473 0.5983607
1.8006219 2.5308976 3.9391348 2.5031219 1.9134653 3.2583952 3.6593614 2.2546473
1.624386 4.322112 4.0944347 3.696951 3.7996256 -0.19205998 3.9528563 2.2778199
3.0068376 3.2350957 1.799364 2.84841 2.7654796 3.421126 4.072826 3.0642338
2.627014 1.5208384 1.7614846 2.266511 1.0290391 1.5514761 4.0548234 4.1623373
-0.10337902 2.9220338 4.3236256 3.2691336 1.5156536 3.5816553 3.2896297 -0.09545814
1.2449732 1.7148525 0.03502497 1.0645294 0.40557754 3.1114895 2.3203373 1.8961728
3.9159472 2.0366151 2.7873573 2.822084 2.04182 3.6044638 1.8357701 4.3385096
4.8569207 5.8746443 1.5581752 3.465621 3.130848 2.5728161 1.6366606 1.5337781
1.7405202 4.0457377 1.1800517 2.6622884 2.363694 3.1850922 4.512267 3.9869392
3.0652616 4.1128516 3.6047552 2.2381303 1.3628502 3.4271185 3.201082 4.00581
2.6948662 2.6816936 0.5268957 4.3297167 1.6869212 3.1773162 2.787162 1.7356178
2.575503 3.1825223 3.4810586 3.047441 3.5363793 3.9113836 1.3751116 1.5250285
4.1660643 2.0621161 3.4450247 3.7559748 4.0701385 2.6183212 2.6525528 2.597671
-0.116372004 -0.053426977 0.02199091 -0.04459755 -0.006647419 0.032968424 -0.1093584 -0.039231542
-0.16283125 -0.051065415 -0.17994565 -0.06728537 -0.09330297 0.033569492 0.1364947 -0.08751982
-0.0344861 -0.044927664 -0.05179762 -0.047970127 -0.15989684 -0.22388184 -0.24002278 -0.16133823
-0.044127326 0.0012322235 0.03481991 -0.06798035 -0.01918407 -0.06445222 -0.039551888 -0.13035022
-0.055881657 0.02281763 0.043707754 0.07523816 -0.075739436 -0.15430792 -0.069558434 -0.07980648
-0.100205734 -0.021413116 -0.075058855 0.08741722 -0.18062547 -0.030071702 0.0063525066 -0.21070032
-0.118610606 -0.027010342 -0.15942508 -0.04969435 -0.197354 -0.13658655 -0.17593595 0.041199632
0.0052957563 -0.20858891 -0.017782336 -0.19381292 -0.10854946 0.0015245933 -0.012869991 -0.068679206
-0.09865741 -0.03584167 -0.059028916 -0.069957234 -0.030578265 -0.16664274 0.012444496 -0.17167114
0.07322126 -0.20381673 -0.15419789 -0.16510113 -0.11175227 0.013042487 -0.053515065 0.021034623
-0.020176403 0.05102084 -0.10649987 0.036535576 -0.0927978 -0.06261266 -0.059601553 0.022330629
0.03169284 0.035779424 -0.124159195 -0.19278432 -0.09717071 -0.09979662 -0.08064498 -0.05867654
-0.0043509007 -0.058924995 -0.07383434 -0.061807584 -0.06844362 -0.15789388 -0.089391105 0.03262679
-0.117194265 -0.08896876 -0.04250375 -0.0076565063 -0.063104495 0.02059231 -0.06984525 -0.23163033
-0.0525857 -0.19340418 -0.13641326 -0.08038807 -0.12867966 -0.06213729 -0.11799345 0.020332083
-0.11281048 -0.02409685 0.0374976 -0.10426812 -0.11151732 0.0361704 -0.08240056 -0.0880084
00000000: d4c7 d53f 4d3e a040 64e2 3240 2bc1 4040
00000010: f3ae 5440 f3cc 0340 9441 a93f ee33 3440
00000020: 2e28 4640 d7d7 9240 29de 6840 bdbb 9040
00000030: 95de 4340 91b0 5440 52c6 0640 e09f 1440
00000040: 06d9 4040 03cc 133f 19b8 b03f 7ac7 6840
00000050: 4e71 6b40 e48d 1740 42f3 4840 2b2e 193f
00000060: c77a e63f 3afa 2140 c91a 7c40 2633 2040
00000070: 6eec f43f 8c89 5040 fa32 6a40 244c 1040
00000080: e1eb cf3f be4e 8a40 9c05 8340 d89a 6c40
00000090: 112d 7340 5fab 44be 99fb 7c40 cdc7 1140
000000a0: 0770 4040 cf0b 4f40 8f51 e63f 594c 3640
000000b0: 9efd 3040 baf3 5a40 9754 8240 681c 4440
000000c0: ff20 2840 d5aa c23f 5478 e13f 840e 1140
000000d0: 8eb7 833f c596 c63f 1dc1 8140 de31 8540
000000e0: 61b8 d3bd 9a02 3b40 245b 8a40 7c39 5140
000000f0: f000 c23f d739 6540 4b89 5240 8f7f c3bd
00000100: 485b 9f3f 4980 db3f 5876 0f3d 8042 883f
00000110: dca7 cf3e a522 4740 6880 1440 cab5 f23f
00000120: e19e 7a40 e757 0240 1064 3240 069d 3440
00000130: 2ead 0240 89af 6640 84fa ea3f 12d5 8a40
00000140: e56b 9b40 16fd bb40 4972 c73f bccc 5d40
00000150: d05f 4840 05a9 2440 187e d13f d752 c43f
00000160: 5ec9 de3f af76 8140 ef0b 973f ef62 2a40
00000170: c346 1740 8dd8 4b40 7e64 9040 032a 7f40
00000180: 3f2d 4440 7b9c 8340 4fb4 6640 873d 0f40
00000190: e071 ae3f e955 5b40 87de 4c40 982f 8040
000001a0: b078 2c40 dea0 2b40 a3e2 063f 0a8d 8a40
000001b0: 09ed d73f 2659 4b40 dd60 3240 b928 de3f
000001c0: 0bd5 2440 72ae 4b40 aac9 5e40 4609 4340
000001d0: 0a54 6240 1c54 7a40 a803 b03f 2234 c33f
000001e0: 6650 8540 b6f9 0340 497b 5c40 e461 7040
000001f0: 933e 8240 9392 2740 6dc3 2940 3e40 2640
00000200: 7254 eebd 3fd6 5abd 4826 b43c ecab 36bd
00000210: 98d2 d9bb e609 073d 4cf7 dfbd 41b1 20bd
00000220: 3cbd 26be f829 51bd ac43 38be e9cc 89bd
00000230: a115 bfbd 2a80 093d 44c5 0b3e 973d b3bd
00000240: 4c41 0dbd 1206 38bd be29 54bd 537c 44bd
00000250: ffbb 23be 4841 65be 88c8 75be d935 25be
00000260: dbbe 34bd 8f82 a13a 529f 0e3d 4839 8bbd
00000270: e927 9dbc 87ff 83bd 2901 22bd 877a 05be
00000280: 2ae4 64bd 0aec ba3c e706 333d 7716 9a3d
00000290: 471d 9bbd e502 1ebe a774 8ebd 9471 a3bd
000002a0: aa38 cdbd 8f6a afbc 75b8 99bd cd07 b33d
000002b0: e2f5 38be ee58 f6bc b028 d03b d3c1 57be
000002c0: 1eea f2bd cb44 ddbc 5440 23be 4e8c 4bbd
000002d0: 2b17 4abe 58dd 0bbe 8e28 34be f2c0 283d
000002e0: 0688 ad3b 5598 55be 43ac 91bc e576 46be
000002f0: 2e4f debd ddd4 c73a a8dc 52bc afa7 8cbd
00000300: e50c cabd b7ce 12bd 4ec8 71bd bd45 8fbd
00000310: 457f fabc 65a4 2abe 00e4 4b3c 8fca 2fbe
00000320: 07f5 953d 55b5 50be 0de6 1dbe 4510 29be
00000330: 60de e4bd 28b0 553c 9d32 5bbd cd50 ac3c
00000340: fc48 a5bc 3afb 503d 9b1c dabd 54a6 153d
00000350: c60c bebd 113b 80bd c220 74bd b9ee b63c
00000360: 5ad0 013d 728d 123d 2d47 febd 4169 45be
00000370: 7001 c7bd 2c62 ccbd 3229 a5bd d056 70bd
00000380: 0092 8ebb 565b 71bd 7536 97bd f329 7dbd
00000390: 2b2c 8cbd efae 21be af12 b7bd aba3 053d
000003a0: 8c03 f0bd 4135 b6bd 6a18 2ebd 6ee3 fabb
000003b0: ee3c 81bd 34b1 a83c 070b 8fbd 8030 6dbe
000003c0: 1a64 57bd bf0b 46be ebaf 0bbe 80a2 a4bd
000003d0: 9ac4 03be ac83 7ebd 8da6 f1bd 788f a63c
000003e0: 2e09 e7bd c266 c5bc 1597 193d 868a d5bd
000003f0: 3163 e4bd 6a27 143d a0c1 a8bd bf3d b4bd

model.2.bias f4 [128]
-3.105396 -0.09404749 -2.7367601 -2.8347697 3.6883588 14.641461 -0.057809725 -3.0129302
-2.7325783 -2.5126958 -2.838802 -2.755376 -0.13585043 -2.983335 -2.5912354 -2.7319705
-2.5339282 -0.030674051 -0.05524291 -2.8869784 -0.080623545 -3.038526 -0.07805825 -2.5700371
6.8727217 -0.068485945 -0.17334859 7.3423743 -2.6670697 -2.791621 -2.7581406 -0.10888472
-2.8986301 -0.0017782227 -3.1597319 -0.11260947 -0.11387459 -2.7229102 8.772866 -0.04697106
-2.6609468 -2.5955133 -2.9021025 -0.027569506 -2.952067 0.00038881972 3.0559573 -0.07411533
-2.743864 -2.8551457 -2.883343 -0.079762995 -2.9685724 -2.6845903 -0.09887146 -0.002120979
-2.9403722 -2.8591912 6.738065 -2.750906 -0.08948782 -0.11423596 -2.8025863 6.1877165
-0.0782452 -0.055091456 -2.7985091 -2.789236 0.02320011 -0.10107812 -0.018461276 -0.00089457445
-0.04412096 -3.2749703 -3.0448785 -14.662085 -2.9199495 -0.10790556 -0.0852216 -0.027020153
-2.6311994 -0.17739141 -3.907042 5.771977 -0.002102971 -0.0180956 -3.0541837 -0.10981514
-2.7173936 -0.0019896221 -0.050719507 -2.6985571 6.5746927 -2.6607695 -2.6241503 -0.07521598
-3.1510482 -0.02262116 -2.741522 -2.5675685 -0.01677057 -0.1260721 -2.989222 -2.8625233
-3.1625361 0.00011153968 -0.020351322 -2.7943108 -3.0111594 -2.5361981 -0.09886421 14.379338
-2.6810327 1.555557 -0.010551039 -0.07463896 -2.9128623 -0.11711298 -0.09368097 -0.017716551
-2.6587408 -6.243828e-05 -2.71908 -3.4344761 -2.7988224 -2.7394788 -3.038814 -2.721816
00000000: cfbe 46c0 f89b c0bd 1427 2fc0 de6c 35c0
00000010: 120e 6c40 6d43 6a41 e4c9 6cbd d9d3 40c0
00000020: 90e2 2ec0 02d0 20c0 efae 35c0 1558 30c0
00000030: 601c 0bbe f6ee 3ec0 cdd6 25c0 9bd8 2ec0
00000040: e12b 22c0 2648 fbbc 6446 62bd 41c4 38c0
00000050: f51d a5bd 3677 42c0 01dd 9fbd 7d7b 24c0
00000060: 56ed db40 5c42 8cbd 4b82 31be bbf4 ea40
00000070: 45b1 2ac0 eba9 32c0 6085 30c0 f4fe debd
00000080: 2883 39c0 4113 e9ba 0c39 4ac0 cb9f e6bd
00000090: 1537 e9bd 2944 2ec0 a95d 0c41 ba64 40bd
000000a0: f44c 2ac0 e41c 26c0 0cbc 39c0 72d9 e1bc
000000b0: aaee 3cc0 80da cb39 ce94 4340 c7c9 97bd
000000c0: 789b 2fc0 b5ba 36c0 b188 38c0 c85a a3bd
000000d0: 17fd 3dc0 54d0 2bc0 1f7d cabd 1f00 0bbb
000000e0: 0f2f 3cc0 fdfc 36c0 3a9e d740 d80e 30c0
000000f0: 6445 b7bd 8bf4 e9bd 935d 33c0 c601 c640
00000100: 053f a0bd 94a7 61bd c61a 33c0 d882 32c0
00000110: 280e be3c 0c02 cfbd 1a3c 97bc e081 6aba
00000120: 2eb8 34bd 1d99 51c0 4adf 42c0 e697 6ac1
00000130: 74e0 3ac0 97fd dcbd aa88 aebd 5e59 ddbc
00000140: 9265 28c0 18a6 35be fa0c 7ac0 09b4 b840
00000150: 00d2 09bb 393d 94bc bf77 43c0 c3e6 e0bd
00000160: c7e9 2dc0 5264 02bb 42bf 4fbd 29b5 2cc0
00000170: e263 d240 0c4a 2ac0 14f2 27c0 d60a 9abd
00000180: c6aa 49c0 0350 b9bc 1975 2fc0 0b53 24c0
00000190: 6f62 89bc 0b19 01be 6a4f 3fc0 9533 37c0
000001a0: fe66 4ac0 69ea e938 d1b7 a6bc fdd5 32c0
000001b0: d6b6 40c0 1251 22c0 5279 cabd c511 6641
000001c0: 0a96 2bc0 7e1c c73f 44de 2cbc 50dc 98bd
000001d0: 566c 3ac0 eed8 efbd cfdb bfbd 4d22 91bc
000001e0: cf28 2ac0 4cf1 82b8 6805 2ec0 75ce 5bc0
000001f0: e81f 33c0 9f53 2fc0 ee7b 42c0 3c32 2ec0

model.4.weight f4 [1, 128]
3.106656 -0.07891513 3.0750754 3.117716 6.0922794 11.0233965 -0.02901361 3.1505485
3.0662305 3.123491 3.0999742 3.120162 0.017741825 3.0615926 3.0920808 3.0695302
3.0835078 -0.05507405 -0.02731644 3.1121037 0.08507677 3.1452575 -0.0057286886 3.107953
6.161171 -0.0051380745 0.023678524 -9.811621 3.0718672 3.1093235 3.137225 -0.017647427
3.091356 -0.039001998 3.0849404 -0.027921041 -0.03814479 3.122346 5.3205595 -0.042027332
3.1028502 3.171937 3.1180375 -0.016475286 3.0828016 5.898537 9.475028 -0.034954015
3.1086094 3.1008973 3.1402612 0.02218491 3.0970602 3.109445 -0.012790199 -0.025253367
3.072864 3.1199129 9.307569 3.091087 -0.021046607 -0.005765341 3.098548 2.8841445
0.03055639 -0.0022522835 3.0768776 3.1026852 -0.023281805 -0.042528696 -0.020626642 4.2490077
-0.033844687 3.181737 3.1583025 15.268316 3.123614 -0.028485248 0.012883048 -0.0071168407
3.0879595 -0.066986926 -6.625303 -4.1142507 -0.044289812 -0.016588256 3.086744 -0.0075115706
3.1284788 -0.012197648 -0.023524936 3.096077 9.663611 3.1035135 3.0940661 -0.02301302
3.1223316 -0.055726185 3.0846937 3.0931122 -0.009338854 0.024807354 3.142236 3.105419
3.102297 6.4848905 0.02667728 3.1090288 3.111498 3.080124 -0.011057108 -20.320679
3.132304 -0.86271584 0.002124449 -0.030866621 3.0687973 0.020816771 0.015089956 -0.04180232
3.144171 10.026889 3.0781631 3.3482664 3.110041 3.0739236 3.1147044 3.1127093
00000000: 74d3 4640 419e a1bd 09ce 4440 a988 4740
00000010: f4f3 c240 d55f 3041 f3ad edbc 96a2 4940
00000020: 1f3d 4440 47e7 4740 fa65 4640 bcb0 4740
00000030: 4e57 913c 22f1 4340 a7e4 4540 2f73 4440
00000040: 3158 4540 5495 61bd bac6 dfbc b52c 4740
00000050: bb3c ae3d e64b 4940 b9b7 bbbb b4e8 4640
00000060: 5028 c540 4b5d a8bb 77f9 c13c 66fc 1cc1
00000070: 7999 4440 28ff 4640 4bc8 4840 5691 90bc
00000080: c7d8 4540 8fc0 1fbd aa6f 4540 abba e4bc
00000090: b63d 1cbd 84d4 4740 0642 aa40 da24 2cbd
000000a0: 1995 4640 0401 4b40 ed8d 4740 2ef7 86bc
000000b0: 9f4c 4540 d1c0 bc40 b799 1741 f12b 0fbd
000000c0: 75f3 4640 1a75 4640 0afa 4840 21bd b53c
000000d0: 3c36 4640 2601 4740 fc8d 51bc 26e0 cebc
000000e0: cea9 4440 a7ac 4740 cdeb 1441 5fd4 4540
000000f0: ef69 acbc 30eb bcbb 9c4e 4640 d395 3840
00000100: 6551 fa3c 0c9b 13bb 90eb 4440 6592 4640
00000110: 7cb9 bebc 9232 2ebd 34f9 a8bc dff7 8740
00000120: baa0 0abd 94a1 4b40 a121 4a40 064b 7441
00000130: 4be9 4740 e559 e9bc 6b13 533c 6334 e9bb
00000140: 21a1 4540 7130 89bd 7b02 d4c0 f1a7 83c0
00000150: 3c69 35bd 18e4 87bc 378d 4540 9f23 f6bb
00000160: ff38 4840 a5d8 47bc 5eb7 c0bc 2026 4640
00000170: 279e 1a41 f79f 4640 2e05 4640 cd85 bcbc
00000180: 48d4 4740 2441 64bd 9f6b 4540 8df5 4540
00000190: fe01 19bc cb38 cb3c 651a 4940 2fbf 4640
000001a0: 098c 4640 3984 cf40 508a da3c 54fa 4640
000001b0: c922 4740 c020 4540 df28 35bc c090 a2c1
000001c0: ab77 4840 f2da 5cbf 573a 0b3b ffdb fcbc
000001d0: 2d67 4440 ef87 aa3c dd3b 773c e938 2bbd
000001e0: 193a 4940 236e 2041 a000 4540 ff49 5640
000001f0: e90a 4740 2abb 4440 5157 4740 a136 4740
